results/question1_climate_control/GRUmodel_q1.pth (torch, 207078 bytes, 7 tensors)

gru.weight_ih_l0 f4 [384, 2]
0.04650111 0.119128436 0.0041496023 0.13888165 0.11261217 -0.019699218 -0.0006449007 -0.010398594
0.12524743 0.022197042 0.05002288 0.09382731 0.0020695254 -0.009292181 0.11350725 0.08919055
-0.01619686 -0.011832663 -0.055351794 -0.01066363 -0.031343505 -0.03186164 0.0992079 0.020399515
0.087580785 0.08346285 0.048699807 0.1338018 0.08805589 0.06770165 0.19275719 -0.006818748
0.10025158 -0.022408618 0.13051 0.066811405 -0.0035379694 -0.020830804 0.15225597 0.05233673
0.013191816 0.13758652 0.006086646 0.09467069 -0.012906542 -0.028811786 -0.00517127 -0.0024294816
0.09732763 0.06807119 0.1734097 -0.040732685 -0.15949915 0.009128668 0.056098904 0.065628886
0.15368944 -0.082621545 0.018651508 0.0262943 0.08940777 0.104127474 0.11642959 0.049777754
-0.051118053 -0.03920054 0.0043981723 0.0056817345 0.040700864 0.09900076 0.08639164 0.06380606
0.11945764 0.023118496 -0.013882101 -0.032636736 0.116237685 -0.07519639 0.09743765 0.11058607
0.1961519 -0.049061872 -0.17597932 0.04567192 -0.015569952 -0.044284653 0.0021603552 0.00042433623
0.07191947 0.020666579 0.0016341256 -0.00021423984 0.13707665 -0.0063265036 -0.005850379 0.0004772411
0.0045816037 0.0019486134 0.12489585 0.06408665 0.055890072 0.051336642 -4.4079363e-05 -0.012278789
-0.004858195 -0.011805784 0.11147515 0.028791595 0.0010534973 -0.0029193184 0.09501398 0.03597928
0.08946274 0.009285689 -0.069676846 -0.062172208 -0.11906312 0.006801153 0.13597004 -0.055663813
0.13208286 0.049319558 0.112653926 0.063010335 0.049313918 0.003998789 0.054558557 0.0083651645
0.078994125 0.041183695 -0.00071184355 0.12740847 -0.014397429 -0.010829927 -0.053668518 0.0809824
0.01157587 0.1880012 -0.052072067 0.009793958 0.021287186 0.057879925 0.108038835 0.07898069
0.00050150044 -0.0067187813 -7.4948155e-05 -0.0018544421 0.07645781 0.09025976 -8.6509935e-05 0.007455389
0.08048158 0.113245785 -0.010520637 -0.026272243 0.047647506 0.003737538 0.1175927 0.07130785
0.08486625 0.024987578 -0.06170557 -0.0059155016 -0.038072888 -0.03524068 0.0009865266 -0.0003721636
-0.0017919595 -0.0048012706 0.00029455806 0.0010026137 0.003798308 0.00028096087 -0.00022586528 -0.010659096
-0.016830852 -0.038619354 0.10633371 0.101591974 -0.056531344 -0.07550093 0.011040548 0.09715868
0.08287517 0.08239739 0.025668794 0.084651984 -0.05912956 -0.019888323 -6.2693456e-05 -0.02833515
0.02789238 0.08438173 -0.0001399514 0.00047496788 0.028908921 0.19475582 0.002855671 -0.009366944
0.04606324 0.09333926 0.19552955 -0.005505619 0.079877794 0.09734406 0.044190727 0.03190866
0.15644865 0.029149165 0.07361651 0.020687195 -0.075894706 -0.00058306544 -0.0153031135 -0.03412739
-0.008311385 -0.030676916 0.08605242 0.04058339 -0.02162014 -0.11201954 -0.007366677 -0.026710546
-0.0035141625 -0.004325277 0.091908865 0.024467934 0.06097827 0.108591326 -0.0056930967 -0.020805618
-0.08071806 -0.037147153 -0.011005626 0.006652233 0.060505383 0.12961048 0.044370778 0.051285576
-0.0020647773 -0.010281512 0.10562686 -0.010141545 0.003205792 0.0008024203 0.0433321 0.005916519
0.2865889 -0.01487488 0.04424403 0.12585753 0.066427484 0.013196435 -0.010584368 -0.036067896
00000000: f377 3e3d 9cf9 f33d 63f9 873b fe36 0e3e
00000010: 36a1 e63d 4160 a1bc 8e0e 29ba dd5e 2abc
00000020: dd40 003e 92d6 b53c cbe4 4c3d 8828 c03d
00000030: e0a0 073b 3b3e 18bc 7d76 e83d 89a9 b63d
00000040: 47af 84bc c9dd 41bc 90b8 62bd 82b6 2ebc
00000050: 0c62 00bd 5a81 02bd 832d cb3d e21c a73c
00000060: 8e5d b33d 92ee aa3d 7379 473d 5703 093e
00000070: a556 b43d 2aa7 8a3d 2462 453e ce6f dfbb
00000080: b350 cd3d 4792 b7bc 6aa4 053e 6bd4 883d
00000090: 47dd 67bb 5da5 aabc fde8 1b3e 0a5f 563d
000000a0: 7d22 583c 7be3 0c3e 7d72 c73b b5e2 c13d
000000b0: f675 53bc b206 ecbc c273 a9bb f037 1fbb
000000c0: b553 c73d e868 8b3d 5092 313e 51d7 26bd
000000d0: bf53 23be 6990 153c f7c7 653d 7068 863d
000000e0: c460 1d3e 7c35 a9bd 0ccb 983c 2567 d73c
000000f0: 6c1b b73d c940 d53d a372 ee3d c2e3 4b3d
00000100: 2a61 51bd bf90 20bd 8b1e 903b d82d ba3b
00000110: f3b5 263d e9c0 ca3d 1aee b03d c0ac 823d
00000120: 35a6 f43d 0063 bd3c c071 63bc 19ae 05bd
00000130: 060e ee3d 9100 9abd 648d c73d f37a e23d
00000140: 0bdc 483e 1af5 48bd ec33 34be 7b12 3b3d
00000150: 1d19 7fbc d363 35bd bf94 0d3b 7279 de39
00000160: 844a 933d f54c a93c 2830 d63a 92a5 60b9
00000170: d25d 0c3e 8f4e cfbb 89b4 bfbb 3736 fa39
00000180: 4721 963b 9e68 ff3a 65c9 ff3d dd3f 833d
00000190: fdec 643d 5f46 523d dbe1 38b8 f92c 49bc
000001a0: 7e31 9fbb 0c6d 41bc 154d e43d 5adc eb3c
000001b0: 8115 8a3a 0952 3fbb b196 c23d 025f 133d
000001c0: 3e38 b73d 0123 183c bcb2 8ebd 49a8 7ebd
000001d0: 5dd7 f3bd 35dc de3b bb3b 0b3e bdff 63bd
000001e0: bb40 073e 4e03 4a3d 1ab7 e63d 900b 813d
000001f0: 64fd 493d 4608 833b cb78 5f3d 0b0e 093c
00000200: acc7 a13d 3cb0 283d 039b 3aba 5e77 023e
00000210: 32e3 6bbc 0270 31bc 85d3 5bbd 1ada a53d
00000220: b8a8 3d3c 6383 403e 8549 55bd d676 203c
00000230: 7762 ae3c 8013 6d3d 7743 dd3d a1c0 a13d
00000240: 2077 033a 3929 dcbb 7c2d 9db8 c010 f3ba
00000250: ea95 9c3d 1cda b83d ab6c b5b8 564c f43b
00000260: 87d3 a43d 68ed e73d c05e 2cbc e338 d7bc
00000270: 082a 433d 7bf1 743b 71d4 f03d da09 923d
00000280: 5bce ad3d c0b2 cc3c fbbe 7cbd d3d6 c1bb
00000290: 51f2 1bbd 8858 10bd 574e 813a f41e c3b9
000002a0: 2fe0 eaba fa53 9dbb ea6e 9a39 226a 833a
000002b0: 09ed 783b ee4d 9339 40d6 6cb9 7da3 2ebc
000002c0: dbe0 89bc 542f 1ebd 7dc5 d93d 740f d03d
000002d0: 698d 67bd 3ba0 9abd 6ae3 343c 21fb c63d
000002e0: 75ba a93d f6bf a83d 5d47 d23c 055e ad3d
000002f0: d631 72bd d6ec a2bc 4b7a 83b8 1e1f e8bc
00000300: 8f7e e43c 54d0 ac3d ebbf 12b9 1c05 f939
00000310: 67d2 ec3c 126e 473e 3626 3b3b d077 19bc
00000320: cfac 3c3d a728 bf3d e638 483e 7b68 b4bb
00000330: f896 a33d 535c c73d 5601 353d a8b2 023d
00000340: 1334 203e 3bca ee3c 41c4 963d 3178 a93c
00000350: af6e 9bbd dcd8 18ba e9b9 7abc 29c9 0bbd
00000360: 7a2c 08bc 284e fbbc 403c b03d c53a 263d
00000370: b81c b1bc 806a e5bd 2a64 f1bb 13d0 dabc
00000380: dd4d 66bb 0ebb 8dbb b73a bc3d fa70 c83c
00000390: 5ac4 793d 2165 de3d 288d babb 8b70 aabc
000003a0: 834f a5bd 9d27 18bd f150 34bc fafa d93b
000003b0: 7ed4 773d 9cb8 043e 22be 353d d310 523d
000003c0: 3751 07bb c973 28bc e552 d83d b928 26bc
000003d0: 4418 523b 8459 523a 007d 313d 5cdf c13b
000003e0: c8bb 923e c5b5 73bc 3a39 353d cce0 003e
000003f0: 220b 883d dc35 583c 0f6a 2dbc eebb 13bd

gru.weight_hh_l0 f4 [384, 128]
-0.009588954 0.0049588135 -0.011643413 -0.008422216 -0.012737533 -0.0052384925 0.0084345555 0.006776617
-0.0084065115 0.008407054 0.008527092 -0.010862755 0.00037323975 -0.002682302 -0.0040534358 -0.0048217503
-0.0009121988 0.0053930623 0.008432607 0.003091662 -0.00045080786 0.0023911374 -0.008446277 6.073657e-06
-0.0010771251 0.001583436 -0.008106207 -0.008503592 -0.00030090765 -0.0031433997 0.0017181201 -0.0065111676
-0.00830291 0.0012313878 -0.00015330789 0.008093514 0.004279429 -0.008385231 0.0042113727 -0.0054385453
0.007109962 -0.0005282724 -0.00847624 -0.007443465 -0.0016861237 0.008470228 -0.0015026723 -0.008418712
0.007392737 0.001468853 0.0075514372 0.008454254 0.00020439617 0.006472854 -0.008466014 -0.00064207864
-0.00835436 -0.00059903477 -0.00053005223 0.008622443 0.001722178 -0.00127861 0.0024494098 0.0011701215
-0.008791688 -0.00030628176 0.0009349431 0.007227114 -0.007336061 0.0018182072 -0.0031230834 -0.0067164297
-0.008465245 0.008464377 0.007895522 0.00020518436 -0.0061093066 -4.095228e-05 0.005926201 0.0020312697
-0.009116201 0.0027288424 -0.006819012 0.0037212048 -0.0015692081 0.0032298844 0.0084620025 0.008442966
0.008494661 0.006914641 -0.003248147 -0.00017643806 0.008130359 0.0040493417 -0.008262327 0.008456624
-0.0077926978 -0.0011587378 0.00013207059 0.00845674 -0.0037198472 -0.007989853 0.004882936 0.00049850094
0.0022738294 -0.0031496694 -0.008537456 -0.0084318295 0.008410256 -0.0070768115 0.0023584198 0.00021868112
-0.00432994 -0.008226531 -0.006745562 0.00019031327 0.0010432991 0.003423206 -0.0025104147 -0.00805906
0.0084459605 0.006458575 0.008468238 -0.0060012196 -0.0004487868 0.00071100093 0.0058444194 0.008361249
0.0052220244 -0.0075332066 -0.0041020755 0.0064648185 0.010051302 0.0012896674 -0.006483403 0.004867079
0.0064819767 -0.0064698667 -0.006798284 0.0073559396 0.010649897 0.002420271 -0.0029265035 -0.012867435
-0.0063356785 0.014287414 -0.006379332 0.00070563186 0.0016403799 -0.021930357 0.006514176 0.0028154692
-0.00084222195 -0.010463055 0.0064571504 0.007342156 0.0017687053 0.00989051 -0.0015396358 0.002959742
0.008264013 -0.0071424944 -0.0006834429 -0.007226722 -0.0084873885 0.006465866 -0.0065068873 -0.006635445
-0.005123269 0.0011867582 0.0064490912 0.005576603 0.003959364 -0.006442498 0.0086678015 0.006450111
-0.006395649 -0.0066808183 -0.01369141 -0.006466439 0.005512123 -0.014518191 0.0064435666 0.0036854034
-0.0063552437 -0.004803581 -0.0038524684 -0.008043276 -0.007535233 -1.611137e-05 -0.0054366896 -0.006284157
0.009525083 -0.0034408476 -0.0018373155 -0.012335901 -0.0007532049 0.0016814088 0.0075157476 -0.0017880042
0.0064509413 -0.006457208 -0.009504373 0.0045365235 0.0014314026 -0.00016719637 -0.0032334933 0.010483629
0.00864435 0.0030228808 0.0068102297 -0.008845353 0.0030328834 -0.008932696 -0.006421218 -0.0064772526
-0.0064327675 0.008624272 0.011521299 0.00017343646 -0.0068517323 0.0005502432 -0.01206055 -0.0064638294
0.0068261307 0.009241658 -0.00010342987 -0.006464458 0.008887741 0.008081438 -0.012056485 -0.005692299
-0.016296284 -0.0021469793 -0.016369877 0.0064723417 -0.00646285 -0.0144155435 -0.0046761613 0.0030773482
0.004957124 -0.006032383 0.00024425052 0.002237177 -0.011737577 0.011053147 0.008748801 0.011553713
-0.006468824 -0.009412684 -0.006440671 0.0032863999 -0.0019500729 -0.007872205 0.004368833 -0.006514848
00000000: fd1a 1dbc 8b7d a23b 04c4 3ebc 56fd 09bc
00000010: 16b1 50bc a9a7 abbb 1731 0a3c 620e de3b
00000020: 77bb 09bc bdbd 093c 37b5 0b3c b2f9 31bc
00000030: 64af c339 8fc9 2fbb afd2 84bb c6ff 9dbb
00000040: a020 6fba 49b8 b03b eb28 0a3c 7b9d 4a3b
00000050: 685a ecb9 a1b4 1c3b 4162 0abc 51cc cb36
00000060: 522e 8dba 4c8b cf3a e5cf 04bc a652 0bbc
00000070: 24c3 9db9 7f01 4ebb 8b32 e13a a25b d5bb
00000080: ee08 08bc 8566 a13a 46c1 20b9 a89a 043c
00000090: 743a 8c3b 3562 09bc 8eff 893b d335 b2bb
000000a0: affa e83b c37b 0aba eddf 0abc 4fe8 f3bb
000000b0: ec00 ddba b6c6 0a3c 51f5 c4ba a3ee 09bc
000000c0: c63e f23b 8786 c03a 0c72 f73b b683 0a3c
000000d0: 2e53 5639 3c1a d43b 09b5 0abc 2b51 28ba
000000e0: bae0 08bc 8b08 1dba 34f3 0aba 2645 0d3c
000000f0: b4ba e13a 0897 a7ba 4786 203b c35e 993a
00000100: 030b 10bc 7194 a0b9 f816 753a 6dd1 ec3b
00000110: 5763 f0bb e950 ee3a a5ac 4cbb 7f15 dcbb
00000120: d0b1 0abc 2cae 0a3c 385c 013c c226 5739
00000130: 9430 c8bb 2dc4 2bb8 9430 c23b 0d1f 053b
00000140: 1e5c 15bc 61d6 323b 0572 dfbb 75df 733b
00000150: e3ad cdba 78ac 533b 36a4 0a3c 5e54 0a3c
00000160: 312d 0b3c 3694 e23b ddde 54bb 3b02 39b9
00000170: 3335 053c 57b0 843b b65e 07bc a78d 0a3c
00000180: e359 ffbb cae0 97ba 6e7c 0a39 238e 0a3c
00000190: aec8 73bb dfe7 02bc 0901 a03b d5ad 023a
000001a0: 8704 153b af6a 4ebb b0e0 0bbc a825 0abc
000001b0: 2ccb 093c 99e4 e7bb b88f 1a3b c44d 6539
000001c0: 2be2 8dbb 92c8 06bc e009 ddbb d48e 4739
000001d0: 4fbf 883a de57 603b c585 24bb 260a 04bc
000001e0: ed60 0a3c 74a2 d33b 5dbe 0a3c e1a5 c4bb
000001f0: 254b ebb9 7762 3a3a 8b82 bf3b 9ffd 083c
00000200: 841d ab3b 1ed9 f6bb b46a 86bb d4d6 d33b
00000210: 37ae 243c 0f0a a93a ba72 d4bb 057c 9f3b
00000220: c366 d43b 2d01 d4bb 24c4 debb 180a f13b
00000230: e87c 2e3c 699d 1e3b 95ca 3fbb efd1 52bc
00000240: 869b cfbb c215 6a3c b709 d1bb 27fa 383a
00000250: 0402 d73a 4ba7 b3bc de74 d53b bc83 383b
00000260: 8fc8 5cba 3c6d 2bbc 8196 d33b 7896 f03b
00000270: e7d3 e73a ce0b 223c 9bcd c9ba 3bf8 413b
00000280: c865 073c 960b eabb 1429 33ba 23ce ecbb
00000290: b00e 0bbc 9edf d33b ba37 d5bb 266e d9bb
000002a0: 18e1 a7bb ff8c 9b3a e652 d33b f0bb b63b
000002b0: 8dbd 813b 971b d3bb 6503 0e3c 745b d33b
000002c0: 9892 d1bb c4ea dabb f051 60bc 6ce4 d3bb
000002d0: 0a9f b43b b5dd 6dbc 8e24 d33b cf86 713b
000002e0: a63f d0bb 5c67 9dbb b279 7cbb f2c7 03bc
000002f0: 1eea f6bb e726 87b7 4226 b2bb 54eb cdbb
00000300: 180f 1c3c d87f 61bb 14d2 f0ba 851c 4abc
00000310: ba72 45ba b862 dc3a a946 f63b 775b eaba
00000320: 6b62 d33b fd96 d3bb 3bb8 1bbc 1ea7 943b
00000330: e79d bb3a 6f51 2fb9 04e9 53bb 87c3 2b3c
00000340: 08a1 0d3c 861b 463b 5928 df3b 19ec 10bc
00000350: 57c3 463b 715a 12bc 1569 d2bb 223f d4bb
00000360: f7c9 d2bb d24c 0d3c d5c3 3c3c 7fdc 3539
00000370: 7f84 e0bb 323e 103a 9d99 45bc 88ce d3bb
00000380: bcad df3b 536a 173c 7de8 d8b8 ced3 d3bb
00000390: e39d 113c 0268 043c 9088 45bc 7786 babb
000003a0: c97f 85bc 56b4 0cbb 1f1a 86bc f015 d43b
000003b0: 51c6 d3bb 2c2f 6cbc 7c3a 99bb 56ad 493b
000003c0: 5f6f a23b 4cab c5bb c00e 8039 9a9d 123b
000003d0: f74e 40bc 4218 353c 2257 0f3c c94b 3d3c
000003e0: 6ef8 d3bb a837 1abc 440c d3bb a460 573b
000003f0: 9799 ffba 6cfa 00bc 6d28 8f3b 827a d5bb

gru.bias_ih_l0 f4 [384]
0.008507919 -0.006446146 -0.021525582 -0.00024812316 -0.0005885394 0.0020330208 0.0013485553 0.0028368565
-0.0029599275 0.00236276 0.0029224958 -0.0018805629 0.00018148382 0.005473158 -0.00066462945 -0.006011458
0.098638974 0.002103305 2.7874828e-05 -0.077005744 0.011868218 0.007837131 -0.0025009213 0.00075947435
0.004887264 -0.0036634088 0.0059530307 -0.0005076563 0.034869146 0.0012200191 0.0014938249 0.0043474487
0.0001619363 -0.00014820936 0.0014164924 -0.0001467752 0.006724397 -0.0034713645 -0.0009934967 -0.0012948842
-0.0014698122 -0.0012780408 -0.0001727147 0.00047081307 0.004369817 0.00020834774 -0.03036112 0.001043129
0.00075322366 0.001142182 0.0023271074 0.0003279941 5.333079e-05 0.00049893244 0.00013417103 0.0002412373
0.0006058281 -0.0028425578 -0.0015820138 -0.07332759 -0.0053305165 0.004091306 0.00045724286 -6.713716e-05
-0.001862111 -0.022643449 3.190139e-05 0.03765515 -0.018466407 0.036660425 0.018533641 0.0013415824
0.0007814883 -0.00018524562 0.0018076979 0.00024122962 0.0053004846 -0.00043252643 0.0008636748 0.0007214117
-0.0008390268 0.12966093 -0.0061844345 0.00019426868 -0.00013108572 8.880039e-06 0.0006421252 0.00012942444
-0.00013165944 0.005530048 -0.0014781845 0.0026499939 0.003945297 0.0016402103 0.06221611 0.00035229092
-0.06723122 3.985569e-05 -0.025164476 0.0012460967 -0.00301787 0.004138561 -0.00027582818 0.018160729
0.005138949 -0.0006330099 0.12975915 0.00013263921 0.0009655848 0.0016515078 0.016742013 -7.0333954e-05
0.0008599084 0.0044016945 0.0019253955 -0.0003502208 -0.0020371838 0.07702682 0.004986493 0.001792126
0.0008385511 0.03530109 0.00064487325 -0.00076848496 -0.013306265 0.010375524 0.0010302481 0.0020993806
-0.0058513405 0.0069035487 -0.030872447 0.0009794211 -0.013365496 -0.0068084355 0.004422081 0.061167087
0.0039005333 0.0011414246 0.087057285 0.06671836 0.0016869217 -0.028958105 -0.010827494 -0.1282957
-0.045068894 -0.018750282 0.0020332478 0.029818755 -0.02142529 -0.024126079 0.005948949 0.009737286
-0.0921559 -0.099449016 -0.00509934 0.086105645 -0.017492022 0.0026473124 -0.06809038 0.026366845
0.09354901 -0.064471014 0.061705202 0.040150717 0.007608509 0.005628728 -0.020839302 -0.10102271
0.0038447506 -0.08665749 0.0012697236 0.0032128198 0.06133935 0.0017249333 -0.048101317 0.007577364
-0.041903812 -0.043665506 0.06542279 0.0002465254 0.009407742 0.007285053 -0.00013206854 0.020632388
0.022134446 -0.10159084 -0.09567928 0.17269038 0.015992517 -0.034596752 0.14291888 -0.011038182
0.07889767 -0.027570695 -0.038474496 -0.02029686 0.08076757 0.04801517 -0.004728238 0.048292007
0.00390459 -0.0014647665 -0.10502424 -0.062402736 -0.127699 -0.032048065 -0.005989297 -0.10298427
0.045366507 0.01047003 -0.04451246 -0.06655498 -0.025721114 -0.085297555 0.002822084 0.0021571093
0.0008339332 -0.08298701 -0.124167316 -0.078500345 -0.0040475894 0.02570031 0.052697778 0.0008276442
-0.0077783056 -0.029997218 -0.07529173 0.003905733 -0.10127423 0.004454027 -0.039249662 -0.03710559
-0.10863777 0.049371287 0.03777745 0.0058237137 0.0092596505 -0.0057545793 -0.12149158 0.039612073
0.004307755 0.08789057 -0.053889487 0.04708075 -0.09145795 0.004646337 -0.08999795 0.06768842
0.0063941944 0.030118236 0.0030278016 0.04236888 -0.04743579 -0.041065957 -0.1137801 -0.012675031
00000000: cc64 0b3c 313a d3bb 6b56 b0bc 8716 82b9
00000010: 3648 1aba 6e3c 053b 02c2 b03a 8eea 393b
00000020: 58fb 41bb 89d8 1a3b 5887 3f3b 387d f6ba
00000030: b14c 3e39 2d58 b33b 873a 2eba c4fb c4bb
00000040: 3b03 ca3d 9ad7 093b bdd4 e937 30b5 9dbd
00000050: ea72 423c 4f67 003c 7fe6 23bb 7617 473a
00000060: 5825 a03b cd15 70bb a411 c33b 3d14 05ba
00000070: f3d2 0e3d 0ce9 9f3a 72cc c33a 0b75 8e3b
00000080: 72cd 2939 a668 1bb9 99a9 b93a abe7 19b9
00000090: 5558 dc3b d57f 63bb 3838 82ba 1bb9 a9ba
000000a0: b7a6 c0ba ef83 a7ba c01a 35b9 76d7 f639
000000b0: af30 8f3b ec77 5a39 e2b7 f8bc 9ab9 883a
000000c0: fc73 453a 45b5 953a 6282 183b 9ff6 ab39
000000d0: 80af 5f38 caca 023a 43b0 0c39 a5f4 7c39
000000e0: 70d0 1e3a 354a 3abb 935b cfba c72c 96bd
000000f0: 9dab aebb 5d10 863b 19ba ef39 fdcb 8cb8
00000100: 1412 f4ba c17e b9bc dbcd 0538 493c 1a3d
00000110: dd46 97bc 3e29 163d ddd3 973c 09d8 af3a
00000120: cbdc 4c3a 7e3e 42b9 47f0 ec3a 95f2 7c39
00000130: b0af ad3b b7c4 e2b9 3c68 623a 1f1d 3d3a
00000140: 23f2 5bba d6c5 043e cca6 cabb 9ab4 4b39
00000150: 0e74 09b9 7afb 1437 4b54 283a 1cb6 0739
00000160: 100e 0ab9 6835 b53b a4bf c1ba 85ab 2d3b
00000170: 8d47 813b 53fc d63a 52d6 7e3d b0b3 b839
00000180: 86b0 89bd b92a 2738 bb25 cebc 1154 a33a
00000190: 75c7 45bb c49c 873b 089d 90b9 cfc5 943c
000001a0: a164 a83b 93f0 25ba 95df 043e 1115 0b39
000001b0: 4d1f 7d3a 6877 d83a 8c26 893c 4180 93b8
000001c0: 7a6b 613a 173c 903b 8d5d fc3a d79d b7b9
000001d0: 4682 05bb 3dc0 9d3d bc65 a33b c5e5 ea3a
000001e0: 36d2 5b3a e097 103d b60c 293a 2774 49ba
000001f0: 8502 5abc 1afe 293c 6409 873a c395 093b
00000200: 9abc bfbb 2a37 e23b 37e8 fcbc eb5f 803a
00000210: f4fa 5abc 4c19 dfbb 1be7 903b 578a 7a3d
00000220: 17a0 7f3b db9b 953a 174b b23d a3a3 883d
00000230: b31b dd3a 8c39 edbc cd65 31bc f35f 03be
00000240: 299a 38bd 319a 99bc 3d40 053b 7646 f43c
00000250: 1784 afbc 0ea4 c5bc 67ef c23b 2389 1f3c
00000260: 3cbc bcbd edab cbbd 5d18 a7bb 2858 b03d
00000270: 6e4b 8fbc 887e 2d3b f872 8bbd 48ff d73c
00000280: a096 bf3d 6109 84bd 98be 7c3d 1475 243d
00000290: cd50 f93b 3171 b83b 2fb7 aabc ffe4 cebd
000002a0: 36f8 7b3b 7b79 b1bd db6c a63a 2c8e 523b
000002b0: f83e 7b3d 2817 e23a e305 45bd 894b f83b
000002c0: 55a3 2bbd 9ada 32bd 62fc 853d 1440 8139
000002d0: ee22 1a3c 74b7 ee3b e17b 0ab9 4105 a93c
000002e0: 4c53 b53c dc0e d0bd 80f3 c3bd bfd5 303e
000002f0: bd02 833c 53b5 0dbd 5459 123e 7ed9 34bc
00000300: 1a95 a13d f0db e1bc 6f97 1dbd 9a45 a6bc
00000310: 7869 a53d 8eab 443d 56ef 9abb d7cd 453d
00000320: 26e4 7f3b 68fd bfba f316 d7bd 039a 7fbd
00000330: 87c3 02be d544 03bd dd41 c4bb 6be9 d2bd
00000340: 3bd2 393d 7d8a 2b3c b252 36bd fa4d 88bd
00000350: 16b5 d2bc 7cb0 aebd b6f2 383b 4a5e 0d3b
00000360: 4f9c 5a3a 18f5 a9bd 6f4b febd cac4 a0bd
00000370: a4a1 84bb 7589 d23c a0d9 573d 43f6 583a
00000380: 28e1 febb babc f5bc 8d32 9abd 54f7 7f3b
00000390: dd68 cfbd 16f3 913b 41c4 20bd 08fc 17bd
000003a0: 7b7d debd 8c39 4a3d 87bc 1a3d dad4 be3b
000003b0: cab5 173c e990 bcbb 94d0 f8bd 4540 223d
000003c0: 1128 8d3b f9ff b33d 39bb 5cbd bfd7 403d
000003d0: 4e4e bbbd 4d40 983b d850 b8bd 3aa0 8a3d
000003e0: 6486 d13b 85ba f63c 156e 463b fe8a 2d3d
000003f0: 084c 42bd c734 28bd 8b05 e9bd efaa 4fbc

gru.bias_hh_l0 f4 [384]
0.00850835 -0.006446192 -0.021567589 -0.00024815556 -0.00058873807 0.002032732 0.0013486902 0.0028380638
-0.0029597161 0.0023627677 0.0029224968 -0.0018805051 0.0001814877 0.00547316 -0.0006644333 -0.006011473
0.098962404 0.00210379 2.8134105e-05 -0.077005945 0.011868215 0.007837137 -0.002500982 0.00066272396
0.004887618 -0.0037138397 0.005953046 -0.00050726224 0.037234116 0.0012201573 0.0014938109 0.004347483
0.00016194243 -0.00014790175 0.0014164939 -0.00014672612 0.006724413 -0.0034711056 -0.014904364 -0.0012949558
-0.0014838545 -0.0044794623 -0.0001730357 0.0004706239 0.0043693176 0.00020835183 -0.02955374 0.0010434155
0.00076647766 0.0011404083 0.0023271234 0.0003282698 5.3694417e-05 0.0004989252 0.00013428983 0.00024143826
0.00060582696 -0.0028425585 -0.0015820115 -0.0656363 -0.0053305174 0.0040913164 0.00045736556 -6.7140245e-05
-0.0018601251 -0.022643602 2.8077557e-05 0.037655342 -0.018466448 0.029895764 0.016704774 0.0013416262
0.0007821956 -0.00018525019 0.001807695 0.00026324866 0.0053004995 -0.00043235096 0.0008636633 0.00072079524
-0.00083896343 0.1251745 -0.0061844313 0.00020076906 -0.00014254474 9.96273e-06 0.00062153366 0.00012964565
-0.00013167344 0.0055300607 -0.0014781817 0.0026498435 0.003945249 0.004272764 0.06179058 0.00035229183
-0.067231335 3.7971706e-05 -0.02512771 0.0012435389 -0.0030178477 0.00415666 -0.0002758006 0.018160723
0.0051273042 -0.0006329629 0.094608195 0.0001326297 0.0009651346 0.0016515739 0.016742008 -7.02576e-05
0.00085789646 0.0044006375 0.0019253938 -0.0003501905 -0.0020371838 0.07705609 0.0049865297 0.0017921273
0.00083912123 0.030627163 0.0006461848 -0.00076768064 -0.01330632 0.010375583 0.0010302473 0.0020993769
-0.005851296 0.03128914 -0.02891997 0.0009796799 -0.0133741535 -0.0068069817 0.004422181 0.061097037
0.0039006476 0.0011414251 0.08319389 0.10261333 0.0051230323 -0.109071106 -0.010827556 -0.11519845
-0.006386372 -0.018699227 0.002059007 -0.013490239 -0.012162537 -0.023137508 0.0059489305 -0.0012054413
-0.10334312 -0.11622958 -0.0051225373 0.086510025 -0.0689504 -0.0025490765 -0.08414753 -0.04286103
0.09336262 -0.070353374 0.04878691 0.044306234 0.0076083094 0.00562776 -0.015465054 -0.08546835
0.0038788847 -0.070458174 0.0012696648 0.0032286067 0.040572148 0.0017253638 -0.051754564 0.0075779273
-0.046116743 -0.009967018 0.07588682 0.00024521293 0.031924628 0.00723578 -0.00013200227 0.036190227
0.022134827 -0.10159072 -0.098727815 0.1648114 0.021599723 -0.021901632 0.12567063 -0.019784799
0.0616335 -0.021952828 -0.066266246 -0.0143766 0.071570314 0.08479724 -0.043356802 0.04872563
0.0039042197 -0.0014647682 -0.105061784 -0.068743914 -0.1181737 -0.032045677 -0.005989264 -0.15216635
0.11140273 -0.10383153 0.010563262 -0.071754105 -0.05353631 -0.07824417 0.0028220897 0.0021571005
0.0008338823 -0.08610687 -0.12474312 -0.02746711 -0.07557684 0.020344293 0.08117106 0.00082754344
-0.049026668 -0.005125899 0.019119836 0.0039067366 -0.09894383 0.0037802735 -0.0082471855 -0.040300008
-0.07194617 0.050389234 0.08881695 0.0058237147 0.009262956 -0.003964765 -0.13286082 0.05767684
0.0026013793 0.08316787 -0.05100703 0.05028444 -0.1001328 -0.0031450635 -0.094479665 0.08535393
0.0063941735 0.029116029 0.0030283465 0.050136343 -0.050730433 -0.011992363 -0.10218921 -0.012675048
00000000: 9b66 0b3c 943a d3bb 83ae b0bc e01a 82b9
00000010: 8b55 1aba 9537 053b 89c6 b03a cffe 393b
00000020: ccf7 41bb aad8 1a3b 5c87 3f3b 487b f6ba
00000030: bc4d 3e39 3258 b33b 5d2d 2eba e4fb c4bb
00000040: cdac ca3d bddf 093b 8801 ec37 4bb5 9dbd
00000050: e772 423c 5667 003c 84e7 23bb a7ba 2d3a
00000060: 5028 a03b e463 73bb c511 c33b cbf9 04ba
00000070: cd82 183d afed 9f3a facb c33a 5575 8e3b
00000080: 17cf 2939 1316 1bb9 a6a9 b93a 7eda 19b9
00000090: 7758 dc3b 7d7b 63bb 6f31 74bc 82bb a9ba
000000a0: e57d c2ba 74c8 92bb eb70 35b9 12be f639
000000b0: 7e2c 8f3b 0579 5a39 af1a f2bc 37c3 883a
000000c0: 72ed 483a c179 953a a782 183b a01b ac39
000000d0: f135 6138 4eca 023a 27d0 0c39 972a 7d39
000000e0: 5cd0 1e3a 384a 3abb 7f5b cfba 536c 86bd
000000f0: 9fab aebb 7310 863b 91ca ef39 a5cd 8cb8
00000100: 71cf f3ba 137f b9bc 1888 eb37 7d3c 1a3d
00000110: f346 97bc f6e7 f43c 73d8 883c 81d9 af3a
00000120: 420c 4d3a b83f 42b9 2ef0 ec3a a304 8a39
00000130: d0af ad3b 2aad e2b9 7767 623a c0f3 3c3a
00000140: e2ed 5bba be2d 003e c5a6 cabb 8985 5239
00000150: 1078 15b9 9925 2737 6bee 223a 7df1 0739
00000160: d211 0ab9 8335 b53b 8cbf c1ba ffa8 2d3b
00000170: 2647 813b 8b02 8c3b 1f18 7d3d cfb3 b839
00000180: 95b0 89bd cf43 1f38 a1d8 cdbc 3efe a23a
00000190: 15c7 45bb 9734 883b 5499 90b9 ccc5 943c
000001a0: f202 a83b 6ced 25ba f1c1 c13d 8412 0b39
000001b0: 1601 7d3a a079 d83a 8926 893c 4357 93b8
000001c0: 75e4 603a 3933 903b 7f5d fc3a c699 b7b9
000001d0: 4682 05bb 95cf 9d3d 0b66 a33b d0e5 ea3a
000001e0: 79f8 5b3a d1e5 fa3c ba64 293a 2d3e 49ba
000001f0: c002 5abc 59fe 293c 5d09 873a b395 093b
00000200: 3abc bfbb 0b29 003d 93e9 ecbc 9a68 803a
00000210: 441f 5bbc 1a0d dfbb f1e7 903b e340 7a3d
00000220: 02a2 7f3b df9b 953a 8f61 aa3d f026 d23d
00000230: 1cdf a73b ac60 dfbd 1066 31bc 2aed ebbd
00000240: c544 d1bb 1f2f 99bc 68f0 063b 2a06 5dbc
00000250: 6145 47bc df8a bdbc 3fef c23b e6ff 9dba
00000260: 8fa5 d3bd c609 eebd f5da a7bb 2b2c b13d
00000270: de35 8dbd 680e 27bb 8a55 acbd 0c8f 2fbd
00000280: e734 bf3d 6e15 90bd c8d4 473d 747a 353d
00000290: 204f f93b 1369 b83b 2361 7dbc 080a afbd
000002a0: e334 7e3b 604c 90bd e26a a63a 0897 533b
000002b0: fb2e 263d 9a25 e23a 98fc 53bd 4350 f83b
000002c0: e9e4 3cbd b44c 23bc 8d6a 9b3d ec8f 8039
000002d0: 66c3 023d 1f1a ed3b 176a 0ab9 343c 143d
000002e0: 1954 b53c cc0e d0bd cf31 cabd 52c4 283e
000002f0: e7f1 b03c 0d6b b3bc cdaf 003e bb13 a2bc
00000300: 6973 7c3d 6bd6 b3bc 99b6 87bd d58b 6bbc
00000310: 7593 923d 2daa ad3d e796 31bd 8794 473d
00000320: f0dd 7f3b 77fd bfba a22a d7bd 9cc9 8cbd
00000330: 0e05 f2bd 5442 03bd 9741 c4bb 7fd1 1bbe
00000340: 1d27 e43d a0a5 d4bd 8811 2d3c d1f3 92bd
00000350: e448 5bbd 7b3e a0bd cff2 383b 245e 0d3b
00000360: e598 5a3a cc58 b0bd 5279 ffbd b402 e1bc
00000370: 08c8 9abd 13a9 a63c 033d a63d 80ef 583a
00000380: 30d0 48bd 28f7 a7bb 34a1 9c3c 1504 803b
00000390: 10a3 cabd 77be 773b 341f 07bc 9f11 25bd
000003a0: 8358 93bd f164 4e3d a9e5 b53d dcd4 be3b
000003b0: a7c3 173c dcea 81bb ab0c 08be 8d3e 6c3d
000003c0: e77b 2a3b eb53 aa3d bfec 50bd 0ff7 4d3d
000003d0: 6d12 cdbd 691d 4ebb 8e7e c1bd 0bce ae3d
000003e0: 3786 d13b bd84 ee3c 3977 463b c45b 4d3d
000003f0: b7ca 4fbd 9e7b 44bc 9448 d1bd 01ab 4fbc

fc.weight f4 [1, 128]
-0.0022645046 0.06435645 -0.043642595 0.01025859 0.1223775 0.3147155 -0.031612556 0.016090745
0.021597391 -0.036375448 0.010491343 0.0962483 -0.111616135 -0.07547498 0.20735694 -0.03777317
-0.22737041 0.004427686 -0.028783271 0.19103809 0.17655317 -0.13555329 0.00060164416 0.003895858
-0.058129784 -0.108395 0.005204673 -0.08676716 0.17208566 0.04689102 -0.008603294 0.1370869
-0.0096578635 -0.019144285 -0.06359669 -0.2513487 -0.08114786 -0.0016739671 0.046764582 0.028290473
-0.010098372 0.1917298 0.014122337 0.0079836035 0.0114718 -0.013981713 0.17341869 0.010913721
-0.045096442 -0.072479516 -0.12845606 -0.029133948 -0.023089116 0.106409274 -0.0034771394 0.21043773
0.08596022 -1.0363649e-09 -0.027860401 -0.1557726 0.12647094 -0.14654486 0.034482896 -0.036274716
-0.062262338 0.1060862 -0.056827657 0.041783378 -0.09119229 -0.054818813 0.18590762 0.007653481
0.022800216 -0.024019798 0.00482066 0.09802475 -0.16997363 4.403565e-10 -0.010483949 0.08159459
0.07694845 0.09320777 -0.043220505 -0.11013804 0.008010996 -0.104175285 -0.020388747 -0.00017227553
-0.02692831 -0.08070853 0.08285197 0.044888094 0.0692358 0.12293918 -0.040888373 -0.023375904
0.06677455 0.0839894 0.025386157 -0.021006832 0.027148947 0.1161355 0.07156154 0.119908996
-0.13776009 -0.0139168035 -0.08060643 0.012486077 -0.023421856 0.011740743 -0.1390744 -0.037821285
0.003701449 0.10483529 -0.042819872 -0.029127711 -0.009173758 -0.019916927 -0.057137642 -0.10898341
-0.026824385 -0.07699677 -0.036569826 0.0493846 -0.0772308 -0.25593534 -0.026348304 -0.008686777
00000000: 1568 14bb 51cd 833d 94c2 32bd a513 283c
00000010: 0ea1 fa3d 6422 a13e 2b7c 01bd bdd0 833c
00000020: 03ed b03c 6cfe 14bd e2e3 2b3c d41d c53d
00000030: 0097 e4bd a092 9abd 6155 543e 0ab8 1abd
00000040: cad3 68be 1f16 913b e5ca ebbc 7d9f 433e
00000050: 5bca 343e 7bce 0abe a8b7 1d3a a751 7f3b
00000060: 7f19 6ebd 33fe ddbd f68b aa3b fbb2 b1bd
00000070: 3937 303e cc10 403d d5f4 0cbc 8260 0c3e
00000080: 043c 1ebc 7ad4 9cbc fb3e 82bd c7b0 80be
00000090: d930 a6bd 0469 dbba 388c 3f3d 6cc1 e73c
000000a0: a473 25bc d154 443e 6061 673c a9cd 023c
000000b0: 37f4 3b3c 8e13 65bc ab94 313e 77cf 323c
000000c0: 0cb7 38bd 2470 94bd fc89 03be 51aa eebc
000000d0: 6325 bdbc 1bed d93d b8e0 63bb fd7c 573e
000000e0: e90b b03d d96f 8eb0 7f3b e4bc da82 1fbe
000000f0: 9981 013e db0f 16be f03d 0d3d cc94 14bd
00000100: cb06 7fbd b943 d93d 1ec4 68bd 0c25 2b3d
00000110: 06c3 babd b189 60bd 915e 3e3e 0dca fa3b
00000120: 85c7 ba3c 2bc5 c4bc a1f6 9d3b 33c1 c83d
00000130: 910d 2ebe ab16 f22f dfc4 2bbc 101b a73d
00000140: 2697 9d3d b7e3 be3d fc07 31bd 0d90 e1bd
00000150: 8d40 033c da59 d5bd 4d06 a7bc dca4 34b9
00000160: c298 dcbc 844a a5bd 4bae a93d 94dc 373d
00000170: 80cb 8d3d 89c7 fb3d 917a 27bd d37e bfbc
00000180: 18c1 883d a202 ac3d a1f6 cf3c 8516 acbc
00000190: 7867 de3c 73d8 ed3d db8e 923d d992 f53d
000001a0: fb10 0dbe 4e03 64bc fc14 a5bd 6792 4c3c
000001b0: 31df bfbc 3f5c 403c 8569 0ebe 7eea 1abd
000001c0: 0294 723b e2b3 d63d e463 2fbd 3d9d eebc
000001d0: 884d 16bc d328 a3bc 2909 6abd b232 dfbd
000001e0: d0be dbbc 7cb0 9dbd 3eca 15bd 8247 4a3d
000001f0: 2f2b 9ebd f509 83be 66d8 d7bc fc52 0ebc

layer_norm.weight f4 [128]
0.030687213 0.7193246 0.72120863 0.59349114 0.91294044 1.2098731 0.71994656 0.28774393
0.741274 0.49966303 0.5996872 0.8380873 0.877168 0.8677234 1.0698713 0.81354314
1.0625565 0.19618365 0.7664491 0.99202657 0.8193928 0.8406801 0.011869436 0.24199311
0.72350144 0.75528795 0.66367626 0.67260355 0.94148916 0.46020737 0.24627829 0.8845819
0.45690417 0.18083477 0.3471756 1.0713134 0.8478306 0.6072891 0.75139344 0.35791907
0.46347055 0.97438943 0.6981853 0.637264 0.4495395 0.46323964 0.9389386 0.6023275
0.3342563 0.8665304 0.91365224 0.72440946 0.15102029 0.8683066 0.2644669 1.0027771
0.8476167 5.398131e-09 0.21051885 0.99626964 0.7783793 0.76001495 0.489653 0.48586294
0.7114943 0.8517857 0.7098842 0.37138516 0.8402512 0.6502763 0.98332316 0.44753334
0.6941141 0.75213987 0.07697969 0.3262766 0.9534382 1.4150885e-08 0.09991547 0.8632333
0.862552 0.85803896 0.77889204 0.44465467 0.39451176 0.45681685 0.6588656 0.006704556
0.7102793 0.47224188 0.3838212 0.52364933 0.73144364 0.878533 0.55523336 0.65037405
0.80575347 0.6595064 0.41205436 0.2743122 0.1433517 0.8893766 0.6956577 0.5004232
0.88383317 0.3225567 0.8016527 0.6624675 0.3086217 0.3983447 0.85171276 0.18993238
0.29469755 0.8282777 0.25437316 0.20429265 0.0419093 0.5623122 0.65641934 0.87262785
0.7602704 0.8029405 0.67432845 0.7510137 0.847087 1.0394636 0.51433796 0.5946393
00000000: c063 fb3c a825 383f 21a1 383f 09ef 173f
00000010: 77b6 693f 1fdd 9a3f 6b4e 383f 2c53 933e
00000020: 22c4 3d3f d5d3 ff3e 1a85 193f e48c 563f
00000030: 158e 603f 1f23 5e3f 8bf1 883f 5d44 503f
00000040: da01 883f 5ee4 483e 0236 443f 74f5 7d3f
00000050: bac3 513f d036 573f 0678 423c 0bcd 773e
00000060: 6437 393f 8d5a 413f b0e6 293f bf2f 2c3f
00000070: 6f05 713f 4da0 eb3e 6030 7c3e f673 623f
00000080: 58ef e93e c02c 393e 00c1 b13e cc20 893f
00000090: 6d0b 593f 4c77 1b3f 525b 403f 2b41 b73e
000000a0: 034c ed3e 9671 793f 46bc 323f bc23 233f
000000b0: 0b2a e63e bf2d ed3e 485e 703f 2332 1a3f
000000c0: a423 ab3e f0d4 5d3f 1de5 693f e672 393f
000000d0: 10a5 1a3e 5749 5e3f 3568 873e 005b 803f
000000e0: 68fd 583f 767a b931 4192 573e 870b 7f3f
000000f0: de43 473f 5790 423f ccb3 fa3e 07c3 f83e
00000100: 7e24 363f a10e 5a3f f9ba 353f 3226 be3e
00000110: b41a 573f 8278 263f 11bb 7b3f 1723 e53e
00000120: 76b1 313f 3d8c 403f 87a7 9d3d ba0d a73e
00000130: 8714 743f 401c 7332 7ba0 cc3d dcfc 5c3f
00000140: 35d0 5c3f 71a8 5b3f 7865 473f c7a9 e33e
00000150: 72fd c93e e6e3 e93e 6aab 283f e4b1 db3b
00000160: ddd4 353f b0c9 f13e 3684 c43e e20d 063f
00000170: e43f 3b3f 8ae7 603f c623 0e3f ea7e 263f
00000180: dc45 4e3f 69d5 283f caf8 d23e a672 8c3e
00000190: caca 123e 2fae 633f 9f16 323f bc1b 003f
000001a0: e442 623f 2726 a53e 1d39 4d3f 7897 293f
000001b0: aa03 9e3e d6f3 cb3e d909 5a3f a27d 423e
000001c0: 99e2 963e 020a 543f 333d 823e 1832 513e
000001d0: 16a9 2b3d b1f3 0f3f 190b 283f 8a64 5f3f
000001e0: 15a1 423f 828d 4d3f caa0 2c3f 6f42 403f
000001f0: b2da 583f 250d 853f a7ab 033f 483a 183f

layer_norm.bias f4 [128]
0.024527857 -0.07951325 0.11421488 0.049262855 0.10429342 0.12522803 -0.054003894 -0.077377684
0.07015022 -0.035382103 -0.07254213 -0.048265647 0.07231375 0.15797956 0.037591487 0.12727013
0.068700604 -0.055363066 -0.07616939 -0.14274651 -0.10081234 0.0020676 0.009585543 0.014549321
0.11666201 0.0034092881 0.05551007 0.07209867 -0.10883173 -0.0028562506 -0.025719468 0.07590301
-0.017494423 -0.025785042 0.037474535 0.08091972 0.14086823 0.083714716 -0.09363581 0.048786633
-0.047870584 -0.17126656 0.04508202 0.061876338 0.055630293 -0.060786847 -0.09978148 0.04946606
-0.050160952 0.10339041 0.021597408 -0.063265 0.009734216 -0.03123174 0.06899488 -0.05746998
-0.16949442 -1.2451189e-10 -0.008022197 0.06237218 0.103373475 0.060573794 0.036558215 -0.030762583
0.016140271 -0.08548715 -0.010996544 -0.07594423 0.1394338 -0.008761325 0.06185625 0.04284963
0.047669895 -0.08048967 -0.042400535 -0.02800844 0.21810433 2.2081452e-09 -0.039521992 -0.1080497
-0.049735095 -0.09431267 0.09216407 0.02501689 0.03561763 0.0036021976 -0.06630986 -0.00731508
-0.049799543 -0.082670756 -0.00090633315 0.013042161 -0.105708376 -0.16740969 0.026462033 -0.06216997
0.06579541 -0.0011051794 -0.032882452 -0.05352381 0.03594103 -0.11389089 -0.076997444 -0.042914163
0.1324622 -0.041112863 0.12957981 0.06105841 -0.041468173 0.06126824 -0.05312551 -0.0008105782
0.045822512 -0.14266115 0.06425313 0.0061068325 0.0012788543 -0.058286194 0.07691562 0.04487505
-0.071339644 0.04294385 -0.044109814 -0.0012812675 0.1508389 0.068501264 0.0065419185 -0.0698512
00000000: a5ee c83c d8d7 a2bd 7ee9 e93d d9c7 493d
00000010: ca97 d53d c73b 003e 3033 5dbd 3178 9ebd
00000020: ebaa 8f3d d3ec 10bd f890 94bd 33b2 45bd
00000030: 3b19 943d 65c5 213e 88f9 193d 1a53 023e
00000040: e7b2 8c3d 62c4 62bd b2fe 9bbd 242c 12be
00000050: b376 cebd 9280 073b ae0c 1d3c 4660 6e3c
00000060: 7eec ee3d 5d6e 5f3b 875e 633d 78a8 933d
00000070: 2ce3 debd ef2f 3bbb a2b1 d2bc 0a73 9b3d
00000080: 7750 8fbc 273b d3bc e67e 193d 3db9 a53d
00000090: c33f 103e 9f72 ab3d 22c4 bfbd 7ed4 473d
000000a0: f213 44bd 8060 2fbe eda7 383d 0b72 7d3d
000000b0: 97dc 633d a1fb 78bd 3c5a ccbd ec9c 4a3d
000000c0: 9275 4dbd 5abe d33d 0ced b03c 1591 81bd
000000d0: 437c 1f3c b5d9 ffbc 304d 8d3d a465 6bbd
000000e0: f28f 2dbe fbe6 08af 886f 03bc f979 7f3d
000000f0: 79b5 d33d 3a1c 783d 11be 153d d001 fcbc
00000100: 9a38 843c e313 afbd d92a 34bc a688 9bbd
00000110: bcc7 0e3e a98b 0fbc fb5c 7d3d 1883 2f3d
00000120: 8241 433d c5d7 a4bd 2fac 2dbd f571 e5bc
00000130: be56 5f3e 1abe 1731 d0e1 21bd 2949 ddbd
00000140: 07b7 4bbd 0027 c1bd 84c0 bc3d 39f0 cc3c
00000150: cbe3 113d d912 6c3b 77cd 87bd 57b3 efbb
00000160: 9bfa 4bbd 494f a9bd fd96 6dba caae 553c
00000170: a27d d8bd 726d 2bbe e8c6 d83c f0a5 7ebd
00000180: bebf 863d abdb 90ba c0af 06bd c83b 5bbd
00000190: e736 133d a03f e9bd d6b0 9dbd c3c6 2fbd
000001a0: 2ca4 073e f665 28bd 92b0 043e 6218 7a3d
000001b0: 88da 29bd 68f4 7a3d 239a 59bd fb7c 54ba
000001c0: 63b0 3b3d c415 12be 2597 833d d31b c83b
000001d0: 3b9f a73a 81bd 6ebd f085 9d3d e7ce 373d
000001e0: 851a 92bd e4e5 2f3d 7eac 34bd 34f0 a7ba
000001f0: 8375 1a3e 644a 8c3d 975d d63b 250e 8fbd
