results/question1_climate_control/LSTMmodel_q1.pth (torch, 274671 bytes, 7 tensors)

lstm.weight_ih_l0 f4 [512, 2]
000000 5f bd 97 3d ac 1e 7e 3d 78 3a ad 3d 8e 24 f7 3c
       0.074091665 0.06204097 0.08458418 0.030168798
000010 24 10 c1 bc f2 8f 71 3e a5 10 76 3d 74 d8 40 3d
       -0.023567267 0.23590067 0.060074467 0.047081426
000020 99 74 96 3c f6 38 13 3d 1c 95 a5 bd 02 4c 1b 3d
       0.018366145 0.035942994 -0.08085081 0.037914284
000030 1f 7b ab 3d 26 ee 00 bc fe 0b bc 3c ab 2c 45 3d
       0.08373093 -0.007869279 0.022954937 0.0481383
000040 72 46 4e bd c4 cd 11 bd 4b c5 b8 bd a9 2d ce 3c
       -0.05036015 -0.035596624 -0.09022006 0.025168257
000050 43 16 16 bd d6 be 62 3d 03 6f 0c 3d dc c5 f5 bd
       -0.036642324 0.055357777 0.034285557 -0.12000629
000060 1c c2 6a 3d c9 54 19 3a c1 d1 19 3e 63 d1 29 bd
       0.057314023 0.0005849121 0.15021421 -0.041459452
000070 22 9a 5f 3d 07 74 bb 3d 96 47 a3 bd c2 f1 5b 3c
       0.054590352 0.0915299 -0.07972638 0.013424339
000080 bf d8 9d 3d ca a2 54 3d f8 61 d8 bd b5 2f 98 3d
       0.07707357 0.05191306 -0.10565561 0.074309744
000090 4b 35 b4 3c 45 ae 4f bd 70 14 9e 3d ac 2b a3 bc
       0.021998068 -0.050703306 0.07718742 -0.019918285
0000a0 30 de 28 3d d8 55 0c 3d 9d 7d 16 3d 20 0f 15 be
       0.04122752 0.034261554 0.036740888 -0.14556551
0000b0 c6 42 50 bd 04 36 12 3d 49 88 91 bd 3c ae e9 3b
       -0.05084493 0.035696045 -0.071060725 0.007131366
0000c0 33 2b 8c 3e 36 e8 1c bb 96 79 cf bd 0f 90 c2 3d
       0.27376708 -0.002394212 -0.101306126 0.09500133
0000d0 45 8a bb bd bd 42 ba 3c 90 bf 05 bd e9 95 ad 3e
       -0.09157232 0.022736901 -0.03265339 0.33903435
0000e0 fc 8c e2 bd f2 9a 91 3d 33 27 38 3b 42 0d 82 bd
       -0.11062047 0.071096316 0.0028099536 -0.06350185
0000f0 29 e4 33 3e a4 4b aa bc 44 a2 9c 3d 8d 1c 91 bd
       0.17567505 -0.020788021 0.07648137 -0.07085524
000100 a7 bc 47 bc 45 22 89 3d 41 55 1b 3d f7 34 05 3d
       -0.012190974 0.066959895 0.0379231 0.032521214
000110 75 cc 6f 3d 54 93 61 3c 04 35 c7 bd fd b5 de 3d
       0.058544595 0.013768036 -0.09726909 0.10874555
000120 13 51 2c 3d 2d 58 0d 3d 75 0e 9e bd d7 8b 09 3c
       0.042069506 0.03450792 -0.07717601 0.008395157
000130 03 48 05 3d b9 9d 24 3d 6d 6f b2 bd c7 ca 11 3d
       0.03253938 0.04018948 -0.08712659 0.035593774
000140 a8 39 a1 3c 87 07 ad bd 7d dc 62 3d 4d 32 ba 3c
       0.019680813 -0.08448701 0.055386055 0.022729063
000150 92 79 c8 3c 59 69 e2 bc b8 fb 8c bd 0f 29 ec bb
       0.024472032 -0.027638124 -0.06883949 -0.007207043
000160 fa eb 77 3d 6e 82 86 3c 4d 59 47 bd 0d 52 3c bd
       0.06052778 0.016419616 -0.04866915 -0.045976687
000170 5d 47 f5 bd 92 58 97 3d 23 4e 84 3b 5c 83 99 bc
       -0.11976502 0.0738994 0.004037635 -0.018739395
000180 98 e7 4a 3d e3 70 8f 3d 53 90 d9 3d d7 73 8c bd
       0.04953727 0.07003953 0.10623231 -0.06858032
000190 2d 80 17 3d f0 87 97 bc 73 d7 d5 3c 7d 91 34 3d
       0.036987472 -0.018497437 0.02610371 0.04408406
0001a0 3f e0 0e bd 78 56 96 bc 91 66 a5 3d f0 d5 25 ba
       -0.034881826 -0.018351778 0.080762036 -0.00063261297
0001b0 c9 d4 3e 3d 7f dd 37 bd 83 f6 89 3d fc d3 28 3d
       0.046589646 -0.04488897 0.067364715 0.04121779
0001c0 4f 60 96 3d 75 9f fe 3c ab 10 08 bd b8 c6 e8 bc
       0.07342588 0.031081894 -0.03321902 -0.028415069
0001d0 a3 97 81 bb 42 a4 be bb 08 12 df bd 9a 9c bf 3d
       -0.003954844 -0.005817921 -0.10892111 0.09356041
0001e0 9f 98 e8 bb c3 d0 60 bc 8c 4a 0d 3d 47 c3 96 bd
       -0.007098272 -0.013721648 0.03449492 -0.07361465
0001f0 02 03 6f bd 11 4e 8e ba 73 fc 04 be 8e a3 80 3d
       -0.058352478 -0.0010857006 -0.12986927 0.062811956
000200 1b 7f 8a 3d a7 4e 0c 3d 4b a8 8c 3e 69 20 68 bc
       0.06762525 0.034254696 0.27472147 -0.014167883
000210 91 eb 4f 3d 64 14 1f 3d ea 67 00 3d 88 bf b1 3d
       0.050761763 0.038837805 0.0313491 0.0867911
000220 d8 0d 37 bd 33 d5 b7 bd 67 e8 8b 3d 8d 64 66 3d
       -0.044690937 -0.089762114 0.068314366 0.056248236
000230 e2 c6 74 3d a0 41 b1 3d 3b 0a 90 3d 51 29 1b 3a
       0.059759982 0.08655095 0.07033201 0.00059189374
000240 8a d7 98 3d 2e e0 5a 3d d7 9a 03 bd 98 e1 d8 3c
       0.07462986 0.05343645 -0.03213009 0.026474759
000250 4b 02 8f bd db 09 bb 3c c1 1f e2 3d fa 3d 94 bd
       -0.06982859 0.022831848 0.11041213 -0.072383836
000260 4b 54 97 bd 2d bb 36 bb aa 67 1f 3d 21 df 12 3d
       -0.073891245 -0.0027882562 0.03891722 0.035857324
000270 64 90 bf bd ec a7 58 3c bf 6d 1c 3d 86 85 ff 3d
       -0.09353712 0.013223629 0.0381906 0.124766394
000280 04 9b ab 3d d8 cd b0 bd eb 17 7c 3d c9 98 52 3d
       0.08379176 -0.086330116 0.061546247 0.05141524
000290 8f e6 2f be 0c a8 16 3d 11 92 63 bc a0 8d a6 bc
       -0.17177795 0.036781356 -0.013889805 -0.020331204
0002a0 a9 44 a4 3d fa bc 70 3d 1e b0 db bd 37 52 d1 3c
       0.080209084 0.058773972 -0.10726951 0.025551898
0002b0 ce 3c 95 3d af a4 93 3b 92 58 84 3d 91 ed 22 3d
       0.07286988 0.004505716 0.06462206 0.039777342
0002c0 2f df 94 3d cb 71 65 3d c3 15 82 3d 66 72 6c 3c
       0.072691314 0.056016725 0.06351807 0.014431572
0002d0 ef 16 ce bc c5 45 59 3d a1 10 cd bd c7 cd 95 3c
       -0.02515742 0.053045053 -0.10012937 0.018286599
0002e0 f2 c8 05 3d 4b b0 19 bd fb b3 30 bd fe 4b 31 bd
       0.03266234 -0.03752164 -0.043140393 -0.043285362
0002f0 28 a2 a5 3d 10 b4 4f bc 6f 44 11 3d 84 80 4e be
       0.080875695 -0.012677208 0.035465654 -0.20166212
000300 ce 6c ad 3d 9b 42 79 3d 7a 2a 38 3d 34 28 60 bd
       0.084680185 0.060854536 0.044962384 -0.05472584
000310 56 cb fb 3c 18 45 a3 bd e8 9e 54 3d aa 99 19 3d
       0.030736607 -0.07972163 0.051909357 0.03750006
000320 f6 d0 af bd 3a d7 c6 3c 9b 45 4e 3d da 02 27 3d
       -0.08584778 0.02427255 0.05035935 0.040774204
000330 95 b5 98 3d a6 4e a6 3d 1b b3 78 3d 6e d9 30 3c
       0.07456509 0.0812047 0.060717683 0.010794027
000340 86 30 7d bd 7e a7 48 bb eb f1 44 bd a1 f5 0a 3d
       -0.061813854 -0.0030617411 -0.048082273 0.033925656
000350 bf 15 98 3d a3 51 51 bb 44 e3 8e 3d 1b 75 72 bc
       0.07426023 -0.0031939528 0.06976941 -0.014798428
000360 a8 4f 9f 3d 28 f0 c0 bd 49 38 bc 3d 80 f4 5c be
       0.07778865 -0.09420806 0.09190423 -0.21577644
000370 bc fb 6c bd bc bc 14 bc 05 12 a1 bd d6 20 a0 3b
       -0.05785726 -0.009078201 -0.07864765 0.004886727
000380 71 05 8a 3d 90 37 98 3d 90 19 81 3d 1a e7 8c 3d
       0.06739319 0.07432473 0.06303704 0.068800166
000390 9a 9f 37 3d 69 d7 54 3d 2c b8 21 3d c0 f2 34 3d
       0.044829942 0.051963244 0.03948228 0.044176817
0003a0 b0 8c 34 3c 40 e5 68 bc c2 77 be 3d 03 e6 7f bd
       0.011019871 -0.014214814 0.09300186 -0.062475216
0003b0 49 79 21 bd 52 12 41 bd 49 2f 17 bd 9a 32 87 bd
       -0.039422307 -0.047136612 -0.03691033 -0.06601448
0003c0 e0 56 82 3d 79 d6 97 3c c2 fa b3 3d d2 fe bf bd
       0.06364226 0.018534886 0.08788063 -0.09374775
0003d0 e0 18 2b bd 9c 59 60 bc 09 10 48 3d dc 9f 6e 3d
       -0.04177177 -0.01369324 0.048843417 0.058257923
0003e0 73 09 3e bc 1a 6e 3c 39 ae f4 01 3d 42 d8 67 bd
       -0.011598933 0.00017970093 0.031727485 -0.056602724
0003f0 b2 b8 f1 bd 8f 06 05 3d 0f d6 8c 3d 43 26 04 bd
       -0.11802806 0.032476958 0.06876766 -0.03226305

lstm.weight_hh_l0 f4 [512, 128]
000000 ec 02 3e 3b 54 40 1b 3b 6a 11 7b ba 63 b6 b2 ba
       0.002899344 0.0023689466 -0.0009577485 -0.0013634678
000010 e1 79 bd 3a f3 f1 8d b7 7d ae 67 bb 13 79 b8 3a
       0.0014455878 -1.6921176e-05 -0.0035351806 0.0014074169
000020 6a 27 17 34 6d ef b6 39 a6 c4 84 ba 89 e8 a0 ba
       1.407731e-07 0.0003489213 -0.0010129407 -0.0012276332
000030 16 75 17 39 c4 ae 2e 3b 68 c1 96 ba ea 79 3e 3a
       0.000144441 0.0026654461 -0.0011501731 0.00072660914
000040 15 6c 5f bb b5 0f 33 3a a6 c6 79 3b df c9 76 3b
       -0.0034091522 0.00068306486 0.0038112788 0.0037656946
000050 12 4d c1 3a ef 3b 78 3b 60 31 b6 3a e6 85 26 ba
       0.00147477 0.003787752 0.0013900213 -0.000635235
000060 1d a6 7b 3b 7b b1 7e ba 7d a9 99 b7 3f e7 2d 3a
       0.0038398572 -0.00097157777 -1.8317945e-05 0.00066338846
000070 87 f1 50 3a df 91 62 3b 45 1e 0c bb 53 e1 a9 38
       0.00079705607 0.003457181 -0.0021380347 8.100518e-05
000080 5e 66 a3 3a 4d d9 b5 3a b4 47 5e bb 4f 79 26 3a
       0.0012466421 0.0013873965 -0.003391725 0.0006350474
000090 40 b5 c8 3a fa d9 a3 b9 7b 49 c6 3a 52 b6 90 38
       0.0015312806 -0.00031252188 0.00151281 6.900415e-05
0000a0 ca d5 45 3b 5e a3 ac 3a 8f 1f 8d ba 3f 97 8e b9
       0.0030187243 0.0013171246 -0.0010766851 -0.00027197038
0000b0 09 ef 77 3b 5e 6c ca 37 b1 37 16 3a 8e 69 07 ba
       0.0037831685 2.4130739e-05 0.00057303446 -0.000516557
0000c0 e6 aa 7d 3a 15 a7 5f bb 79 e9 1e 3b a7 bc 84 ba
       0.000967665 -0.0034126688 0.0024248047 -0.0010127024
0000d0 18 6c 92 38 fe 03 5e 3b 2a a1 82 3a 3a b8 5b 3b
       6.9819565e-05 0.0033876891 0.0009966244 0.0033526556
0000e0 13 7f f2 ba 2d 18 55 ba 82 3d a8 38 83 d5 e2 38
       -0.0018501006 -0.00081289076 8.022321e-05 0.000108162894
0000f0 bc 97 66 b9 f8 57 70 bb 98 0a 2c ba d1 c2 b1 3a
       -0.00021991035 -0.0036673527 -0.0006562858 0.0013562088
000100 29 c8 6a bb 25 c7 80 3b 14 d0 d3 3a d3 da 5f 3b
       -0.003582487 0.00392999 0.0016160035 0.003415753
000110 5f 54 d4 3a 14 d8 82 ba 6b 1e 22 3b 3d a8 db ba
       0.0016199461 -0.0009982609 0.0024737369 -0.0016758513
000120 c7 6d 55 3b 50 be c6 ba 9f 94 4c 39 ee aa 69 ba
       0.0032566653 -0.0015162919 0.00019510322 -0.0008913715
000130 83 16 36 ba 86 28 c1 ba 6e 4b 1c ba 47 e3 60 b9
       -0.00069461035 -0.0014736808 -0.00059621676 -0.00021446972
000140 df d4 24 3b 2e 8d 52 3b 6a 5a 5a 3a 9e bf 40 bb
       0.0025151295 0.0032127607 0.0008329513 -0.0029411088
000150 1d bc 71 bb d6 2d 87 ba 8e fe 6d bb cf 51 5e bb
       -0.0036885806 -0.0010313343 -0.0036315056 -0.0033923273
000160 e9 2a 20 bb d7 10 85 b8 96 f5 3e 37 1b b6 b0 3a
       -0.002443964 -6.345071e-05 1.1382062e-05 0.0013482006
000170 5d 09 2b 3b c3 23 e1 3a 28 e6 a5 3b 76 bf dc 3a
       0.002609811 0.0017176796 0.005062837 0.0016841728
000180 3e 45 27 bb 13 9a c9 ba ea 52 bb 3a 51 d1 6e 3b
       -0.002552345 -0.0015381001 0.0014291678 0.003644068
000190 69 c6 71 3a e2 4c cf ba aa 17 86 bb ef 6e 25 ba
       0.0009222986 -0.001581576 -0.0040921764 -0.0006310781
0001a0 92 f5 8b 3a 2d 1f ed 3a e8 35 7b 3b e1 f9 53 3b
       0.0010678044 0.0018090956 0.0038331691 0.0032344984
0001b0 14 eb 7e bb c1 fc 65 39 9e 67 8f b9 18 a8 eb b9
       -0.0038897442 0.000219333 -0.00027352286 -0.00044947932
0001c0 16 74 3e 3b 94 85 eb 3a f2 ff c0 ba 4a a9 ac b9
       0.0029060892 0.0017968887 -0.0014724715 -0.00032932527
0001d0 27 75 1a b8 ae f0 02 bb c7 d9 57 ba 63 e4 be ba
       -3.6825568e-05 -0.0019979882 -0.00082340505 -0.0014563914
0001e0 fe 35 cf 3a 4d 1f 69 3b 50 2f 90 39 a0 cf 59 bb
       0.0015808938 0.0035571635 0.0002750107 -0.0033235326
0001f0 aa c4 0f 39 a6 87 97 ba a6 e6 73 b9 c7 de 69 3a
       0.00013710806 -0.0011560812 -0.00023260209 0.0008921441
000200 b7 94 97 3a 22 3e ba 3a 7a 0d 12 ba b4 e2 ba ba
       0.0011564706 0.0014209191 -0.0005571466 -0.0014258237
000210 1e 2a 50 ba 03 7c b3 39 20 a4 94 ba 99 6e 27 ba
       -0.0007940846 0.00034233936 -0.0011340417 -0.0006387025
000220 38 e6 14 b6 06 bf 88 39 6a e7 22 b9 2a 01 51 3a
       -2.2187724e-06 0.00026082265 -0.00015535732 0.0007972891
000230 c7 59 a3 3a b1 0c 8f 3a a1 eb 2e b9 60 ae f9 b7
       0.0012462669 0.0010913817 -0.00016681712 -2.9764313e-05
000240 5e 2f 87 ba 2e 3b c2 39 a0 d6 70 3a 33 24 6b 3a
       -0.0010313799 0.00037046656 0.0009187255 0.00089699327
000250 67 fe bf b9 c7 5e 83 3a 21 c6 50 3a 84 d9 80 ba
       -0.00036619903 0.0010022753 0.0007964094 -0.000983045
000260 b2 6b 71 3a f6 1b 02 ba 3e af 75 39 46 8c c8 ba
       0.0009209468 -0.0004963273 0.00023430304 -0.0015300594
000270 a9 1d b7 38 a1 77 1f 3b d9 40 9e ba d1 d4 5c 37
       8.7316446e-05 0.002433278 -0.001207377 1.3162572e-05
000280 9f 2b f1 b9 2b fd 51 ba fd 8a 97 ba ed ad ca b9
       -0.00045999602 -0.0008010442 -0.0011561807 -0.00038658027
000290 71 41 6f ba fe de 3c b9 2c 63 51 ba 0a 55 3d b9
       -0.0009126878 -0.00018012148 -0.0007987495 -0.00018056124
0002a0 bb 81 75 3a 94 37 53 3a f5 62 af ba 97 31 9d ba
       0.00093653396 0.0008057293 -0.0013380932 -0.0011992928
0002b0 96 44 6f 3a fb 8e dc 37 11 bf bf b9 d6 4a 1c 39
       0.00091273466 2.6292624e-05 -0.00036572714 0.00014905198
0002c0 67 b6 d6 b9 3b df 91 ba 7a 2f 6e 3a f5 1a 04 ba
       -0.0004095316 -0.001112915 0.0009086054 -0.00050394173
0002d0 e8 ab 3c 37 71 ae 87 3a 29 5b b6 3a 39 32 84 3a
       1.1245698e-05 0.001035167 0.0013912666 0.0010085768
0002e0 ee fe 9a b9 7a 0b 81 ba 22 e6 bc 37 2a 46 8f b9
       -0.00029563106 -0.0009845339 2.251851e-05 -0.00027327362
0002f0 1e e2 22 39 37 b2 7d ba d4 39 42 ba a8 44 52 ba
       0.00015533759 -0.000967774 -0.000740913 -0.0008021095
000300 d5 c2 8b ba 46 51 75 3a d9 ff 72 3a 9f 4d 77 3a
       -0.0010662923 0.0009358119 0.00092696917 0.00094338687
000310 c1 a2 a1 3a da 57 13 b9 c8 7a 26 3a 2c 9e 8e ba
       0.001233183 -0.0001405174 0.00063506933 -0.0010880879
000320 aa 5c 8f 3a da 46 06 ba 80 03 13 39 71 90 8f 3a
       0.001093765 -0.0005122252 0.00014020316 0.0010953081
000330 fa aa aa 39 8b 68 4b 3a f0 79 df b9 3d e4 92 ba
       0.00032552314 0.00077594136 -0.00042624725 -0.0011206936
000340 9b 73 4f 3a fa 53 8d 3a 69 35 2d 3a 11 59 6d ba
       0.000791365 0.0010782473 0.0006607385 -0.00090541044
000350 0b 2f 87 ba 9d 64 8e 3a bb 71 4a ba 7f 81 a1 ba
       -0.0010313703 0.0010863725 -0.00077226356 -0.0012321918
000360 85 2a a0 ba 87 2a 40 b8 ad 3a b1 39 40 eb 78 3a
       -0.0012219703 -4.5815974e-05 0.00033803788 0.0009495504
000370 d6 2f ac 3a 25 66 35 3a ae 1c 31 3b 82 58 96 3a
       0.0013136815 0.0006919823 0.002702515 0.0011470469
000380 26 3a a0 ba 95 10 81 ba 64 3d 8c 3a 1d 54 72 3a
       -0.0012224361 -0.0009846861 0.0010699448 0.0009244101
000390 11 99 20 ba aa fd 76 ba a2 30 12 bb c8 a8 bb ba
       -0.00061263243 -0.0009421954 -0.002230682 -0.0014317269
0003a0 a6 8f 7c 39 f0 1e 15 3a 04 c8 72 3a db 26 87 3a
       0.00024086106 0.0005688509 0.0009261372 0.0010311262
0003b0 96 32 73 ba 54 96 a8 39 1e b4 a2 38 8f cc 91 3a
       -0.0009277252 0.0003215546 7.7583114e-05 0.0011123585
0003c0 28 94 44 3a b1 83 a5 3a 03 7a 92 3a 9c 19 0e 3a
       0.00074988836 0.0012627748 0.0011175278 0.0005420686
0003d0 e3 a5 b2 3a bc 12 f6 3a 30 5b 99 39 75 2c 18 3a
       0.001362976 0.0018773894 0.00029250374 0.00058049645
0003e0 f8 c0 c6 3a 1e 42 63 3a a3 7b 95 3a 3f 98 8c ba
       0.001516371 0.0008669215 0.0011404644 -0.0010726525
0003f0 56 96 36 38 93 5d b0 ba 0e f2 28 ba db 55 c3 3a
       4.3532193e-05 -0.0013455622 -0.00064447604 0.0014902906

lstm.bias_ih_l0 f4 [512]
000000 34 79 8d 3b fa 2f 61 3a 5d e2 51 3c 30 c1 14 3a
       0.004317427 0.0008590218 0.012810317 0.0005674539
000010 9c 31 78 b6 bf f3 ab 3d e1 9c 7a 3b 68 d1 61 ba
       -3.6983756e-06 0.083961 0.003824048 -0.0008614273
000020 33 f8 c6 b8 e5 83 a3 3d c2 68 98 3c 9e 70 e4 3c
       -9.4876064e-05 0.07984141 0.01860464 0.027885731
000030 af 54 12 3a 00 c8 85 bc ce e0 79 3b 51 87 96 3c
       0.0005582077 -0.016330719 0.0038128379 0.01837507
000040 a7 ff 49 3b 1c bb 60 3d 22 df 9e 3d dd f4 b4 3a
       0.0030822547 0.05486594 0.07757403 0.0013805885
000050 15 06 06 bb 85 51 35 3d ac fd 40 3d 04 12 04 3e
       -0.0020450403 0.044267196 0.04711692 0.12897497
000060 06 a5 23 3c f1 27 05 3c d9 ce be 3d 22 fd 65 3c
       0.009988075 0.008127199 0.09316797 0.014037402
000070 28 52 e7 3c 7a 8b 62 3d c3 51 80 bd a6 3c 25 bc
       0.028237417 0.055308796 -0.06265595 -0.0100852605
000080 c4 36 7e 3a bf c0 62 ba eb 30 fe bc 30 d2 fe 3b
       0.0009697492 -0.0008649937 -0.031029185 0.007776521
000090 d4 18 67 bb 7d 1d ac 3d 1b 01 c0 ba de 77 a4 3d
       -0.0035262601 0.08404062 -0.0014648767 0.08030675
0000a0 ce 2d a5 3d 7d 08 87 3a 72 1d f7 bc e8 2e c9 3d
       0.08065377 0.0010302212 -0.030165408 0.098234
0000b0 07 8a 90 3a 69 fa db b9 4b d2 95 3c 2c ff b5 3d
       0.0011027463 -0.00041957505 0.018288752 0.08886561
0000c0 26 4f b5 3b e4 5f 94 3d fc e4 19 b9 d1 a9 05 3b
       0.005533117 0.07244852 -0.0001467652 0.0020395408
0000d0 bc 53 0e 3a df 07 90 3b 40 8d 5e 3b 9b 57 02 3a
       0.00054293475 0.0043954696 0.0033958703 0.00049721607
0000e0 bb c0 09 3d 38 8d a0 3d a5 98 54 39 2c b7 a7 bc
       0.033631068 0.07839435 0.0002027476 -0.020473085
0000f0 02 f4 16 bb 89 67 8c 3d ec b0 ba 3d f0 05 6b 3d
       -0.0023033624 0.06855685 0.091157764 0.05737871
000100 22 96 5f 3a 16 72 27 3c f0 f1 02 b9 2f c4 ef 3b
       0.00085291464 0.010220071 -0.00012487895 0.007317088
000110 18 36 84 3d b0 ae 82 3b 92 96 0b ba 9b ad b8 3a
       0.0645563 0.0039881095 -0.0005324866 0.0014089824
000120 fb 0c 82 3b a4 51 19 3d 0a 03 fe bc 42 fb bf 3c
       0.0039688325 0.037431374 -0.031007309 0.023435239
000130 50 0a cf 3c 14 86 0f bb 72 7f f5 3d 9e 16 5b 3c
       0.025273472 -0.0021899985 0.11987199 0.013372092
000140 44 c3 dc 3a d4 69 c6 3a 33 ce 78 3d ca 90 19 3e
       0.0016842862 0.001513774 0.060743522 0.14996639
000150 05 ff 87 3b cd 57 2e 3d bb 99 98 3a bf 29 80 bb
       0.0041502737 0.042564202 0.0011642495 -0.0039112265
000160 28 b4 83 3b ec 88 2a 38 1a d3 e1 bc 5a 08 24 3e
       0.004019279 4.0658677e-05 -0.027566481 0.16018811
000170 38 e4 d7 bd a9 40 a9 3d 34 ba 7e bd 00 34 18 3d
       -0.10541576 0.08264286 -0.062189296 0.037158966
000180 40 8e 3c 3b fd ca 16 3d de 10 a6 bd bb c2 58 3b
       0.002877131 0.03681468 -0.08108686 0.0033075053
000190 2e bd 05 3e 62 e2 bf b8 06 34 8e ba 7b f7 da 3a
       0.13060448 -9.149757e-05 -0.0010849244 0.0016705835
0001a0 ef 29 00 3e 3c d4 9b 3d 88 46 13 39 07 d8 9a ba
       0.12515996 0.0760884 0.00014045287 -0.0011813649
0001b0 3b 72 98 3c 5b 1c a7 bb eb e3 f5 b8 12 44 d7 3d
       0.018609157 -0.005099816 -0.000117249634 0.1051103
0001c0 41 7b a3 3a 68 d1 f2 bb 6f cc 75 3a 23 cf 9e 3b
       0.0012472646 -0.007410217 0.0009376471 0.00484647
0001d0 a3 9e 85 bd aa 92 d6 bd 2d e3 a2 3c 2d f0 05 3e
       -0.06524398 -0.10477193 0.019883716 0.13079901
0001e0 0e 37 c3 ba 65 4a f5 bc 79 40 25 3d 83 0f ea 3b
       -0.0014893727 -0.0299427 0.04034469 0.0071429624
0001f0 b2 73 34 3d 82 5c 5b 3c 71 dd 7d 3d c2 26 ff ba
       0.04405565 0.013388755 0.06197876 -0.0019466507
000200 2a ae 56 3c e1 82 67 3b e7 1d 03 3c 40 70 31 3c
       0.013103047 0.0035325813 0.008002735 0.010829985
000210 3b 04 14 bb f9 fd 8b bc 47 4b 36 3b db cb dc b9
       -0.002258553 -0.017088877 0.0027815865 -0.00042113554
000220 8c 43 05 b8 c0 b4 04 bc e8 d5 87 3b 62 76 32 bc
       -3.177258e-05 -0.008099735 0.0041453727 -0.0108924825
000230 b8 1b 7c 3a 2d 82 c2 3b 83 f1 67 3d cb 0f 88 bc
       0.00096171675 0.0059359283 0.056626808 -0.016609093
000240 70 62 9c b9 00 1e ae bb 89 2d d8 3d 32 01 11 3b
       -0.0002982798 -0.005313635 0.1055556 0.0022125957
000250 aa 37 ab ba d1 7e 91 3d 38 f8 74 39 22 23 83 3d
       -0.0013062854 0.071042664 0.00023362122 0.064031854
000260 0e 43 2a bd 98 ed 3f bc d2 92 5a 3c ae ca f9 bb
       -0.041567855 -0.011714362 0.013340669 -0.0076230383
000270 05 5d 82 3c 1a ed 0b 3d 49 ad 23 3d 76 b3 36 bc
       0.015913496 0.034161665 0.03996018 -0.011151185
000280 c3 ba e7 3b 62 58 59 39 c7 2f 15 bc d2 2c ad 3a
       0.0070718243 0.00020727658 -0.009105629 0.001321221
000290 6b c0 21 bb d9 a5 ff ba 5c 0b bb ba 2b fe f0 bb
       -0.002468134 -0.0019504383 -0.0014270353 -0.007354518
0002a0 79 fb a8 3c 60 d1 f1 3a 80 6e a6 3b e8 49 1a 3c
       0.020627724 0.001844924 0.0050790906 0.009417035
0002b0 bd b8 83 3a e9 9c 11 b9 c5 dd 30 3c dc 5c 22 bb
       0.0010049563 -0.00013886731 0.0107950615 -0.0024774587
0002c0 87 8d 5f 3b 15 73 4d 3d 75 45 f3 3b e7 07 f4 3a
       0.0034111456 0.05015858 0.0074240514 0.0018618078
0002d0 dd 51 34 39 2a 14 30 bc 7c 86 c9 3b 51 d7 9c 3a
       0.00017196634 -0.010746995 0.006150065 0.0011966025
0002e0 4e 58 96 bd 5e c0 76 3d 5d 88 2d 39 cb af 4d bb
       -0.073410615 0.06024205 0.00016549365 -0.0031385298
0002f0 a6 ea 2b 3b 75 20 a9 bc 32 12 6d 3d 60 43 aa bb
       0.002623239 -0.02064536 0.05787868 -0.00519602
000300 23 53 0a 3b 57 73 d1 3b bc 12 41 3a da ca 21 3b
       0.0021106682 0.0063919234 0.00073651574 0.002468756
000310 fe 50 37 3c 06 5c 8a 3a a9 d4 25 bb 96 96 8e 3a
       0.011188744 0.001055599 -0.0025303757 0.0010878618
000320 1b e4 33 3c e8 c6 1e 3d 1a c2 3c bb ad 5e 5b bb
       0.010979678 0.03876391 -0.0028802217 -0.003347318
000330 0e 4c 9b bb 79 ef f8 ba 16 c0 40 3d 4c e1 93 3d
       -0.004739291 -0.0018992267 0.047058187 0.07220706
000340 c6 8f 9c 3d 4d 27 2e bc c2 62 a5 3c 0e cd 6d bd
       0.0764461 -0.010629487 0.020188693 -0.058056884
000350 cc 57 33 3c 7a 8e 7a bc af f2 6f bb 4f a3 26 3b
       0.010946225 -0.015292758 -0.0036613157 0.002542693
000360 c8 7c 48 3a b8 73 2b ba 71 8d ca bc 68 f0 06 3a
       0.00076479884 -0.0006540376 -0.024725648 0.00051475177
000370 5c 5b 15 bd f4 56 2d bd 63 8a c1 3c 30 52 dd 3d
       -0.03646408 -0.042319253 0.023625558 0.10806692
000380 57 5e 3c 3d 33 07 1e 3d f0 af 03 bd e6 fb d6 3a
       0.045988407 0.038581084 -0.03215021 0.0016401976
000390 4c a4 f1 3c f4 8f 1a 39 6f 1b a3 3c 8a 82 15 3b
       0.029497288 0.00014740211 0.019910542 0.0022813403
0003a0 1a e2 4c 3d 5d fe a2 3b 3e e8 59 bc e3 ec 2e 3d
       0.050020315 0.00497417 -0.0133 0.04270638
0003b0 6f 21 77 3d d4 d8 8c bc 81 33 33 ba 23 53 00 3c
       0.06033462 -0.017193235 -0.0006835983 0.007832321
0003c0 e0 89 c7 bc fc c5 88 bd 69 23 5d 3c 42 6e a6 ba
       -0.024357736 -0.066783875 0.013497212 -0.0012697654
0003d0 27 af 56 bc 5c cb 64 3c 03 35 d3 bb c8 62 16 3c
       -0.013103283 0.0139645 -0.0064455285 0.009178825
0003e0 46 d8 c6 3a 8c 5a a2 3b 9b f2 61 3b 1b 57 43 3b
       0.0015170656 0.0049546417 0.003447688 0.0029806558
0003f0 4e 8c f9 3c f0 0a d7 3b ae ed 92 bd b2 e9 3b 3c
       0.03046241 0.006562583 -0.0717424 0.0114692915

lstm.bias_hh_l0 f4 [512]
000000 cb d8 8d 3b 55 ac 61 3a cf 91 2c 3c 60 f1 14 3a
       0.0043288223 0.00086087483 0.01053281 0.00056817196
000010 6a 21 bd 36 62 6f 8a 3d 97 9d 7a 3b 4a b9 61 ba
       5.636529e-06 0.06759526 0.0038240904 -0.0008610679
000020 e7 a1 c6 b8 95 54 7f 3d 88 e8 98 3c 01 df 32 3c
       -9.4715324e-05 0.062336523 0.018665567 0.010917426
000030 a7 e8 10 3a 47 56 7d bc a8 b6 79 3b 44 7d f8 bc
       0.0005527832 -0.015462465 0.0038103256 -0.030333169
000040 b6 32 4a 3b 59 1e 4f 3d fe 9d b2 3d 2a f2 b4 3a
       0.003085298 0.05056605 0.08721541 0.0013805081
000050 f8 8e 06 bb a9 06 ba 3d 6a 99 87 3d bc 31 97 3d
       -0.0020531993 0.090833016 0.06621058 0.07382533
000060 09 a5 23 3c 70 b2 17 3c 77 99 be 3d 31 fe 65 3c
       0.009988078 0.009258851 0.09306615 0.014037655
000070 58 e5 b9 3c a9 e1 99 3d 97 be 81 bd c4 9c 25 bc
       0.022692367 0.075137444 -0.0633518 -0.010108177
000080 f1 17 7e 3a 64 91 62 ba da 58 20 bd 06 b0 ec 3b
       0.00096928986 -0.0008642881 -0.039147235 0.007223132
000090 61 30 67 bb ca b6 d5 bb 08 01 c0 ba fb bc ab 3d
       -0.0035276639 -0.0065220343 -0.0014648745 0.083856545
0000a0 c3 00 df 3d c1 c1 86 3a 16 bd 88 bc e6 29 5b 3d
       0.10888817 0.0010281132 -0.016691726 0.053506754
0000b0 cc 84 90 3a 1d f9 db b9 f1 0b 0c 3d 45 46 76 3d
       0.0011025905 -0.0004195654 0.034191076 0.060125608
0000c0 45 5b b5 3b 95 e7 87 3d 38 4b fa bd fd ab 05 3b
       0.005534562 0.06635968 -0.12221378 0.0020396702
0000d0 23 7b 15 3a 74 07 90 3b 8f ba 5c 3b d1 36 02 3a
       0.0005702248 0.0043954197 0.0033680534 0.0004967275
0000e0 35 fa fb 3c f9 97 e8 3d 17 74 5b 39 5e 25 a8 bc
       0.030758956 0.113571115 0.00020928714 -0.02052563
0000f0 2a e6 be ba 3d 05 74 3d 3b 85 15 3e e7 9f ec bc
       -0.0014564444 0.059575308 0.14601605 -0.028884841
000100 c9 8b 5d 3a df df 18 3b 3d 29 01 b9 82 c9 ef 3b
       0.00084513106 0.0023326797 -0.00012317761 0.007317723
000110 f5 30 84 3d 0e 70 82 3b aa 8f 0b ba 9e a3 b9 3a
       0.0645465 0.003980643 -0.0005323837 0.0014163142
000120 ee 01 82 3b ec e3 6f 3d fd 09 ab bc 95 0b bf 3c
       0.003967515 0.058566973 -0.020878786 0.023320952
000130 58 7e 4b 3c c7 7a 0f bb 5c 14 c8 3d 3d 67 5c 3c
       0.012420259 -0.002189325 0.09769508 0.013452348
000140 c3 a5 0d 3d c7 3f c6 3a 1c 64 8c 3d f7 b4 24 3e
       0.03458191 0.0015125208 0.06855032 0.16084658
000150 bf fe 87 3b 5b 70 3f 3d be 99 98 3a 7f 29 80 bb
       0.004150241 0.04673801 0.0011642498 -0.0039111967
000160 20 b4 83 3b 55 94 2a 38 4f 50 e4 bc b9 52 23 3e
       0.0040192753 4.0669303e-05 -0.027870325 0.15949525
000170 20 06 1c bd 0d 62 c1 3d 8b b6 e1 bd c8 af 33 3d
       -0.03809178 0.0944253 -0.110211454 0.04386881
000180 a4 85 3c 3b 37 1e b3 3d ab 4f 61 3c be c2 58 3b
       0.002876618 0.087459974 0.0137519045 0.003307506
000190 b6 45 8a 3d 3f d0 c1 b8 12 34 8e ba dc 44 db 3a
       0.067515776 -9.241746e-05 -0.0010849258 0.0016728896
0001a0 c5 1d 13 3e c3 f6 42 3d 74 57 13 39 35 d5 43 3c
       0.14366825 0.04759861 0.00014051591 0.011952688
0001b0 1c 7d 56 3d ef 1c b6 ba 00 e4 f5 b8 6b ba 00 3e
       0.052365407 -0.0013894121 -0.00011724979 0.12571113
0001c0 79 4d a4 3a 05 b0 f2 bb 05 cc 75 3a 9e 69 9e 3b
       0.0012535296 -0.007406237 0.00093764096 0.004834368
0001d0 fa 4f fb 3c 95 5b d0 bd 17 d9 85 3b 9d 5d eb 3d
       0.030677784 -0.10173718 0.004084717 0.11492465
0001e0 0b 3c c3 ba dd 08 c7 3c 40 49 65 3d 71 0f ea 3b
       -0.0014895214 0.024296219 0.05597806 0.007142954
0001f0 81 d6 33 3d 29 07 69 3c b1 0b 00 3e 06 ab fe ba
       0.04390574 0.0142228985 0.1250446 -0.0019429631
000200 69 ae 56 3c cb 82 67 3b cd 1c 03 3c 23 f3 34 3c
       0.013103106 0.0035325761 0.008002472 0.011044296
000210 ce 02 14 bb db 6d c3 bc 77 71 36 3b d8 c4 dc b9
       -0.002258468 -0.023856094 0.0027838626 -0.0004210833
000220 bf 62 05 b8 4e cf 2a bd 02 d6 87 3b 29 6f 32 bc
       -3.1801635e-05 -0.041701607 0.0041453848 -0.01089076
000230 cf 40 7c 3a d0 81 c2 3b 86 f9 67 3d 81 25 93 bc
       0.00096226943 0.005935885 0.05663445 -0.01796222
000240 1f 19 a6 39 de ae b6 bb 19 a3 5c 3b 8c ff 10 3b
       0.00031680704 -0.005575045 0.003366655 0.0022124974
000250 bf 37 ab ba 85 aa 42 3d 29 e1 53 3a 8b 0f 87 3d
       -0.0013062878 0.0475259 0.00080825627 0.065947615
000260 26 35 2a bd 96 ed 3f bc d1 92 5a 3c a9 ca f9 bb
       -0.041554593 -0.01171436 0.013340668 -0.007623036
000270 e3 5c 82 3c 4f 8a 0c 3d 1f a9 23 3d d6 6e 35 bc
       0.015913432 0.03431159 0.03995621 -0.011073789
000280 96 ba e7 3b 49 9f 5a 39 3d 9b ff 3b 7a 95 ad 3a
       0.0070718033 0.00020849438 0.0078004883 0.00132434
000290 56 13 20 bb 60 3b 2a bd e7 0a bb ba 22 f1 21 3c
       -0.0024425588 -0.04156053 -0.0014270217 0.009884151
0002a0 76 a7 8a 3d cc d0 f1 3a b2 88 a6 3b c5 3d 3f 3c
       0.06770222 0.0018449067 0.0050822133 0.011672442
0002b0 00 ba 83 3a 39 9c 11 b9 d7 f0 32 3c e3 5c 22 bb
       0.0010049939 -0.00013886475 0.0109216785 -0.0024774603
0002c0 83 2c 65 3b ca 82 8c 3d 7f 7d 2f 3d 3e 0d f4 3a
       0.0034969158 0.068608835 0.04284429 0.0018619669
0002d0 24 23 27 39 7a 14 30 bc 7c 86 c9 3b 64 7c 9d 3a
       0.00015939452 -0.0107470695 0.006150065 0.0012015221
0002e0 26 16 8d bd 53 5e 84 3d a1 76 21 39 36 b2 4d bb
       -0.0688899 0.064633034 0.00015398349 -0.003138674
0002f0 2d ea 2b 3b cb 8c 0e bd de e7 41 3d 44 ad c3 bd
       0.002623211 -0.03480224 0.047340266 -0.09554532
000300 78 27 0a 3b 31 74 d1 3b f0 8d 41 3a 25 ca 21 3b
       0.0021080654 0.006392025 0.0007383516 0.0024687138
000310 d2 50 37 3c 4f 68 8a 3a 08 e8 ba bb 8b 96 8e 3a
       0.011188703 0.0010559651 -0.00570393 0.0010878606
000320 13 bb 33 3c f2 85 08 3c e3 c1 3c bb 8d 5e 5b bb
       0.010969895 0.008332716 -0.002880209 -0.0033473105
000330 11 bb c0 bb 1b 02 f9 ba d8 9f 6c 3d a8 34 95 3d
       -0.005881675 -0.001899782 0.057769626 0.07285434
000340 21 f8 1d 3d 02 6e 36 bc 61 7a a5 3c b2 1d 04 be
       0.038566712 -0.011134626 0.020199956 -0.12901953
000350 70 d1 31 3c f0 d7 c9 ba 46 f4 6f bb a5 a2 26 3b
       0.010853156 -0.0015399437 -0.0036614104 0.0025426534
000360 5d 72 48 3a 31 7c 2b ba 9c b9 ca bc e1 00 07 3a
       0.0007646436 -0.0006541638 -0.024746709 0.0005149972
000370 76 86 cc bb 67 4c 2c bd 29 36 01 3d 30 9c cd 3d
       -0.006241615 -0.04206505 0.03154579 0.10039556
000380 d1 5d 3c 3d a9 6d 40 3d 03 26 0a bd 12 fc d6 3a
       0.045987908 0.04697958 -0.033727657 0.0016402027
000390 9a 6b ee 3c 92 74 1a 39 b1 52 e4 b9 d0 80 15 3b
       0.029104043 0.0001473001 -0.0004354916 0.0022812374
0003a0 3d bc 46 3d 48 af 11 3d 31 e7 59 bc 7e 49 54 3d
       0.04851936 0.03556755 -0.013299749 0.0518279
0003b0 0c 0c 45 3d 9f ed 82 3a b8 33 33 ba 25 53 00 3c
       0.048107192 0.000998903 -0.0006836015 0.007832323
0003c0 67 a9 75 bd a6 15 46 bd 67 23 5d 3c 84 4e a8 ba
       -0.059976008 -0.04836049 0.01349721 -0.0012840782
0003d0 03 e7 20 bd d6 cb 64 3c 68 a2 0c bc 7e 63 16 3c
       -0.03928281 0.013964614 -0.008583643 0.009178994
0003e0 46 33 c9 3a 81 54 a2 3b 35 f2 61 3b 51 44 48 3b
       0.0015350364 0.0049539213 0.0034476642 0.0030558298
0003f0 8c 8e f9 3c 1f 11 d7 3b 88 ff 6c bd b5 e9 3b 3c
       0.03046348 0.0065633203 -0.05786088 0.011469294

fc.weight f4 [1, 128]
000000 55 c0 2a be b2 d4 a0 af 46 75 55 bb 9c 25 15 be
       -0.16674931 -2.925496e-10 -0.003257112 -0.14565128
000010 50 cd ca bc ef 0b 36 3e 90 15 ab 3c e6 ee ab bb
       -0.024756104 0.1777799 0.020884305 -0.005246985
000020 25 3d 54 3c a4 af ff bd 48 3b c9 3c af 31 66 3e
       0.012954031 -0.12484673 0.0245644 0.2247989
000030 ea 7c 1a b1 37 cd 7d bc 50 87 2f bb 0e 8a 0d 3e
       -2.2480955e-09 -0.015490822 -0.0026783533 0.13822195
000040 70 7a 53 3c 58 8d 26 3d eb 22 9a bd f9 01 5e bc
       0.012907609 0.04066214 -0.07526191 -0.013550275
000050 19 d8 13 bb 8d be 92 bd 6f 00 bf bd e0 90 42 3e
       -0.0022559224 -0.07165251 -0.093262546 0.19000578
000060 7e d2 25 bc d9 d9 96 bd 9c b2 4e 3e 4d 52 b4 3c
       -0.010120986 -0.0736577 0.20185322 0.0220119
000070 11 ba d2 3c ef b5 dd bd ce ba b1 3c 22 e0 b8 3d
       0.025723489 -0.10825717 0.02169552 0.09027125
000080 9d f5 00 ba 5c da 89 3d 78 82 42 3b 2c fb 6d bd
       -0.0004919412 0.06731102 0.0029679816 -0.058100864
000090 05 0d 24 bc 99 af d5 bd 69 0e 07 bd d2 b4 03 3e
       -0.01001287 -0.10433883 -0.032972727 0.12861946
0000a0 36 d3 72 be 6d be bd bc 22 fd 1a be 74 0d b7 3c
       -0.23713383 -0.023162091 -0.15135625 0.022345282
0000b0 3d ce e6 bb 06 17 21 3d fc de af bc 69 85 da bd
       -0.0070436285 0.039328597 -0.021468632 -0.10669977
0000c0 fc 89 75 bc 33 b8 87 bc 2a bf 0a bd 86 b4 5f 3d
       -0.014986511 -0.016567325 -0.033873715 0.05461552
0000d0 20 23 40 3d b9 6b 3f bd 43 1a 9d 3e 37 4d 9b be
       0.046908498 -0.04673359 0.306841 -0.30332348
0000e0 77 36 35 3e 38 92 2b 33 fa 9f 36 3d 02 c4 fe bc
       0.17696558 3.9947025e-08 0.04458616 -0.031099323
0000f0 c7 bd 36 bd 25 bf 80 3c 8e 80 02 3c 43 45 92 bd
       -0.04461458 0.015716145 0.00796522 -0.07142117
000100 54 46 2d 3e 8e 7e 94 3b dc 6f 53 3d 28 dd f7 bc
       0.1692136 0.004531688 0.05162035 -0.030256823
000110 17 1f 38 bd 8e 96 e8 3b 12 1b db bc ce 63 4c bb
       -0.044951525 0.0070980256 -0.026746307 -0.0031187418
000120 13 97 61 bc e7 22 0c bd bc 50 30 3c 5e 21 31 3d
       -0.013768929 -0.034212973 0.010761436 0.043244712
000130 7d 89 9f 3d 69 f2 6d 3d 3b a3 ae 3d 65 c9 bb 3c
       0.07789896 0.05809251 0.085272275 0.02292318
000140 c4 45 b0 bd 9e 7f f2 bc 5e 11 ed bd 34 b0 a5 3d
       -0.08607057 -0.029601868 -0.11575578 0.08090249
000150 dc 58 98 3c 80 b8 33 3d ec 2b 8f bb 11 9d a9 3d
       0.018597059 0.043877125 -0.0043692496 0.08281911
000160 db 33 8e 3e 93 a8 c8 3d 2e 66 29 bd 09 5d a4 3d
       0.27773938 0.09797778 -0.04135721 0.080255575
000170 c3 80 0a bd de a4 cb bd 86 20 02 3d 30 da 40 3d
       -0.033814203 -0.09943555 0.031769298 0.04708308
000180 60 08 7c bd 23 06 cc 3d ac b3 68 bd da 5e 94 bc
       -0.061531425 0.09962108 -0.056811973 -0.018111635
000190 5a 20 7a bb 91 e0 45 ba 79 60 fd bc 7b 18 01 be
       -0.0038166256 -0.00075484166 -0.03092979 -0.12606995
0001a0 54 a9 0f bc 70 d0 36 bd de bc 0b bc c4 95 8d bc
       -0.008768398 -0.044632375 -0.008528916 -0.017283328
0001b0 32 68 13 3d bc 23 02 3e de 24 30 34 84 f2 c9 bd
       0.03598804 0.12708944 1.640469e-07 -0.09860709
0001c0 5f 81 16 3d 81 31 02 be eb bf 0d 3d 80 e4 97 3c
       0.03674447 -0.12714197 0.034606855 0.018541574
0001d0 66 03 a9 bc 6b 50 41 3d 0a 5f 9d bc 23 7b 37 3e
       -0.020631503 0.047195833 -0.019210357 0.17918067
0001e0 b7 59 29 3e e0 35 64 3c 76 59 10 bd 37 a3 8e 3d
       0.1653813 0.01392886 -0.035241567 0.069647245
0001f0 34 0d a3 3a 04 76 0a be cc 68 43 3e 3b 8d 2e 3e
       0.0012439848 -0.13521582 0.19082946 0.17046063

layer_norm.weight f4 [128]
000000 7d 2a 09 3f 8b dd 93 31 f4 31 28 3f ea c7 6e 3f
       0.53580457 4.3034496e-09 0.6570122 0.93273795
000010 84 c0 96 3d 33 d9 7c 3f 7f a4 d9 3e 07 42 aa 3c
       0.07360938 0.9876892 0.42508313 0.020783437
000020 84 1d 9d 3d bb c3 74 3f d4 6b ec 3d f1 90 59 3f
       0.07671645 0.9561116 0.11544004 0.8498679
000030 40 bd 89 33 b8 1b a9 3e cf ef df 3d 28 25 6c 3f
       6.413984e-08 0.3302896 0.10934412 0.92244196
000040 61 b7 4d 3f bf 40 d1 3e 2b 58 66 3f 02 e3 f3 3e
       0.8035794 0.4086971 0.89978284 0.4763413
000050 c4 04 24 3c 30 cc 47 3f 64 b2 49 3f 0f eb 38 3f
       0.010010902 0.7804594 0.7878783 0.7223367
000060 a4 7d 13 3f 6a 1d 56 3f d6 ce 69 3f 4c 0f 3c 3f
       0.5761359 0.8363863 0.9133123 0.7346084
000070 e5 b0 c0 3e 8b 68 56 3f 67 6f 12 3f 3c 28 37 3f
       0.3763496 0.8375327 0.57201236 0.7154577
000080 3d 64 2b 3b 99 dc 86 3e 76 4f 17 3f 20 1c 3c 3f
       0.0026152276 0.26340178 0.5910562 0.73480415
000090 20 be fe 3c fb 6b 6f 3f 66 c2 be 3d 1d 78 83 3f
       0.031096518 0.9352414 0.09314422 1.0271031
0000a0 c5 ef 31 3f 5c cf 48 3f 0f 8b 68 3f a5 90 1f 3f
       0.69506484 0.78441405 0.90837187 0.62330085
0000b0 04 d2 44 3f 3d 6b 49 3e a0 29 a9 3e 05 c1 41 3f
       0.7688296 0.19669814 0.3303957 0.7568515
0000c0 cd fe 22 3f 00 f9 fd 3e 17 c7 53 3f bb 59 32 3f
       0.63670045 0.49604034 0.8272566 0.6966817
0000d0 74 52 4f 3e 7d cf 3e 3f 97 2c 7f 3f c2 03 57 3f
       0.20246297 0.7453535 0.99677414 0.8399011
0000e0 af 71 81 3f 10 9b 2d 36 f6 c6 94 3e 72 cb da 3e
       1.0112818 2.5869267e-06 0.29058045 0.4273334
0000f0 f5 24 21 3f 2a a8 0f 3f af 19 a5 3d 45 64 68 3f
       0.62947017 0.56115973 0.080615394 0.90778
000100 ea 54 53 3f d5 e5 ac 3e 49 a7 57 3e 71 fd 2b 3f
       0.82551444 0.33769098 0.21059908 0.67183596
000110 e9 c5 cf 3d fa cb f9 3e f6 74 23 3f e5 d1 6a 3c
       0.1014517 0.48788434 0.63850343 0.014332269
000120 e2 1e 2a 3f b3 b7 52 3f 45 0c 08 3f b6 51 4d 3f
       0.66453373 0.8231155 0.5314372 0.80202806
000130 b8 25 5c 3f 07 b4 97 3e ed 6c a5 3e 03 dd fd 3e
       0.85995054 0.29629537 0.32309666 0.4958268
000140 88 23 68 3f a1 83 4e 3f a4 e2 64 3f bc 1c 61 3f
       0.90679216 0.806696 0.89408326 0.8793447
000150 84 bb 49 3f 3c 35 5d 3f 2b 1a 7a 3e 64 5c 27 3f
       0.7880175 0.86409354 0.24424045 0.6537535
000160 85 5f 8b 3f d0 c9 52 3f a5 8d 29 3f 90 09 44 3f
       1.0888525 0.8233919 0.6623176 0.7657709
000170 48 52 41 3f 00 37 09 3f 98 47 43 3f 8f c6 15 3f
       0.75516176 0.5359955 0.7628112 0.585061
000180 a4 18 46 3f b7 9e 6f 3f 19 a4 4e 3f cd db 35 3f
       0.7738135 0.93601555 0.80719143 0.71038514
000190 e8 83 48 3c 6d 5f 4e 3c 21 de 4c 3f ba 3d 51 3f
       0.01223848 0.0125959935 0.8002644 0.8173481
0001a0 1d bb 29 3d 22 4d 27 3f 3f 29 22 3f 8f 28 3f 3f
       0.04143821 0.6535207 0.63344187 0.7467126
0001b0 92 dd 5e 3f a7 a9 4a 3f ba fe 86 b6 24 96 56 3f
       0.8705684 0.7916512 -4.0231653e-06 0.83822846
0001c0 08 0e 39 3f 3c 9d 6d 3f 29 7b 8a 3e ae d9 0c 3f
       0.72287035 0.92818046 0.2704709 0.5501965
0001d0 5f 2d 48 3f f3 85 b5 3e 91 d2 3a 3f 2c 62 4e 3f
       0.7819423 0.35453758 0.7297755 0.8061855
0001e0 2c 26 73 3f 23 9f 23 3f e0 a7 c5 3d 0d 42 4e 3f
       0.9498012 0.639147 0.0965116 0.80569535
0001f0 91 d3 6e 3c ae 45 67 3f 6e 1e 8d 3f 8c aa 67 3f
       0.014576809 0.903407 1.1024911 0.9049461

layer_norm.bias f4 [128]
000000 c9 50 79 3c 0d d5 d3 2f 18 76 48 3d e3 f7 00 3e
       0.015217015 3.8532058e-10 0.048940748 0.12594561
000010 02 9c d6 3b 29 4c ce bd 98 9e 40 3d 35 14 79 3b
       0.0065493593 -0.1007312 0.047026247 0.003800643
000020 f2 7d 06 3c 66 36 33 3e 24 7e cb bb 9a ee d5 3b
       0.008208739 0.1750122 -0.0062101055 0.0065286877
000030 d4 2e 76 32 9c 41 9a 3d 74 33 5d 3d f8 09 a1 bd
       1.4329732e-08 0.07532045 0.054004148 -0.078632295
000040 cf b5 ac 3d 13 07 e0 3a 50 42 ff bd f4 c3 66 bd
       0.08433115 0.0017091952 -0.1246382 -0.05633922
000050 88 f5 25 3b b0 40 6d bd 33 35 81 bd 83 67 ea 3c
       0.002532335 -0.05792302 -0.06308975 0.028613811
000060 3d b2 5f bd b8 e4 97 bd cd 99 b8 bd 85 98 78 bd
       -0.05461334 -0.074166715 -0.0901371 -0.06069233
000070 d4 d0 41 3d 07 79 37 bd 6f 32 67 3d ec 42 c3 3c
       0.047318295 -0.044793155 0.05644458 0.023835622
000080 ac 47 62 3a dc 0b b3 3a d0 8a 0e bd b3 45 6b bd
       0.0008631896 0.001366015 -0.03480035 -0.057439517
000090 40 f9 1d 3c fd 23 35 3e a3 dd fa 3b 3e 15 1c be
       0.009641945 0.1768951 0.0076558157 -0.15242478
0000a0 b0 8b f9 bc b1 4c aa bd b4 f9 03 3e e3 4c ca 3c
       -0.030462116 -0.08315409 0.12888223 0.024694866
0000b0 66 02 a5 bd 04 fe 70 3b e8 34 1b bc 5c c7 c7 3d
       -0.08057098 0.00367725 -0.009473063 0.09754822
0000c0 5c 30 61 bd 66 25 8d 3d 33 e0 ea 3c 92 f1 e8 b8
       -0.05497776 0.06891899 0.02867136 -0.00011107618
0000d0 38 c2 3f bc 24 87 2e bd 4f 7d 1e bd c5 0c 1b 3b
       -0.01170402 -0.04260935 -0.038693722 0.0023658734
0000e0 41 28 e6 ba 38 ce 46 35 fe 30 ef 3c 85 ff 1f 3c
       -0.0017559604 7.4060836e-07 0.029198166 0.00976551
0000f0 2b a2 f3 bb c5 29 51 3d ea 44 53 3c 3b f3 14 3e
       -0.0074351034 0.051065225 0.012894848 0.1454591
000100 db c9 31 3d 2a 6d 91 bc 4a dc 69 bc 36 50 63 bc
       0.043405395 -0.017752249 -0.014273712 -0.013874104
000110 1f 30 c4 3c 2d 30 71 3d 38 61 08 bd 7e 8a af 3a
       0.023948727 0.058883835 -0.03329584 0.0013392714
000120 5a 50 80 bd 4d 3f b1 3d 4d 80 e5 bc 79 cf d0 3d
       -0.06265326 0.08654652 -0.02801528 0.10195822
000130 f8 c6 c6 bd 34 d6 62 3c b6 e8 38 3c df d1 18 3d
       -0.09705919 0.013845015 0.011285951 0.037309524
000140 2e fb 11 be 1e f2 67 bd 19 95 d7 3d e6 09 cb 3d
       -0.14255974 -0.056627385 0.10526485 0.09913997
000150 ee eb a4 3d b8 78 fe bd e2 1c 82 bd 73 8c 75 bd
       0.080528125 -0.12425369 -0.06353165 -0.059948396
000160 1f 55 44 bd b2 e8 08 bd cf 7f 4e bc b3 0d 91 bd
       -0.04793274 -0.03342504 -0.012603714 -0.07082691
000170 30 4f 29 3d 0d 3e ba bc 1d 83 41 bd 39 cf 62 bc
       0.041335285 -0.022734666 -0.04724418 -0.013843351
000180 db 33 0e 3d 68 ce da 3d af 1d 50 bd 3c 0d 13 bd
       0.034717422 0.106839 -0.05080956 -0.035901293
000190 3f 4c bb 3b 46 7e a4 3b 43 16 9d 3d 10 8d 11 3e
       0.0057158764 0.005019936 0.07670262 0.14213967
0001a0 6d 19 b7 3b 3a ca 87 3c 25 0f 88 bd 95 58 05 bd
       0.005587748 0.016575921 -0.066435136 -0.03255518
0001b0 54 25 06 3e 72 12 5c bd 7a b6 2c b5 5e f5 b3 bc
       0.13100177 -0.05372853 -6.434053e-07 -0.021967586
0001c0 ef b1 be 3b c5 c9 06 3e 1d 09 de 3c 19 4c b2 3b
       0.005819551 0.13162906 0.027103955 0.0054412005
0001d0 0d 60 b0 3d ef 57 84 3c 37 f4 29 3d 4f 0d ee 3c
       0.0861207 0.016155211 0.041492667 0.02905908
0001e0 1f 35 fc bd eb 52 3a bd f2 6c 41 3c 66 3f 8c 3d
       -0.123148195 -0.045489233 0.01180576 0.0684803
0001f0 77 b0 a5 3b 13 6b 05 3e 5b b2 ee bd a4 74 fc bd
       0.0050564366 0.13029127 -0.11655112 -0.12326935
