results/question3_tickets/GRUmodel_q3.pth (torch, 207078 bytes, 7 tensors)

gru.weight_ih_l0 f4 [384, 2]
00000000: 7ed1 153b 2b22 c43d 27c1 cabc dcb4 903d
00000010: 051d 2c35 e2ad 0135 7a96 a8b7 69c0 d739
00000020: c977 3037 d0a6 b4b8 7df4 af3c bfeb 043e
00000030: 52f7 ab3a 8282 983d ac2b 4b35 d523 1b35
00000040: 4775 ceb4 2dcd 9635 6266 0434 7373 afb6
00000050: dc23 5135 829f 01b7 7ac4 5db7 00a3 e1b9
00000060: eb1c 87be 3e54 f23c 2d23 5a35 12b3 1135
00000070: 64eb cf35 927e d135 06c6 e3be 903f 65bc
00000080: 60b9 2b35 b022 ba34 f143 5135 215a e334
00000090: e503 ef34 f367 d1b6 88f1 5fb8 8fda b839
000000a0: a8da 0db7 4cde 27bb 3c05 9036 e9d7 d639
000000b0: 018a af3b a3d8 1b3d 033f 0a3c 5ee3 dc3d
000000c0: d7e6 42b8 29c3 24bc d230 db3c 9bcf 173e
000000d0: 2132 c834 50f6 bbb6 ddfb 1f35 4d0c e634
000000e0: 5803 beb3 d1d8 a1b6 ece3 2635 b375 d234
000000f0: c4a0 87b6 5a01 ec34 3ddf 2735 91f3 e134
00000100: 11b3 66b8 dc43 863d 759a 57b6 e64a e836
00000110: a2f2 0f3b f858 b43d 0cef 803b 5c72 503d
00000120: 4f9d a1b9 e25a 74bc 99fd 033d 5cb1 253e
00000130: c81a 2e35 680e 0e35 a087 4436 7aae c7b8
00000140: 0550 5435 c516 0535 f0f0 fa35 de30 7bb9
00000150: 139e 5032 a8ba 95b6 fe94 89bb b9f8 8bbd
00000160: 3e27 abb6 343c ff38 6a68 5134 af43 00b7
00000170: 3f75 55b5 c57c 39b6 87ed 2035 530c 3c35
00000180: a87d 003d d2dc b93d 424c 7736 8955 6d38
00000190: 7052 473b 2c1a cc3d f00c 2235 e872 b8b6
000001a0: 4f8c 503c 955c 9d3d 3e27 1fb4 f902 7eb6
000001b0: 9ab6 d6ba 3e3e eebc ec5e 2d3b 225f 943d
000001c0: 6361 1635 9991 e934 f1bb e2be a55f a3bc
000001d0: 1066 e43b f0a6 843d 2189 f1bb 4e44 9a3d
000001e0: 545a 2cbb 4282 8abc c423 3e39 a7bf 943d
000001f0: a9e2 743a fd18 0b3d c540 3435 8fdc ea34
00000200: 6db7 9c34 97d2 8fb6 c9ac ce3b 95b6 be3d
00000210: 8950 b83b 9cc0 7a3d 6f53 03b6 433a 3736
00000220: 17d1 7035 b1dd cfb5 f5f1 4635 374a 5035
00000230: 2817 ab35 46bd 2238 998e cb3b 7ff0 fa3d
00000240: 0606 57b8 0f82 dfbb 43e8 4435 839e 2d35
00000250: 1659 d8b5 d8ee 15b8 11d4 6ab6 3e99 c936
00000260: fe4a 3f35 9e26 e834 ab10 0f3c f9ee 633d
00000270: e251 2c35 9c9e 5c35 3326 f433 44cf e0b5
00000280: 17af 4935 f1b6 6135 7c8c b83c 1b25 063e
00000290: a02b 7fbe 4516 eb3c 04bc 3e35 8a16 a9b7
000002a0: 9af2 85b6 0daf 2b37 1209 0a39 0253 a2bc
000002b0: 6d52 623c 1e04 ae3d f90c 0635 f173 6034
000002c0: afb3 4c36 0a81 1b39 99bf e536 95e1 8dbb
000002d0: 51f9 1f35 cf17 3235 e7ae ceb6 a945 9b37
000002e0: 41b0 a2b6 4d7b 33ba d612 4cb6 5bdb 1a37
000002f0: 2aae 5e3b ac13 9f3d 6db3 d7b6 fc00 9937
00000300: 7e88 6335 18b4 9035 8a9f 3b35 de82 1135
00000310: b4af 5135 b393 1635 590e 92b6 3e2b edb6
00000320: 7bc5 32b5 6453 16b8 b2d9 4a35 c4f9 1d35
00000330: 4b55 ce39 dd3a 8a3d c91a 283a 951a 423d
00000340: e775 95b5 fa42 f8b5 e08e 4fbc 4ac6 c7bc
00000350: 5253 b037 7439 9fbb 0fe8 f0b5 7a94 b3b3
00000360: f388 5735 958e 1135 6fd8 0a35 7b0d 0135
00000370: 6c8b 0b39 89c2 dcbb a610 78b5 b5d2 ab36
00000380: 9ad6 b8b9 385d 9cbb c9b5 25bd 2151 5c3d
00000390: 11b2 75b6 96b7 9c3d 47a0 4c3b 74de 863d
000003a0: 0af6 3b35 491a 78b7 6516 02be d912 85bc
000003b0: 42d2 efb5 bf83 ac36 38f4 4c35 5ab5 0735
000003c0: ccd1 9fbb d033 813d 5dfd d8b8 d54d c83a
000003d0: fe2b 1b35 5f51 e8b6 ab22 323c 8ead 913d
000003e0: 054e e3bd 0c9c 0c3d d74a 3235 8eaf 06b7
000003f0: db5c 463c 44a1 793d 7c32 ae3b d4fc 3a3d
0.0022860463 0.095768295 -0.024750305 0.07065746 6.411722e-07 4.830928e-07 -2.0097232e-05 0.00041151352
1.0518307e-05 -8.61414e-05 0.021478886 0.12980555 0.0013119972 0.074467674 7.5686944e-07 5.779414e-07
-3.845582e-07 1.1235585e-06 1.2330705e-07 -5.2288465e-06 7.791075e-07 -7.7261375e-06 -1.3218372e-05 -0.0004303679
-0.2638925 0.029581185 8.1262516e-07 5.427729e-07 1.549121e-06 1.560855e-06 -0.44487017 -0.013992205
6.397222e-07 3.4670438e-07 7.7957435e-07 4.2347622e-07 4.4520053e-07 -6.2407867e-06 -5.3392287e-05 0.00035258054
-8.455165e-06 -0.0025614677 4.292144e-06 0.00040978126 0.0053570275 0.038048398 0.008437875 0.10785554
-4.646819e-05 -0.010056295 0.026756678 0.14825289 3.7289377e-07 -5.601709e-06 5.9598625e-07 4.2849788e-07
-8.848173e-08 -4.8234147e-06 6.217149e-07 3.9201186e-07 -4.042029e-06 4.395941e-07 6.25372e-07 4.2086734e-07
-5.500304e-05 0.06555912 -3.2127402e-06 6.922858e-06 0.0021964689 0.08806032 0.0039347466 0.05089031
-0.00030825517 -0.014914246 0.03222427 0.16180938 6.4859023e-07 5.2920086e-07 2.928522e-06 -9.521558e-05
7.90926e-07 4.9579495e-07 1.8696574e-06 -0.0002395543 1.2143135e-08 -4.4622757e-06 -0.0041986695 -0.068345495
-5.1007655e-06 0.00012170561 1.9502627e-07 -7.645153e-06 -7.95193e-07 -2.7639774e-06 5.995029e-07 7.005339e-07
0.031369835 0.09075321 3.6850256e-06 5.6584864e-05 0.0030414127 0.099659294 6.036853e-07 -5.497004e-06
0.012728765 0.07683674 -1.4822305e-07 -3.785068e-06 -0.0016381324 -0.029082414 0.0026454283 0.07244708
5.602107e-07 4.3505568e-07 -0.44284013 -0.019943068 0.0069701746 0.06477153 -0.0073710834 0.07532559
-0.0026298957 -0.016907815 0.00018133136 0.07263117 0.00093416363 0.033959378 6.714948e-07 4.3746374e-07
2.9190724e-07 -4.286248e-06 0.0063072187 0.093121685 0.005624835 0.061218843 -1.9569086e-06 2.7303038e-06
8.9711233e-07 -1.5487223e-06 7.411284e-07 7.7594035e-07 1.2747232e-06 3.8800084e-05 0.0062120673 0.12252902
-5.1265604e-05 -0.006820924 7.3353675e-07 6.4678187e-07 -1.6119182e-06 -3.574681e-05 -3.4992156e-06 6.0081065e-06
7.126217e-07 4.3241465e-07 0.008732001 0.055647824 6.419415e-07 8.2187194e-07 1.1369084e-07 -1.6749623e-06
7.5133124e-07 8.4085246e-07 0.022527926 0.13100092 -0.24918985 0.028697142 7.1054114e-07 -2.0156866e-05
-3.9919514e-06 1.0233151e-05 0.00013164085 -0.019814972 0.013813597 0.08496879 4.993777e-07 2.0903805e-07
3.0502958e-06 0.00014830023 6.8470367e-06 -0.00432987 5.959492e-07 6.6344813e-07 -6.1596397e-06 1.8509878e-05
-4.848495e-06 -0.00068466814 -3.0409333e-06 9.230188e-06 0.0033978322 0.07767424 -6.428387e-06 1.823948e-05
8.476271e-07 1.078125e-06 6.989509e-07 5.4207146e-07 7.811425e-07 5.6094285e-07 -4.3528094e-06 -7.0681845e-06
-6.659754e-07 -3.584045e-05 7.556765e-07 5.8850515e-07 0.0003935493 0.067495085 0.00064126827 0.04738863
-1.1135679e-06 -1.8496933e-06 -0.012668341 -0.024386544 2.1019634e-05 -0.004859144 -1.7948931e-06 -8.362345e-08
8.029303e-07 5.4224193e-07 5.172396e-07 4.807586e-07 0.00013308012 -0.0067370576 -9.2411426e-07 5.1207267e-06
-0.00035255105 -0.0047718547 -0.040456567 0.053788308 -3.6611493e-06 0.07652204 0.0031223462 0.06585398
7.002096e-07 -1.4788072e-05 -0.12703855 -0.016244339 -1.7868081e-06 5.1413367e-06 7.6351307e-07 5.055532e-07
-0.0048773047 0.063087106 -0.00010346875 0.0015281985 5.7806017e-07 -6.9236116e-06 0.010872523 0.07113181
-0.110988654 0.034328505 6.6419074e-07 -8.027897e-06 0.012107099 0.06094481 0.005316077 0.045651272

gru.weight_hh_l0 f4 [384, 128]
00000000: 236d f639 dd17 6fb9 9c23 ea39 bc2c 8cb8
00000010: e569 fcb6 5196 e039 174e 9ab9 ccf9 e9b9
00000020: c979 c2b8 5e60 c6b8 56a5 e838 c6c6 0837
00000030: 9b2b 163a 6722 eab9 23ad edb9 57c6 0b3a
00000040: ae33 ea39 18d6 e9b9 0245 cdb8 d011 82b5
00000050: d6c4 4f39 1d07 fab8 eb11 e239 37fb bfb9
00000060: 1d84 8938 2f69 8638 d91f ceb8 9220 ea39
00000070: 65fe bdb8 4028 ea39 ef12 cdb8 1f25 e939
00000080: abc3 47b7 0f16 b738 8698 3738 c51d 7439
00000090: e5c9 9b39 8f4c 4238 d72f ea39 2d06 f2b7
000000a0: b4e5 e9b9 e7ae a4b6 08e9 bfb8 f1d8 4db9
000000b0: 62c5 7438 4dd8 f238 ee24 b5b8 44f8 e939
000000c0: 583b bd39 b412 0539 d6fa 33b9 599e d438
000000d0: 62e0 20b9 e1f6 bdb8 d072 3039 23b2 08ba
000000e0: 362c ea39 4965 263a 7db9 d039 9dd7 013a
000000f0: 7bcd b239 6c2e 09b7 8aa9 61b4 a121 ea39
00000100: 42ad e3b8 38ff 45b9 c086 7039 76f0 e738
00000110: 7624 c839 b70f ea39 4a78 d5b8 657f f339
00000120: f685 4438 aa0d ea39 739c d9b8 232f a0b8
00000130: cef8 e9b9 e7b2 d1b9 03d8 e9b9 2e7a c8b8
00000140: 4ffd e939 c96b b739 ab4d fe39 8bcd e138
00000150: b89d c938 8078 deb9 b8cc 8139 7abb e8b9
00000160: 0c32 2d38 5f02 e4b8 2fea e9b9 d4ba 84b8
00000170: 820d dc38 7d19 f838 ad74 9a39 34b3 86b8
00000180: 0001 e739 e821 ea39 f3e4 e939 cd51 f538
00000190: fd87 d6b8 3005 ea39 561b acb8 58af 1536
000001a0: 627a d938 762e a239 90ef 11b8 75cb abb8
000001b0: 1d2f ea39 e9b6 e939 6446 bcb9 7e04 c7b8
000001c0: 158b 6eb7 5f31 e139 75df ca39 4ae0 8739
000001d0: 2e8c f438 b6b4 3db9 5165 d038 c012 eab9
000001e0: 8d16 f8b9 76fa 8fb8 2b92 c9b8 4eb5 4cb7
000001f0: ba26 1e39 6e7b ec38 4074 3fb7 5fd2 0e39
00000200: 9f43 aeba 2134 02bb 6c87 5a3c 412c 44b6
00000210: 0d08 0c39 3ad0 a4bc 4320 0ebc 457f 56bc
00000220: d865 1839 2c34 2739 ce9e 1539 a2ab 2f39
00000230: 4b4c e6ba 17ad 52bc ecfa 2cb9 6fd7 1abc
00000240: f6e1 5b3c 1150 59bc 6201 f238 fa23 f2b8
00000250: 08c1 5e3a 4ee5 6aba 9816 183b 0820 8b3a
00000260: aad0 20b9 2251 6ebc 5b3b ec38 a68e 593c
00000270: 087c 4439 733f 5b3c 4bab 2439 734d 563c
00000280: 83c5 6538 b7cc e7b8 4aa2 f8b8 706a fa3b
00000290: dc0c 9aba 488e 763c 1f50 533c 0ab5 87b9
000002a0: c719 4cbc 40fe d838 df8a 3239 ac34 68ba
000002b0: 19e6 3ab9 f357 9139 05ff 5239 1514 543c
000002c0: b699 65bb e1d5 9339 8710 b23a d2d6 1a39
000002d0: 6757 0d3a 17f8 3539 f180 733b 26ab bdbb
000002e0: 255c 573c 9024 c4bb 7e62 53b8 9ec2 99bb
000002f0: 3933 203b 5ecf a039 1e3b 7eb9 1acd 533c
00000300: 62ba 03ba 4c32 4a39 53f0 6db9 1413 043a
00000310: 8052 d93a e49d 523c 8eea 3639 bd05 003b
00000320: e988 15b9 fc3e 483c 54e8 9539 ed00 4f39
00000330: 31f6 4fbc 12a1 0d3c 5641 51bc 9d75 df38
00000340: f999 583c 7a7a e53a 6ea4 17bc 78da cc39
00000350: bcca 02b8 be8a a338 9ec8 e0b9 e876 41bc
00000360: e312 8bb9 6694 f4b9 cc34 55bc 0d86 3239
00000370: 7787 f7b8 7b3a d7b7 5ec5 21bc 9012 3539
00000380: 3a04 333c 8436 573c c901 4f3c d88c 9d3a
00000390: 8c7f 7439 00da 4f3c 66cf e4ba 624b d238
000003a0: 1a95 6139 3d66 ef39 5260 a739 99c9 5539
000003b0: 03f1 573c fe96 4b3c 579d 263b 2c72 9138
000003c0: a1bc 8e38 0a0b a3bb 17be 39ba 6d8a a6b8
000003d0: 2d6b 1cb9 6a8e b839 795b 8339 3574 55bc
000003e0: 9270 f73b f3d2 c2b7 4b2c 3c39 40f7 043c
000003f0: fb88 3abb 2499 e239 5f09 e93a 7af9 b6ba
0.0004700209 -0.00022801706 0.0004465849 -6.684053e-05 -7.522513e-06 0.00042836604 -0.0002943135 -0.00044627336
-9.273325e-05 -9.4593255e-05 0.00011093418 8.152512e-06 0.00057285436 -0.0004465759 -0.0004533316 0.0005331984
0.00044670462 -0.00044600735 -9.7880154e-05 -9.690939e-07 0.00019814385 -0.00011922254 0.0004311943 -0.00036617529
6.557277e-05 6.40921e-05 -9.8287775e-05 0.00044656225 -9.059607e-05 0.00044661947 -9.7786884e-05 0.0004446888
-1.1906882e-05 8.730229e-05 4.377265e-05 0.00023280743 0.00029714327 4.6324505e-05 0.00044667601 -2.8851524e-05
-0.00044612365 -4.907942e-06 -9.150995e-05 -0.0001963114 5.835796e-05 0.000115797484 -8.637631e-05 0.00044626195
0.00036093104 0.00012690836 -0.00017164214 0.00010138442 -0.00015342378 -9.058207e-05 0.00016827439 -0.0005214533
0.00044664898 0.000634749 0.0003981105 0.00049530884 0.000341039 -8.176645e-06 -2.1016436e-07 0.00044657013
-0.00010856475 -0.0001888246 0.00022938382 0.00011059728 0.00038174138 0.00044643666 -0.00010179037 0.00046443488
4.6854802e-05 0.00044642139 -0.00010376507 -7.6381744e-05 -0.00044626597 -0.0003999688 -0.00044602164 -9.559501e-05
0.00044629953 0.00034984786 0.00048504522 0.000107671214 9.613804e-05 -0.0004243292 0.00024757325 -0.0004439017
4.1293024e-05 -0.00010872329 -0.00044615704 -6.32905e-05 0.000104929335 0.00011830309 0.000294601 -6.422997e-05
0.00044060498 0.0004465722 0.00044611804 0.00011697747 -0.00010229645 0.00044635823 -8.206691e-05 2.2304794e-06
0.00010370162 0.00030933664 -3.4793804e-05 -8.191812e-05 0.0004466706 0.00044577502 -0.000359106 -9.489896e-05
-1.4218288e-05 0.0004295213 0.0003869493 0.00025916315 0.00011660937 -0.00018091765 9.9370845e-05 -0.00044645928
-0.00047319048 -6.865423e-05 -9.611653e-05 -1.2201561e-05 0.00015082481 0.000112763475 -1.1411554e-05 0.00013620545
-0.0013295299 -0.0019867497 0.013337951 -2.9232035e-06 0.0001335444 -0.020118821 -0.008674684 -0.013091867
0.0001453379 0.00015945797 0.00014268907 0.00016753239 -0.0017570344 -0.012858651 -0.00016496674 -0.009450777
0.0134205725 -0.013263718 0.00011539717 -0.000115461604 0.0008497392 -0.00089605607 0.0023206826 0.0010614404
-0.00015336522 -0.014545711 0.00011264413 0.013278639 0.00018738222 0.013381827 0.0001570407 0.013079989
5.47818e-05 -0.000110530695 -0.0001185579 0.007642083 -0.00117531 0.015048571 0.01289752 -0.0002588409
-0.012457318 0.000103470404 0.00017027136 -0.00088579464 -0.0001782406 0.00027722082 0.00020122163 0.012944241
-0.0035034246 0.00028197377 0.0013585248 0.00014766611 0.0005391747 0.00017353926 0.0037155712 -0.0057882247
0.013144528 -0.005985804 -5.039805e-05 -0.0046923896 0.0024444594 0.0003067208 -0.0002424535 0.012927318
-0.00050250266 0.00019282958 -0.00022691609 0.0005038243 0.0016580373 0.012855027 0.00017444251 0.001953467
-0.0001426075 0.012222048 0.00028592593 0.00019741403 -0.012692974 0.008644359 -0.012771925 0.00010655376
0.013220304 0.0017507814 -0.009255512 0.00039072684 -3.1183226e-05 7.7982884e-05 -0.0004287408 -0.011808135
-0.00026526218 -0.00046649872 -0.013013076 0.0001702534 -0.0001180311 -2.565723e-05 -0.009873716 0.0001726842
0.010926301 0.013135556 0.012634703 0.0012020124 0.00023317168 0.012686253 -0.0017456829 0.000100276215
0.00021513217 0.00045661806 0.00031924486 0.00020388364 0.01318002 0.012426136 0.0025423372 6.935405e-05
6.8062225e-05 -0.004975681 -0.00070855155 -7.941281e-05 -0.00014917245 0.00035201322 0.0002505442 -0.013028194
0.007551261 -2.3224833e-05 0.00017945578 0.00811559 -0.0028462994 0.00043220178 0.0017779282 -0.0013959848

gru.bias_ih_l0 f4 [384]
00000000: 9ae1 e939 203d 8c3c 6625 2b33 c89d 0636
00000010: 94f4 83b6 5f5e 6c3b 2e5a b339 e851 e932
00000020: c937 93b5 659e 9334 96bd 0db5 4f57 f736
00000030: 1448 123d a7c2 1c31 455d 8c33 c955 1c3e
00000040: b8bd 0d33 4dff 65b3 538b b6b3 825e 0cb6
00000050: 58a4 4b36 26c0 37b6 2b6c 1839 d209 433b
00000060: bf87 1e37 9891 d13b 3c42 8033 b3b5 0233
00000070: 2ace 3934 9555 eb32 e23a beb5 e1eb a232
00000080: 71f3 9e3a f07e ae35 58b4 3c3a 8d27 833a
00000090: ca0e 6cb8 8bce e23b 69b1 3a33 d630 6b36
000000a0: a46c 06b3 69bf 5437 702d ab33 fac2 ddba
000000b0: 336a 1836 e181 8d34 5cf0 db34 2ea2 d4b2
000000c0: 4db2 803b 76e2 0fb7 4487 7439 7c0d 2bb5
000000d0: 77bb 433a 8b15 9c34 d7c2 3aba 5640 523a
000000e0: e96d 8b32 9d79 443d 2b13 3b3b 0be0 f33b
000000f0: e174 c2ba 84d3 3739 ef86 ca39 4926 1430
00000100: e2ef b1b4 5089 8d3a c553 163a e0d1 6db5
00000110: 73cf f234 e01a dbb2 1610 ddb5 1384 113a
00000120: 4a3f 8b36 c82a 76b3 249d e2b4 e295 3736
00000130: b848 92b2 6cce e1b9 3130 5133 8e18 9bb5
00000140: 3cd2 06b3 9ab1 863c 838d 293d 4a13 43b5
00000150: 6157 7a35 aec1 44b7 aa2d 1d38 5576 04b3
00000160: a726 4a35 feee e4b4 9ccf 17b3 f77f 0037
00000170: 4fe0 0637 85d1 fdb5 5455 d13a 6bab f236
00000180: 1017 8eb2 2c6d 9332 d268 79b2 a6c4 c936
00000190: 33b3 d034 2e47 70b2 b327 243d a4d6 4c3b
000001a0: 1c9c 73b4 be64 513d 5260 bb36 854e bf35
000001b0: 17a1 1f33 7f97 5eb3 6a38 46b5 4d2d 77b5
000001c0: 1494 c838 c243 40bb c453 87b9 f397 03ba
000001d0: cc90 f9b4 3d8c 823d 0ef8 a7b4 dfe2 ac32
000001e0: f834 ea3a bd00 87b6 affa 75b5 3633 6aba
000001f0: 0df0 313d 535e 8db4 3cdf 1d3b 9b05 de3a
00000200: 953f ef3c 4825 db3c 15db f8bb 894e 1d3d
00000210: 0e05 e63a 82a4 e2bc 7f51 54bb 7b57 d3bb
00000220: e9c0 133b ce1f 093b 587c 82b8 a598 133a
00000230: 611c 5d3d 5aac e9bb 8054 fabc 5cd3 18bd
00000240: 6647 f5bb efc7 74bc 9e14 ef3a ba76 2c3b
00000250: e221 933d 5948 263d f72c 5e3c e1e3 ebbd
00000260: 56e2 a53b d2ed 793d 8e22 e93a 14e1 eabb
00000270: f3a3 183b 897c e8bb 1feb c03a 8d53 87bc
00000280: c01b 003d 4323 133b 5535 c23d 0ae2 463a
00000290: e9f8 b83d f4b4 003d 820a e3bb 429c 093e
000002a0: bbab debb 978b ed3a eae1 143b 943c f53c
000002b0: 9c62 503b 8535 3039 6d7e 213b 7f1f dabb
000002c0: 24da 49bb f8e0 bd3b 957a 42bd e9cf 953a
000002d0: 35b0 11ba ae3b 173b 3327 2a3d 4c78 95bc
000002e0: 2f3b e0bb 384b 3ebd 7651 223e caf8 b9bc
000002f0: 0505 f13c 81d4 263e 588a 0f3e f4ae e1bb
00000300: 9f72 f7b8 8f4c 77bb 3044 a83c 1611 35b9
00000310: 58ed f33c d4ac ecbb de5a 163b 0c78 573d
00000320: 003f 2e3b 712f f7bb 0821 2e3b 9574 263b
00000330: 3bf3 dfbb 7d06 0f3c d1e9 d6bb 6d83 093b
00000340: 8bdc dbbb 48d8 843c 5aa6 893d f6a7 01b9
00000350: 38c4 c13a 4b0d 19bd f12e ad3c bc5c 2ebc
00000360: a783 443e 53d4 283e a4b4 e2bb 6cb6 1b3b
00000370: 44ae 8b3b dd5d 903b 5995 c83b 68ff 1e3b
00000380: ba94 9fbc 9a9a efbb 306d dfbb 2f31 8f3d
00000390: 8de2 173b 9fb7 e6bb d8c2 62bc f325 183d
000003a0: bd1b 113a 8633 4a3e b9d8 493e b8ea 253b
000003b0: a13e efbb 3498 d3bb 5510 5e3c 232c 083b
000003c0: e314 053a eae8 9d3c 86b7 9f3c eefc 5e3d
000003d0: 0fa9 ce3a 72a3 063d bb73 b33a 7337 e2bb
000003e0: 377c 2b3c 2229 bc3a 47a1 0b3b 2816 033b
000003f0: b925 e73a 53bc c3b8 d259 ac3c 2fec 6cb9
0.0004460931 0.01711899 3.9848054e-08 2.0059397e-06 -3.932577e-06 0.0036066992 0.0003420873 2.7162017e-08
-1.0968589e-06 2.749613e-07 -5.2802477e-07 7.3713377e-06 0.03571327 2.2811635e-09 6.536224e-08 0.152671
3.300167e-08 -5.3550412e-08 -8.5003784e-08 -2.0916636e-06 3.0345018e-06 -2.738097e-06 0.00014536145 0.0029760492
9.44914e-06 0.00639553 5.9725124e-08 3.0433238e-08 1.730447e-07 2.7396519e-08 -1.417324e-06 1.8966547e-08
0.0012126995 1.3000954e-06 0.0007198504 0.0010006294 -5.6280558e-05 0.0069215945 4.3467853e-08 3.5046155e-06
-3.1298114e-08 1.2680751e-05 7.971073e-08 -0.001691907 2.271158e-06 2.6357796e-07 4.0966813e-07 -2.4753799e-08
0.003927505 -8.576191e-06 0.00023320044 -6.3722086e-07 0.0007466594 2.907294e-07 -0.00071243703 0.0008020451
1.6231711e-08 0.047967542 0.002854536 0.0074424795 -0.0014835858 0.00017531036 0.00038628976 5.3896493e-10
-3.3143357e-07 0.0010798369 0.00057345285 -8.859479e-07 4.5226952e-07 -2.5507177e-08 -1.6470465e-06 0.00055509916
4.1498906e-06 -5.7315248e-08 -4.2210115e-07 2.7356368e-06 -1.7029706e-08 -0.0004306914 4.8705434e-08 -1.1555546e-06
-3.1390513e-08 0.016442109 0.04139472 -7.267123e-07 9.325941e-07 -1.1727605e-05 3.7474245e-05 -3.0841267e-08
7.530711e-07 -4.26422e-07 -3.5346247e-08 7.659189e-06 8.039248e-06 -1.8910947e-06 0.0015970864 7.2321177e-06
-1.6541463e-08 1.7162698e-08 -1.4517541e-08 6.0131597e-06 3.8873404e-07 -1.3986023e-08 0.040076923 0.0031255865
-2.2687931e-07 0.051121466 5.5842474e-06 1.4253461e-06 3.7166583e-08 -5.1826188e-08 -7.384284e-07 -9.208059e-07
9.564325e-05 -0.0029337262 -0.00025811617 -0.00050198956 -4.6485218e-07 0.063744046 -3.1286658e-07 2.0126604e-08
0.0017868569 -4.0233995e-06 -9.1634405e-07 -0.00089340226 0.04344182 -2.6331927e-07 0.0024089357 0.0016938926
0.029205123 0.026751176 -0.007594476 0.038404975 0.0017549114 -0.027666334 -0.0032397208 -0.0064496375
0.0022545403 0.0020923498 -6.222044e-05 0.0005630351 0.053982142 -0.0071311416 -0.03055787 -0.037310943
-0.007485318 -0.014940246 0.0018240397 0.0026315884 0.07184197 0.04059634 0.013560525 -0.11518074
0.0050623817 0.06101782 0.0017786787 -0.0071679447 0.002329108 -0.007094924 0.0014718509 -0.016519332
0.031276464 0.0022451438 0.094828285 0.0007586783 0.09031851 0.03142257 -0.006928743 0.13438514
-0.006795374 0.0018123266 0.0022717663 0.029936112 0.0031797057 0.00016804606 0.0024642006 -0.0066565867
-0.0030800188 0.0057946406 -0.047480185 0.001142976 -0.0005557568 0.0023076343 0.04154129 -0.018245839
-0.0068429927 -0.046458453 0.15851387 -0.02270164 0.029421339 0.16292001 0.14017618 -0.006887311
-0.00011799228 -0.0037734841 0.020540327 -0.0001726787 0.02977626 -0.007222751 0.0022942345 0.05260472
0.0026587844 -0.0075434973 0.002656998 0.0025399078 -0.0068344153 0.008729574 -0.006558635 0.0020982877
-0.0067096404 0.016216412 0.06721182 -0.00012364969 0.0014783209 -0.037366193 0.021140547 -0.010642227
0.19190846 0.16487245 -0.0069185067 0.0023759855 0.0042627174 0.0044057206 0.0061213193 0.002426112
-0.019480098 -0.007312131 -0.006818436 0.06991803 0.0023175806 -0.0070409323 -0.0138404 0.037145566
0.00055354444 0.19746217 0.1971158 0.0025316905 -0.007301167 -0.006457353 0.013553699 0.002077826
0.000507666 0.019276101 0.01949669 0.05444043 0.0015766936 0.032870717 0.0013691107 -0.0069035827
0.010466627 0.001435552 0.0021305846 0.002000222 0.0017635144 -9.333403e-05 0.021038923 -0.00022594699

gru.bias_hh_l0 f4 [384]
00000000: 9ae1 e939 f288 883c cf25 2b33 40a0 0636
00000010: 3ffe 83b6 5f5e 6c3b 2e5a b339 b669 e932
00000020: b037 93b5 84a9 9334 53be 0db5 473f f736
00000030: 3219 143d 00d5 1831 0686 8c33 2d5c 273e
00000040: ddbd 0d33 386b 65b3 c51a b6b3 745e 0cb6
00000050: ada4 4b36 8cc0 37b6 2e6c 1839 d209 433b
00000060: c48b 1e37 9891 d13b c06b 8033 d9b8 0233
00000070: 4ee0 3934 7756 eb32 a54e beb5 14c7 a232
00000080: 4ff3 9e3a 0f81 ae35 57b4 3c3a 8927 833a
00000090: a316 6cb8 8bce e23b dfb5 3a33 5930 6b36
000000a0: c6fa 06b3 82d2 5437 64ac ab33 fac2 ddba
000000b0: 306a 1836 9660 8d34 1d40 dc34 a0a2 d4b2
000000c0: 4db2 803b 01d9 0fb7 4687 7439 490d 2bb5
000000d0: 77bb 433a 0d07 9c34 d3c2 3aba 5640 523a
000000e0: 1c63 8b32 1714 473d 2c13 3b3b 13e0 f33b
000000f0: e174 c2ba 84d3 3739 fc86 ca39 4ffd 1330
00000100: 09d7 b1b4 5089 8d3a c553 163a a1c6 6db5
00000110: 62d7 f234 2e23 dbb2 5b21 ddb5 1384 113a
00000120: 5270 8b36 cc2b 76b3 70d2 e2b4 1f99 3736
00000130: 1488 92b2 65ce e1b9 9834 5133 7a18 9bb5
00000140: 5b03 06b3 9ab1 863c 9173 8b3d a10c 43b5
00000150: 627b 7a35 aec1 44b7 a52d 1d38 f7e2 04b3
00000160: c627 4a35 2a89 e4b4 82cc 17b3 2c80 0037
00000170: fbe2 0637 a0c2 fdb5 5455 d13a edaf f236
00000180: c22c 8eb2 166e 9332 678f 79b2 0137 ca36
00000190: 2242 d034 fc21 72b2 8e26 1a3d a9d6 4c3b
000001a0: 7dad 73b4 bd64 513d c35f bb36 eb3f bf35
000001b0: 66dc 1f33 5f7a 5eb3 6a38 46b5 552d 77b5
000001c0: 1494 c838 b243 40bb c453 87b9 eb97 03ba
000001d0: 51db f9b4 3e8c 823d aff2 a7b4 d4e8 ac32
000001e0: f734 ea3a d2fd 86b6 a2fa 75b5 3633 6aba
000001f0: d3ef 313d 4965 8db4 3cdf 1d3b 9b05 de3a
00000200: 93a2 f73c 8925 db3c 15db f8bb 222b 1a3d
00000210: 2805 e63a 1899 cabc 4352 54bb 7b57 d3bb
00000220: b5c0 133b d31f 093b 6c4e 84b8 a598 133a
00000230: 611c 5d3d 5aac e9bb 1b18 f8bc 1c9d 1abd
00000240: 6647 f5bb 5cd1 74bc 9914 ef3a bc76 2c3b
00000250: 340d 3d3d 4cbb 223d f279 293c 25f2 2abd
00000260: 71e2 a53b e896 373d 9d22 e93a 16e1 eabb
00000270: f5a3 183b 897c e8bb 06eb c03a 6b53 7abc
00000280: bc1b 003d 4323 133b 881e 1d3e 03e2 463a
00000290: 7ca2 523d e872 523d 820a e3bb f0e5 483e
000002a0: bbab debb 978b ed3a eae1 143b 603c f53c
000002b0: 9c62 503b a67b 2939 6e7e 213b 7f1f dabb
000002c0: 24da 49bb 560b bf3b 6f11 953c bfcf 953a
000002d0: 35b0 11ba ab3b 173b 5871 293d 0c4d 803c
000002e0: 2f3b e0bb 0d91 3ebd 34b9 163e 7d1d bcbc
000002f0: 84e3 f03c 2993 1e3e 758f 103e f4ae e1bb
00000300: bda6 f8b8 8f4c 77bb 17d1 b93c 8cb6 34b9
00000310: a6a3 0a3d d4ac ecbb ad66 163b 3202 533d
00000320: 053f 2e3b 1930 f7bb 8a61 2e3b 9674 263b
00000330: 3bf3 dfbb f006 0f3c d1e9 d6bb 2a83 093b
00000340: 8bdc dbbb 78f2 843c ac32 953d 765b 01b9
00000350: 38c4 c13a 9722 29bd eb9d 843c 665b 2ebc
00000360: f533 fa3d 0f9c 133e a4b4 e2bb 6db6 1b3b
00000370: 6baa 8b3b e65d 903b 2a95 c83b 69ff 1e3b
00000380: 2b78 75bc 9a9a efbb 306d dfbb 1150 933d
00000390: bcd7 173b 9fb7 e6bb bec2 62bc 1c77 693d
000003a0: dc24 113a 4259 1e3e 6d04 083e b6ea 253b
000003b0: a13e efbb 3498 d3bb 74e8 5d3c 0f2c 083b
000003c0: e714 053a 00e5 d13c 7be2 973c bca3 ab3d
000003d0: 3f53 c93a c22e 413d 7673 b33a 7337 e2bb
000003e0: 357c 2b3c 2229 bc3a 57a1 0b3b da20 1a3b
000003f0: b925 e73a c0f5 c3b8 c762 b23c 34ec 6cb9
0.0004460931 0.016666863 3.9848427e-08 2.0060834e-06 -3.9337024e-06 0.0036066992 0.0003420873 2.7172842e-08
-1.0968561e-06 2.7504223e-07 -5.280355e-07 7.36854e-06 0.03615684 2.2239988e-09 6.543637e-08 0.16343756
3.30018e-08 -5.3415732e-08 -8.479905e-08 -2.0916605e-06 3.0345211e-06 -2.7381202e-06 0.0001453615 0.0029760492
9.450076e-06 0.00639553 5.980064e-08 3.04361e-08 1.7311069e-07 2.739692e-08 -1.4178992e-06 1.8949812e-08
0.0012126955 1.3001571e-06 0.00071985036 0.0010006289 -5.6287867e-05 0.0069215945 4.347191e-08 3.504587e-06
-3.1427383e-08 1.2685197e-05 7.994166e-08 -0.001691907 2.2711574e-06 2.6333572e-07 4.1024842e-07 -2.4754002e-08
0.003927505 -8.573989e-06 0.00023320047 -6.3721797e-07 0.0007466594 2.9062394e-07 -0.0007124368 0.0008020451
1.62268e-08 0.048603144 0.0028545363 0.007442483 -0.0014835858 0.00017531036 0.00038629014 5.383826e-10
-3.3125278e-07 0.0010798369 0.00057345285 -8.8578423e-07 4.5232724e-07 -2.5510953e-08 -1.6475491e-06 0.00055509916
4.1555986e-06 -5.731617e-08 -4.2248894e-07 2.7358253e-06 -1.7058518e-08 -0.0004306912 4.870944e-08 -1.1555524e-06
-3.1202358e-08 0.016442109 0.06809152 -7.266154e-07 9.3311803e-07 -1.1727605e-05 3.7474227e-05 -3.094007e-08
7.530874e-07 -4.256811e-07 -3.5343426e-08 7.659237e-06 8.03987e-06 -1.8906612e-06 0.0015970864 7.2326425e-06
-1.655133e-08 1.7163114e-08 -1.45263135e-08 6.0264724e-06 3.8791137e-07 -1.4093981e-08 0.037634425 0.0031255877
-2.2694253e-07 0.051121462 5.5841824e-06 1.4249212e-06 3.7220524e-08 -5.17997e-08 -7.384284e-07 -9.208064e-07
9.564325e-05 -0.0029337225 -0.00025811617 -0.0005019891 -4.6539438e-07 0.06374405 -3.128275e-07 2.0129313e-08
0.0017868568 -4.02306e-06 -9.163433e-07 -0.00089340226 0.043441605 -2.633699e-07 0.0024089357 0.0016938926
0.030228889 0.026751297 -0.007594476 0.03763879 0.0017549144 -0.024731204 -0.0032397665 -0.0064496375
0.0022545282 0.002092351 -6.308858e-05 0.0005630351 0.053982142 -0.0071311416 -0.030284932 -0.037747487
-0.007485318 -0.014942493 0.0018240392 0.0026315888 0.04615517 0.0397294 0.010344015 -0.041734833
0.0050623943 0.04482165 0.0017786805 -0.0071679456 0.0023291085 -0.007094924 0.001471848 -0.015278677
0.03127645 0.0022451438 0.15343678 0.0007586779 0.05142449 0.051379114 -0.006928743 0.19618964
-0.006795374 0.0018123266 0.0022717663 0.029936016 0.0031797057 0.00016163159 0.0024642008 -0.0066565867
-0.0030800188 0.005830209 0.01819679 0.0011429711 -0.0005557568 0.0023076336 0.04136786 0.015661739
-0.0068429927 -0.04652505 0.14719087 -0.02296328 0.029405363 0.15485825 0.14117225 -0.006887311
-0.00011856619 -0.0037734841 0.02268271 -0.00017234142 0.033847474 -0.007222751 0.0022949383 0.051515765
0.0026587856 -0.0075435755 0.002660843 0.002539908 -0.0068344153 0.008729681 -0.006558635 0.002098272
-0.0067096404 0.0162289 0.072850555 -0.0001233647 0.0014783209 -0.041292753 0.016188582 -0.010641908
0.12216941 0.14415 -0.0069185067 0.0023759857 0.0042622588 0.004405725 0.0061212974 0.0024261123
-0.014982264 -0.007312131 -0.006818436 0.07193006 0.002316936 -0.0070409323 -0.0138403755 0.056998357
0.00055368035 0.15463737 0.13282938 0.00253169 -0.007301167 -0.006457353 0.013544191 0.0020778214
0.0005076662 0.025621891 0.018540611 0.08380839 0.0015359892 0.047163732 0.0013691026 -0.0069035827
0.010466625 0.001435552 0.0021305883 0.0023518116 0.0017635144 -9.344099e-05 0.021775616 -0.00022594706

fc.weight f4 [1, 128]
00000000: 0164 b537 8e48 4f3e fbe6 9dbd 895c 2cbb
00000010: 5348 97be de59 9abc 81d6 15bd c8ed 073d
00000020: e866 c42d 35ff 3d29 5d21 b0bd 2d2d 1ebd
00000030: c1d9 553c 0e56 cf3b 2381 5cbc f190 68bd
00000040: 5c52 d5bd 9f95 0f3c fc72 1538 23da 99be
00000050: c2c4 ab3c 094e 083c a79f 52be 069b 9f3f
00000060: e603 88be 6e92 d6bd 9a0a 7834 97b4 a0bd
00000070: 702b e12f e97e b7bd 9d3d 83be 5ef4 1cbe
00000080: 44fa 9cbd 9dbc e9bd 93c6 f33e 32ff 55bc
00000090: d4c8 c2bd f67e 8c3e 79e8 95bd 04de dbbe
000000a0: c0c1 153d 50fc dbb8 c2ef c833 9b90 b53d
000000b0: 99e0 a0be 770c b631 e06f edb2 bfdd b5bd
000000c0: 3eac b93b c0d1 a5be 7f79 cbbd 3556 d1a8
000000d0: 2c1e 89b8 fe22 f629 7cf2 c33b ad8d ee3e
000000e0: 9932 81bd dd05 bf32 6d55 103e 931d 78be
000000f0: 3b63 abbd ce13 e23e 391d 41be 1796 a7bd
00000100: 287e 88b3 9583 803d 11cb a9bc 24fb dcbe
00000110: 15d8 d1bd 396a a9bd 5052 bdbc 48c4 c63c
00000120: 21d2 43be 50e7 b8bd 05cd 32be fb6e 2f2b
00000130: 45e8 7e3c f254 043d 5ea1 2b3c 24d2 e2ae
00000140: cac1 aebd e209 4dbe c477 13bf 0735 bbbe
00000150: fd64 89be e85d 013d c2bb c43c 4b65 b43c
00000160: 97b1 0bbe a95c 14be f16d 993c 59a9 aabc
00000170: 7ea3 c3b9 10d0 88be 1d84 39b6 2827 d234
00000180: eb48 31be 5798 aabd f7ec bbbd 2347 babd
00000190: 06bb 40be 5f13 a3bd 4378 613e fb50 41ba
000001a0: 16c3 90be ad67 e53e 0b6a ec3e 296e 06a8
000001b0: 9596 8fbd 48e8 9ebd aa0a d53c c12c 1caf
000001c0: c1ab 55be 4a53 6ebe 5e8b c3bd 2443 cc3d
000001d0: c716 6cbd c645 163f ef45 b1be 48c6 fa3c
000001e0: 5bd4 f9bc b659 1bbc 48bc f9ac 9b9c e03c
000001f0: a05b 93bc 22eb d131 1ff8 dc3d bb4a a03c
2.162345e-05 0.20242521 -0.07710072 -0.0026300272 -0.29547366 -0.01884168 -0.03658152 0.03318575
2.232832e-11 4.2187787e-14 -0.086001135 -0.0386173 0.013052405 0.006327397 -0.013458523 -0.056778852
-0.104160994 0.0087637 3.5631456e-05 -0.30049238 0.020967845 0.008319386 -0.20568715 1.2469184
-0.26565474 -0.10477148 2.3100657e-07 -0.07846945 4.0958126e-10 -0.08959753 -0.25632945 -0.15327594
-0.07664922 -0.11412928 0.47612438 -0.013061332 -0.09510961 0.27440614 -0.07319731 -0.42942822
0.036561728 -0.000104897306 9.3568374e-08 0.08865472 -0.31421354 5.2983142e-09 -2.7641306e-08 -0.08880185
0.005666285 -0.3238659 -0.09935283 -2.3241048e-14 -6.538289e-05 1.0930665e-13 0.005979834 0.46592465
-0.06308479 2.2237993e-08 0.14095087 -0.24230032 -0.08368536 0.44155735 -0.18858804 -0.08182924
-6.355941e-08 0.06275097 -0.020726712 -0.43160355 -0.102462925 -0.082722135 -0.023110539 0.024263516
-0.19123127 -0.09028494 -0.17461021 6.2326506e-13 0.015558307 0.032307573 0.010475485 -1.03146186e-10
-0.08533056 -0.20023301 -0.5760462 -0.36563894 -0.2683486 0.031583697 0.024015311 0.022020957
-0.13641964 -0.14488472 0.018729182 -0.020832704 -0.0003731511 -0.2672124 -2.7644048e-06 3.9144038e-07
-0.17312972 -0.08329838 -0.09176057 -0.090955995 -0.18821344 -0.07962679 0.22018532 -0.0007374433
-0.2827384 0.4480566 0.46174654 -7.4623814e-15 -0.07011143 -0.07759148 0.026006062 -1.4204017e-10
-0.208663 -0.2327396 -0.095480666 0.099737436 -0.05763891 0.58700216 -0.34623668 0.030612126
-0.030496767 -0.009481838 -7.097909e-12 0.027418425 -0.017988026 6.109432e-09 0.10789513 0.019566884

layer_norm.weight f4 [128]
00000000: 433b 593c bb65 7c3f 0bd4 2e3f 0055 a23b
00000010: 31e1 bb3e 2114 2a3f 4fac 003f 9041 fe3e
00000020: 9a67 2c2d 97b0 f7a8 96fa 043e 8506 4a3d
00000030: 392e 903e 63ad 543e a96a d03e 3d8e 593f
00000040: 6a54 3c3f cf3c d63e 8146 b5b8 55dd ac3e
00000050: ed2f 0f3f cfd8 b23e 0567 6a3f a764 0840
00000060: 620f bc3e 164c 463f 1ead fd34 0c21 243f
00000070: f457 6eaf 7297 2e3f 408a a63e 4107 523f
00000080: 2fbf 093f fafc 0f3e df5c 963f 0d84 3f3e
00000090: 6f43 d13e 9928 8f3f 7a90 253f 7bdc 8e3f
000000a0: e1ea 043f 90d0 1f3a b0ce 9235 9339 523f
000000b0: 9ee6 c73e cb45 fe32 ae7d a036 18ba 2d3f
000000c0: 8b6e f03e 698e d33e 84d3 433f c683 452b
000000d0: f036 9f3c 6065 7129 1d0e 9e3e 83ff 7c3f
000000e0: d1d4 293f ab54 a9b4 68a8 653f 3880 323f
000000f0: 87e2 153f 012b 983f c111 5a3f 33af 1f3f
00000100: 811d dc35 e500 3b3f 19b1 523e f9af f83e
00000110: 4ada 023f fb57 303f 1009 393d 7bdd aa3e
00000120: e17b 7c3e 3fbf 383f 2824 7c3e 8f27 b3a9
00000130: ed27 cd3e 736a dd3e f17a 083f 4a31 fb2f
00000140: c125 373f 9500 6a3f 5355 b73f 00c2 df3e
00000150: 6bbe a43e b105 bb3d d233 c53e 9c11 ef3e
00000160: d72d 5e3f c486 623f 3fd0 a43e 3413 bf3c
00000170: 67b1 ed3a 15b8 fa3e 96d2 14b8 f22a a738
00000180: 85b0 4d3f 9031 313f 73eb 313f 1dab 2d3f
00000190: 10d2 7c3e c500 303f 3973 243f 229b e53e
000001a0: a782 b43e 30ff 983f 9961 923f 4cad e027
000001b0: 7f7b 243f b27b 253f 31e4 0d3f f3c0 da2f
000001c0: a29d 933e cd82 7d3f 1df0 143f 64a8 233f
000001d0: 4d4d ad3d f8ec a03f 699e ce3e 1f91 e23e
000001e0: 92c6 a43e 1eed 803e 479c da2d 177b b73e
000001f0: 8bd3 3e3e 8b6c 52b1 81b2 5d3f 2efb 113e
0.013258758 0.9859273 0.682923 0.0049539804 0.36695245 0.66436964 0.5026292 0.49659395
9.800072e-12 -2.7499092e-14 0.12986216 0.049322624 0.28160265 0.20769267 0.40706375 0.84982663
0.73566306 0.41843268 -8.643885e-05 0.33762613 0.55932504 0.34931037 0.91563445 2.1311433
0.36730486 0.7745985 4.7250882e-07 0.64112926 -2.1677221e-10 0.6819984 0.3252735 0.8204232
0.5380735 0.14061347 1.1747092 0.18702717 0.4087176 1.1184264 0.6467358 1.1161035
0.51920897 0.0006096447 1.0938002e-06 0.821191 0.39043134 2.960123e-08 4.7830026e-06 0.6786208
0.46959338 0.41319588 0.7649462 7.017133e-13 0.019435376 5.360068e-14 0.30870143 0.9882738
0.6634036 -3.1540307e-07 0.8971009 0.69726896 0.5854878 1.1888124 0.8518334 0.6237671
1.6399864e-06 0.7304824 0.2057537 0.48571756 0.5111433 0.6888425 0.04517466 0.333721
0.24656631 0.7216682 0.24623168 -7.956059e-14 0.40069523 0.43245277 0.53312594 4.5691656e-10
0.7154198 0.9140714 1.4322914 0.43702698 0.32176527 0.09131945 0.38516098 0.46693122
0.86788696 0.88486886 0.3219013 0.023324586 0.0018134535 0.48968568 -3.5482073e-05 7.97118e-05
0.8034747 0.6921625 0.6949989 0.67839223 0.24689507 0.68751174 0.64238316 0.4484492
0.3525593 1.1952877 1.1436034 6.236038e-15 0.6425094 0.6464187 0.5542632 3.9791068e-10
0.28831202 0.9902771 0.58178884 0.6392882 0.084620096 1.2572317 0.40355232 0.44251344
0.32182747 0.25180906 2.4853132e-11 0.35836098 0.18635385 -3.0620722e-09 0.866005 0.14255974

layer_norm.bias f4 [128]
00000000: 5b78 873c 6b40 66bb 1a41 f2bd 21c2 2c3b
00000010: c448 313d c542 f03c aaf7 2d3d 6b82 6a3d
00000020: 2763 b32c 4d63 93a9 ad13 a33c 9764 c23c
00000030: 6880 8dbd 932c 6e3d f21f 2a3d b874 0e3d
00000040: f610 a0bd a26c 873d 0646 81b9 df07 933d
00000050: eff2 09be 8b77 9c3c 2697 aabd 6dc5 3ebf
00000060: 3e9a 8b3c 5f59 0a3e fcbb 87b4 6148 8cbd
00000070: 3f90 f02e aa6a 95bd 7817 0f3d 5d4b 07be
00000080: 5303 01bc a69b 163d d946 0ebf 165b 41bc
00000090: 66dd 14bd d4ea 83be 43d6 9fbd be3a 093f
000000a0: 5413 503d b523 2239 5210 d034 8efc d1bc
000000b0: 41c6 1d3d ad27 5831 acd4 4b35 1343 85bd
000000c0: b244 ccbc 7b38 e23c 7422 353e df5e 142a
000000d0: 77fb aebc 0c0e f32a b3f8 6c3b 3eec deba
000000e0: 59f1 f5bd 7d71 d233 417d fcbd d2be 83bc
000000f0: 611b 163b 408b 0abf 9097 733e 68a4 81bd
00000100: da8f 50b3 870b 69bb 3f3b cfbc df76 923d
00000110: 779b eebc 83f3 b5bd ce4d d63b 28f3 3fbd
00000120: 5175 1e3d ec20 cbbd 0a96 993c 8faf 132c
00000130: 34dc 6c3d daa6 813c 1625 b43d cae9 b5ae
00000140: d7e0 a2bd 898d ad3d 639e e43e cb0e 653d
00000150: 7902 133d 9046 8d3c 3845 21bc 3499 7f3d
00000160: 90d9 743e 9260 853e 4e32 4e3d be33 f0bc
00000170: 3df4 073a 3dfb 3a3d d7e9 1d38 9d51 5837
00000180: 6553 bdbd f7f1 9ebd 681e a5bd 0dbd 38bd
00000190: 6eb7 3a3d 02ed b7bd 0328 a3bd d4dd 8b3b
000001a0: 8095 4e3d 03fb 0abf bfc0 14bf 219a 4228
000001b0: 0148 b9bd 3f68 94bd cda2 853d d5aa 2f2c
000001c0: 288e 6f3d 5cbd d1bd bb41 033e 0be7 0ebe
000001d0: d44a 543c f3af 19bf b28e 703d 82b0 4d3d
000001e0: 409d e537 6367 913c 4b64 fdac 678d e13c
000001f0: 68ec 4c3c 729e 9531 4689 1dbd 78b7 54ba
0.016536882 -0.003513361 -0.118288234 0.0026360827 0.043282285 0.029328713 0.04247252 0.057253283
5.098494e-12 -6.545337e-14 0.019906843 0.023729606 -0.06909257 0.058147978 0.04153437 0.03477928
-0.07815735 0.06612517 -0.0002465697 0.07179236 -0.13471578 0.019099971 -0.083296105 -0.7452
0.017041322 0.13510655 -2.5282486e-07 -0.06849743 1.093956e-10 -0.07295735 0.03493449 -0.13212343
-0.007874328 0.03676953 -0.55576855 -0.011801502 -0.036343955 -0.25765097 -0.07804539 0.5360526
0.050799683 0.00015462826 3.8754894e-07 -0.025633123 0.038519148 3.145469e-09 7.593287e-07 -0.06506934
-0.0249351 0.027614823 0.17688924 1.3177956e-13 -0.021360142 4.3175218e-13 0.0036158978 -0.0017007662
-0.12008924 9.7995304e-08 -0.12328578 -0.016082201 0.0022904503 -0.5411873 0.23788285 -0.06330186
-4.8559606e-08 -0.003555985 -0.025296805 0.07151579 -0.029126866 -0.08884337 0.0065400368 -0.04686275
0.0386861 -0.09918389 0.018748302 2.098741e-12 0.05782719 0.015826631 0.08796136 -8.272456e-11
-0.07953041 0.08474261 0.4465209 0.05592231 0.03589103 0.01724556 -0.009843163 0.062401965
0.23911119 0.2605024 0.050340943 -0.029321548 0.00051862356 0.045649756 3.7649497e-05 1.2893605e-05
-0.09244422 -0.07760995 -0.0806244 -0.045102168 0.04558509 -0.089807525 -0.07966616 0.0042683873
0.050435543 -0.54289263 -0.5810661 1.0802585e-14 -0.09046937 -0.07246446 0.065251924 2.4963827e-12
0.05848518 -0.102411956 0.12818043 -0.13955323 0.012957294 -0.600341 0.058729835 0.05021716
2.7372153e-05 0.017749494 -7.2018272e-12 0.027533246 0.0125075355 4.354484e-09 -0.038460992 -0.0008114497
