results/question3_tickets/LSTMmodel_q3.pth (torch, 274680 bytes, 7 tensors)

lstm.weight_ih_l0 f4 [512, 2]
-0.014236003 -0.06255152 0.03474962 0.092089094 0.0085182795 0.020201337 0.0028062705 0.026798004
-0.50021714 -0.010611192 -0.0019514706 -0.029323487 0.21817635 -0.001458389 -0.0119008925 -0.011119354
-0.014480839 0.0007783931 0.03985482 0.03306071 -0.13914748 0.0015098796 0.4556784 -0.0054726377
0.02850499 0.10665285 -0.07480279 -0.048665516 -0.009234483 -0.038114037 0.017705569 0.08331314
-0.008451511 -0.041692354 0.014311922 0.076360434 -0.04850668 0.033940304 0.027544973 0.068534955
0.023537233 0.09443912 -0.05949132 0.0040307157 -0.66940963 0.0022865075 -0.26497492 0.004535575
-0.1902782 -0.0120221665 -0.0076280255 -0.06841825 -0.43411565 0.0061697764 -0.20706032 -0.031217217
0.027314095 0.08008704 -0.12916271 0.026385888 0.015034211 0.07268095 0.011797976 -0.06852645
0.17001362 -0.003157318 0.035641328 0.084868394 0.002956263 0.033174 0.14069311 0.020171124
-0.51791406 -0.006835241 -0.31790802 -0.022628732 -0.9704748 -0.0001774106 -0.111613974 0.006388161
-0.100144334 0.07211844 0.01648611 0.07973111 -0.0021056854 -0.027275082 -0.90241283 0.0010272013
-0.009984721 0.059714045 -0.26242325 0.0085050315 -0.41171178 -0.0064100274 -0.43749785 0.015831942
0.010101339 0.059663944 -0.28602597 0.012912989 0.0009717216 -0.050239656 -0.011444192 -0.07845497
0.014170673 0.11247931 0.4202255 -0.0037775487 -0.010974578 -0.06591188 -0.98448205 -0.00079544034
0.046006948 0.10623496 0.00038127782 -0.04038154 -0.112299785 -0.03223632 -0.32420078 0.011221825
0.011866006 0.06887057 0.8199022 -0.015379664 0.0048376224 0.06778404 0.024582038 0.05549986
0.0114897825 0.080531575 0.040344257 0.09557166 0.021110732 0.08971355 -0.005058586 0.0047532334
0.06058364 0.087923065 -0.005848113 0.045340072 -0.17055371 0.006941953 0.008258059 -0.034689896
-0.035197802 -0.03804947 0.00035807278 -0.019579623 -0.096344456 -0.035884187 0.037169635 0.020836433
0.040234275 0.067711204 -0.1422728 0.01843933 -0.5883184 0.004434331 0.039983463 0.09819069
0.042601053 0.10134028 0.030218408 0.1057922 0.014870344 0.058170263 -0.0065214313 -0.03667031
-0.00065345044 -0.03217207 0.0144417845 0.07120364 -0.25356835 -0.00977129 -0.004170911 0.0049651763
-0.0006260838 -0.032483842 -0.0050838715 -0.040042818 -0.055406425 0.013126233 0.038616184 0.096232876
-0.011330614 -0.043069426 -0.21872172 0.020673297 -0.880008 0.001731174 0.017872978 0.06300436
-5.5697874e-05 -0.030309826 0.017765773 0.08410747 -0.010649905 -0.044927027 -0.0031106942 0.008223869
-0.6762234 0.0034646646 -0.19697705 0.029348552 0.0022051982 0.057627622 0.25421154 0.0005077717
0.1409789 0.0555574 -0.0030283928 0.051750414 -0.01407457 -0.017692246 0.025067145 0.08725509
0.01947651 0.09208987 -0.008149578 -0.042733476 0.04194472 0.109373346 -0.26217148 -0.013218782
-0.24876173 -0.0194319 0.018661682 -0.041907202 -0.0072888634 -0.051065914 -0.26894963 0.0147375995
0.0002851134 0.0030286887 -0.03278004 0.07908127 0.36987332 0.008781617 -0.012040854 -0.043919664
0.021557359 -0.028228223 0.39458406 -0.003175838 -0.00086055294 -0.022150526 0.0852026 0.067354694
-0.00050534453 -0.034843154 0.07628587 0.023152346 -0.0024301154 -0.041500255 0.007992806 -0.073696084
00000000: 203e 69bc 031b 80bd 9e55 0e3d 3599 bc3d
00000010: 4190 0b3c 467d a53c 68e9 373b 7d87 db3c
00000020: 3b0e 00bf 91da 2dbc 7dc8 ffba cf37 f0bc
00000030: 9f69 5f3e 6a27 bfba f6fb 42bc f32d 36bc
00000040: 0a41 6dbc 140d 4c3a cf3e 233d ab6a 073d
00000050: ad7c 0ebe 27e7 c53a ae4e e93e d053 b3bb
00000060: 4c83 e93c cf6c da3d 3532 99bd 7e55 47bd
00000070: 3b4c 17bc 771d 1cbd 450b 913c 14a0 aa3d
00000080: 3578 0abc 9ac5 2abd 8d7c 6a3c dc62 9c3d
00000090: f1ae 46bd fd04 0b3d ffa5 e13c 0e5c 8c3d
000000a0: 28d1 c03c 4c69 c13d 2cad 73bd 1814 843b
000000b0: 6e5e 2bbf 3bd9 153b cbaa 87be 299f 943b
000000c0: 4ad8 42be 9ff8 44bc 84f4 f9bb de1e 8cbd
000000d0: 6844 debe d62b ca3b 9f07 54be 40bb ffbc
000000e0: cfc1 df3c ad04 a43d 3b43 04be 3827 d83c
000000f0: 0d52 763c c0d9 943d 4c4c 413c 9857 8cbd
00000100: 0d18 2e3e 02eb 4ebb a4fc 113d 7bcf ad3d
00000110: ddbd 413b 76e1 073d db11 103e ea3d a53c
00000120: 0496 04bf 28fa dfbb d7c4 a2be e45f b9bc
00000130: 0971 78bf 4c07 3ab9 de95 e4bd c753 d13b
00000140: 7918 cdbd d5b2 933d e10d 873c 104a a33d
00000150: 8aff 09bb fe6f dfbc 8704 67bf 28a3 863a
00000160: f596 23bc b796 743d 575c 86be b058 0b3c
00000170: e3cb d2be 350b d2bb b8ff dfbe fdb1 813c
00000180: 1680 253c 2e62 743d ff71 92be 0091 533c
00000190: 22bb 7e3a 19c8 4dbd 6c80 3bbc 00ad a0bd
000001a0: 1c2c 683c 8d5b e63d cc27 d73e c090 77bb
000001b0: b7ce 33bc cffc 86bd 0407 7cbf 1985 50ba
000001c0: c871 3c3d b791 d93d 3ee6 c739 1d67 25bd
000001d0: 6efd e5bd 3b0a 04bd a5fd a5be bfdb 373c
000001e0: a369 423c 030c 8d3d 1ce5 513f fcfa 7bbc
000001f0: eb84 9e3b 5cd2 8a3d 4560 c93c d253 633d
00000200: a43f 3c3c bded a43d 0540 253d 13bb c33d
00000210: 6af0 ac3c bdbb b73d 7fc2 a5bb 03c1 9b3b
00000220: 8d26 783d 0211 b43d 87a1 bfbb 83b6 393d
00000230: a2a5 2ebe 5379 e33b cf4c 073c fe16 0ebd
00000240: 922b 10bd c3d9 1bbd b7bb bb39 7265 a0bc
00000250: 3e50 c5bd 4cfb 12bd 303f 183d 2bb1 aa3c
00000260: b2cc 243d 2cac 8a3d f6af 11be 140e 973c
00000270: 099c 16bf dd4d 913b b3c5 233d 3318 c93d
00000280: 717e 2e3d 7e8b cf3d 988c f73c 95a9 d83d
00000290: bea2 733c f143 6e3d bbb1 d5bb 9b33 16bd
000002a0: 514c 2bba dcc6 03bd 3c9d 6c3c 37d3 913d
000002b0: b6d3 81be c317 20bc 23ac 88bb ebb2 a23b
000002c0: c61f 24ba c70d 05bd 9b96 a6bb f003 24bd
000002d0: d9f1 62bd 690f 573c 012c 1e3d be15 c53d
000002e0: 0aa4 39bc 9169 30bd 96f8 5fbe 0c5b a93c
000002f0: 3448 61bf 8fe8 e23a 5a6a 923c 6e08 813d
00000300: 239d 69b8 504c f8bc 8789 913c 8a40 ac3d
00000310: f07c 2ebc 6705 38bd cadc 4bbb 68bd 063c
00000320: fa1c 2dbf 6d0f 633b 5ab4 49be 606c f03c
00000330: 1685 103b f10a 6c3d 0428 823e fb1b 053a
00000340: c65c 103e 2890 633d 0078 46bb 3ef8 533d
00000350: 0699 66bc 54ef 90bc 9d59 cd3c ccb2 b23d
00000360: 348d 9f3c 9d99 bc3d cf85 05bc 4c09 2fbd
00000370: 3ace 2b3d 22ff df3d 573b 86be 9793 58bc
00000380: 65bb 7ebe a62f 9fbc 62e0 983c e3a6 2bbd
00000390: 6bd7 eebb 7e2a 51bd c4b3 89be f975 713c
000003a0: 467b 9539 f77c 463b 5d44 06bd 5cf5 a13d
000003b0: 0960 bd3e c5e0 0f3c 0147 45bc 1be5 33bd
000003c0: 0f99 b03c e03e e7bc ec06 ca3e b821 50bb
000003d0: bb96 61ba 0575 b5bc b37e ae3d 42f1 893d
000003e0: 1979 04ba b2b7 0ebd c43b 9c3d fda9 bd3c
000003f0: 9242 1fbb 2cfc 29bd 42f4 023c f9ed 96bd

lstm.weight_hh_l0 f4 [512, 128]
-0.00017594529 -0.00047630625 0.0007658819 0.00029525236 -0.00060207344 -8.188095e-06 0.00056241517 4.0354917e-06
-0.00026526 0.0012945394 1.0113255e-05 0.0009748239 0.00034233037 3.677736e-05 -0.000118841446 -0.00031147696
7.2380853e-06 -0.00033583955 0.00018546745 -0.00032153097 7.3294555e-05 0.0009970219 0.00064566964 0.00031717386
0.00035597224 5.1086692e-05 -0.0007972058 -0.00036875412 -0.00028553157 0.0007076007 -0.00048109263 -0.00018843776
0.00016240157 -0.00013970655 0.0003987509 -0.00022752913 -0.0004927443 0.00041964994 5.9459057e-05 -0.0011063421
-0.001308874 0.000597075 4.5332076e-06 0.000112150985 0.000248852 0.00037953758 -0.0005811058 -4.658849e-06
-0.0004382033 0.00057506125 5.1408973e-05 -3.7708833e-05 0.00056236004 -3.6504676e-05 -0.00013501495 -2.8693057e-05
-0.0014946955 4.9150076e-05 0.0002024164 0.00021161222 -0.0005558885 -0.0013730318 0.0014640422 0.0013911747
0.00019469761 -0.0014917117 0.00018067102 -8.6617714e-05 -0.0014965816 -0.0006983755 0.0006908658 -0.00014382922
3.3984095e-05 5.1167954e-06 -7.0822374e-05 -0.00049391907 1.3411168e-05 -0.00075497513 -0.00058849383 0.0014651683
0.0014870167 0.0006100923 -0.0001497333 7.448292e-05 -1.4340653e-05 0.00060921785 -0.00062542944 8.455396e-05
-3.0824416e-05 -6.051038e-05 0.00052688515 0.0012635773 -2.4428184e-05 0.00039258337 0.0001598325 -0.00018818327
-3.0764517e-05 -0.00030359378 -1.8539122e-05 1.58602e-05 0.00060946686 0.0007958646 0.00036301135 2.2020881e-06
-0.00036064922 0.00061550725 0.0006638154 0.00024377319 -0.0002676597 2.7352633e-06 0.0012817312 3.206389e-05
0.00014725226 0.0004950417 -4.956987e-05 -0.00022847293 0.0001260971 -0.0011109676 -9.980908e-06 -6.2498635e-05
-0.00043013535 -0.0002707385 1.7926624e-05 0.0014938852 -5.1614747e-06 -0.001459295 7.396315e-06 -9.269604e-05
-1.5000037e-05 9.611805e-06 -3.458574e-05 1.923109e-05 -1.3763839e-05 1.3089861e-07 -0.00016989362 -1.485178e-06
-0.00011836159 -0.0003598272 -1.1023561e-06 -0.0003253922 -1.4293242e-05 4.247806e-06 1.5474934e-05 -6.207134e-06
-2.1798878e-06 -3.954353e-06 -2.9872754e-05 -3.756489e-06 1.6119948e-05 -0.00018069327 6.3395655e-06 2.426952e-06
9.533956e-06 1.4277132e-05 -1.1754163e-05 4.369777e-06 8.594073e-05 -7.36942e-05 -1.9351928e-05 -4.9246896e-06
-3.470004e-05 -0.00027710779 -1.9987681e-05 -1.0449432e-05 -1.4853554e-05 1.4302023e-05 -2.5169633e-09 0.00015803802
0.00026309284 4.6263276e-06 9.437379e-06 1.1057067e-08 2.1384892e-06 -2.4994497e-05 -3.8053165e-06 -4.0654613e-06
3.8239614e-06 2.1423142e-07 1.1102886e-05 -5.994006e-06 -4.8729777e-05 -0.0004669962 2.7660903e-06 3.459741e-07
0.0005148302 8.063347e-06 -6.2535314e-06 -2.0749643e-05 -5.307448e-06 0.0005101722 -0.00039621542 -0.00033187028
-2.6311175e-06 0.0004662921 1.762755e-05 3.2705693e-06 0.00050418556 0.0002573021 -9.13051e-06 -6.969711e-08
1.2129873e-06 -1.7372247e-06 2.0344545e-05 0.00012235626 5.141403e-06 -8.936655e-06 -9.920355e-06 -0.0004507608
-0.00043445313 -1.0406722e-05 9.224541e-06 -4.3539803e-06 -4.67568e-07 5.8774976e-06 4.085527e-06 -7.605051e-06
2.3868674e-06 -2.083855e-06 -7.2809466e-06 -0.00047893924 -5.9058257e-06 -1.5789245e-05 3.6496192e-07 1.2849607e-05
-4.9620044e-06 -8.370726e-06 -4.572944e-06 -1.2922295e-05 6.683136e-06 1.8110495e-05 1.8521458e-06 -1.2408726e-05
-0.00047143348 -0.00018147987 -0.00019831448 3.5018702e-06 -9.219614e-06 -1.9128468e-06 -0.00050905783 5.0942795e-06
8.612287e-06 -0.00016639927 -7.011226e-06 -9.912114e-06 1.254238e-05 -0.00030433648 -0.00013449871 -1.3559811e-05
5.6898058e-05 5.8855912e-05 -2.9568432e-06 -0.0005044555 -1.1736024e-06 0.000400451 2.491363e-06 -6.849863e-06
00000000: f47d 38b9 beb8 f9b9 77c5 483a 1acc 9a39
00000010: 77d4 1dba 9a5f 09b7 0b6f 133a 9c68 8736
00000020: 9812 8bb9 89ad a93a 19ac 2937 538b 7f3a
00000030: ce7a b339 6441 1a38 843a f9b8 bb4d a3b9
00000040: aede f236 9f13 b0b9 0a7a 4239 2893 a8b9
00000050: b7b5 9938 81ae 823a 2842 293a 5b4a a639
00000060: c9a1 ba39 eb45 5638 93fb 50ba 5755 c1b9
00000070: 66b3 95b9 477e 393a 293b fcb9 6097 45b9
00000080: 574a 2a39 317e 12b9 710f d139 e394 6eb9
00000090: 832b 01ba 7604 dc39 ad63 7938 ae02 91ba
000000a0: 868e abba 0685 1c3a f51b 9836 9a32 eb38
000000b0: 5a78 8239 acfc c639 5a55 18ba 3553 9cb6
000000c0: a7be e5b9 b5bf 163a f79f 5738 8d29 1eb8
000000d0: 586b 133a 991c 19b8 cd92 0db9 dfb1 f0b7
000000e0: a9e9 c3ba 7e26 4e38 bd3f 5439 39e4 5d39
000000f0: 0cb9 11ba 4df7 b3ba 1be5 bf3a 1458 b63a
00000100: be27 4c39 8a85 c3ba 8272 3d39 88a6 b5b8
00000110: f228 c4ba 3013 37ba 381b 353a ddd0 16b9
00000120: 258a 0e38 f0b0 ab36 7986 94b8 597a 01ba
00000130: 8700 6137 86e9 45ba 2745 1aba e40a c03a
00000140: 00e8 c23a 9aee 1f3a ba01 1db9 b733 9c38
00000150: a398 70b7 ebb3 1f3a dcf3 23ba 9052 b138
00000160: 7749 01b8 87cc 7db8 aa1e 0a3a 9e9e a53a
00000170: 20eb ccb7 a6d3 cd39 b698 2739 1053 45b9
00000180: 2609 01b8 ab2b 9fb9 7684 9bb7 850b 8537
00000190: a1c4 1f3a 92a1 503a 8f52 be39 96c7 1336
000001a0: 8515 bdb9 fe59 213a e603 2e3a 5e9d 7f39
000001b0: ad54 8cb9 778f 3736 c3ff a73a 577c 0638
000001c0: ba67 1a39 b0c5 013a 3ee9 4fb8 3c92 6fb9
000001d0: ef38 0439 e39d 91ba ac73 27b7 b311 83b8
000001e0: ca83 e1b9 e8f1 8db9 2261 9637 78ce c33a
000001f0: bb30 adb6 d145 bfba dd2d f836 cf65 c2b8
00000200: aba8 7bb7 6342 2137 2810 11b8 7452 a137
00000210: 3deb 66b7 238d 0c34 7925 32b9 5456 c7b5
00000220: e538 f8b8 30a7 bcb9 abf4 93b5 6799 aab9
00000230: 02cd 6fb7 6088 8e36 2bd0 8137 e046 d0b6
00000240: 304a 12b6 a2af 84b6 4097 fab7 fd17 7cb6
00000250: 5339 8737 7b78 3db9 74b8 d436 b8de 2236
00000260: 07f4 1f37 d187 6f37 bf33 45b7 19a0 9236
00000270: 143b b438 468c 9ab8 f355 a2b7 c33e a5b6
00000280: e28a 11b8 c748 91b9 38ab a7b7 f84f 2fb7
00000290: 8733 79b7 b9f2 6f37 e3f6 2cb1 02b7 2539
000002a0: b9ef 8939 da3b 9b36 3c55 1e37 7ff5 3d32
000002b0: f782 0f36 46ab d1b7 d75e 7fb6 0c6a 88b6
000002c0: 944f 8036 7c07 6634 8846 3a37 1f20 c9b6
000002d0: 3363 4cb8 2bd7 f4b9 12a1 3936 51be b934
000002e0: abf5 063a d047 0737 6dd5 d1b6 850f aeb7
000002f0: a216 b2b6 14bd 053a 22bb cfb9 e0fe adb9
00000300: 4192 30b6 ab78 f439 e0de 9337 f47b 5b36
00000310: 522b 043a 81e6 8639 3e2f 19b7 64ac 95b3
00000320: edcd a235 962a e9b5 94a9 aa37 c24c 0039
00000330: 5184 ac36 a4ee 15b7 9a6f 26b7 1754 ecb9
00000340: 50c7 e3b9 8898 2eb7 1ac3 1a37 6818 92b6
00000350: 0e06 fbb4 5237 c536 6916 8936 e42e ffb6
00000360: 122e 2036 5bd8 0bb6 db4e f4b6 231a fbb9
00000370: a82a c6b6 2573 84b7 fcef c334 a494 5737
00000380: 4b7f a6b6 ff6f 0cb7 4a71 99b6 d6cc 58b7
00000390: b33f e036 feeb 9737 3f97 f835 132f 50b7
000003a0: bb2a f7b9 a24b 3eb9 a3f2 4fb9 ac01 6b36
000003b0: f1ad 1ab7 755e 00b6 4b72 05ba 87ef aa36
000003c0: 7e7d 1037 777b 2eb9 f941 ebb6 354c 26b7
000003d0: 1d6d 5237 5a8f 9fb9 3908 0db9 f27e 63b7
000003e0: d3a5 6e38 0edc 7638 2e6e 46b6 6f3d 04ba
000003f0: ac84 9db5 a0f3 d139 4a31 2736 e0d7 e5b6

lstm.bias_ih_l0 f4 [512]
-0.005907477 0.002626141 -0.029264912 -0.0011893008 0.057250675 -0.0006388274 -0.048340153 -0.0003350047
0.0018475446 -0.0068067806 -0.002252597 0.13844118 0.002427719 -0.0031277249 -0.002602365 0.0022362734
-0.0009930994 0.0022312107 -0.01117028 -0.0007963862 0.002846 -0.025437322 -0.029472088 -0.07718343
-0.016642489 -0.005840718 0.015253281 -0.013001538 0.0002610062 0.01757739 0.0006566489 -0.0015454773
0.019587133 -6.677173e-05 0.00030304375 -0.019523209 0.063972235 -0.065111674 -0.262588 0.019907802
-0.021321675 0.002232534 -0.0010311507 -0.20949838 -0.0040940214 -0.111111075 0.00908278 -0.123267606
0.0019384795 -0.08589717 0.0076931603 -0.005901461 0.0030073589 0.14509882 0.000468905 -0.12141047
0.0022052722 2.9793655e-05 -0.009832136 -0.22488505 0.002096415 -0.007034125 0.008300243 -0.0043190094
0.0058574225 0.001218263 0.002183887 -0.0017030599 0.0037386368 -0.015101026 -0.019564444 0.01116393
-0.0003513583 -0.00021161704 -0.05245691 -0.018092614 0.00513619 -0.10541251 -0.011194938 0.0017162684
0.002090554 0.002061319 -0.00036922545 8.349369e-05 0.00010421716 0.0023252235 0.031881902 -0.0014031822
-0.00035289236 8.169049e-05 -0.0027467958 0.0015387664 -0.001858398 -0.098614745 -0.1352418 -0.0008306845
-0.000788772 0.002469628 -0.0017016311 -0.0013888511 0.009041237 0.0018806547 -0.0005795531 -0.035170376
0.027294902 -0.012519237 0.13012072 0.0011467462 0.0023581118 -0.0010073656 0.0024128729 -0.086353235
-0.060801886 0.056627344 0.0001966463 -0.15565214 0.005513003 0.009047267 -0.048731543 -0.0026726488
0.030293847 -0.13194817 0.00010939121 0.006299308 1.9033543e-05 0.022244077 -0.0015206729 -0.0025135246
-0.00021524722 0.001196633 0.018575236 0.00023393848 0.0009293825 -0.00018601467 -0.03609284 0.0001071091
-0.00027080183 -0.017465893 -0.0027252382 -0.0033787766 0.0017794648 -0.00090193254 -2.6807942e-05 0.0017008947
0.00020747296 0.0017040111 -0.0045205886 -0.0011539878 0.002006503 0.0024769572 -0.012292573 0.0021991634
-0.00045445352 -0.0020135934 -0.009248923 0.0029104946 -0.0002514374 -0.0074477424 0.0028432123 0.00048555416
-0.007729126 0.00017070449 0.00012551637 -0.00056592096 0.0015541803 0.007029394 -9.4391115e-05 -0.038234238
-0.020224866 0.0016226621 -0.0014663978 0.0031257328 -0.002461187 -0.032727044 -0.0062343283 0.02099098
0.0010820248 0.003211148 -0.0015603758 -0.0008540932 3.3638724e-05 0.060058173 -0.002158092 -0.006286742
0.0008915807 1.2304626e-05 0.0017930433 0.12203167 0.0015880975 0.12698339 0.0001601491 -0.0056351144
0.0057705487 0.00048764606 0.0017110626 -0.00027169575 0.0011184245 -0.0032119623 0.0010903717 0.000587589
-4.7459383e-05 -1.7791166e-05 -0.011918735 -0.006604252 0.0015185846 -0.0045014652 0.0022063672 0.00063612853
0.0025222227 0.0013547657 -5.6461067e-05 8.213747e-05 3.5553996e-05 0.0016265229 -0.016222883 -0.00026243422
-0.00031677002 1.9456345e-05 -0.0017289727 -0.004372497 0.00035628787 0.0011153604 -0.0064389696 -0.0005169643
-0.00093690533 0.0018587462 0.00030791588 -0.00034556616 0.0039961 -0.010702514 -0.0017448788 -0.0031102176
-0.025937054 -0.0014155395 -0.007761158 0.0009059463 0.0053458214 0.0001897479 -0.004708787 0.00356508
0.0020029081 0.0020013158 -1.199088e-05 0.0044973553 -0.0001375385 -0.0042402484 -0.012293423 -0.0011625807
0.0024852196 -0.029850094 -6.265243e-05 0.0008858012 3.1594092e-05 0.0017574654 -0.00064336107 0.000575981
00000000: 8293 c1bb 561b 2c3b f8bc efbc 50e2 9bba
00000010: af7f 6a3d fb76 27ba 5300 46bd 92a3 afb9
00000020: 4f29 f23a 6a0b dfbb 4ea0 13bb 86c3 0d3e
00000030: 5e1a 1f3b 84fa 4cbb 718c 2abb 718e 123b
00000040: e32a 82ba 8139 123b 8d03 37bc 93c4 50ba
00000050: f583 3a3b ee61 d0bc 736f f1bc 5912 9ebd
00000060: d455 88bc 7e63 bfbb e6e8 793c 6704 55bc
00000070: a9d7 8839 75fe 8f3c f622 2c3a 9d91 caba
00000080: 3275 a03c cd07 8cb8 d8e1 9e39 23ef 9fbc
00000090: e003 833d 4559 85bd ef71 86be b015 a33c
000000a0: cbaa aebc b54f 123b ad27 87ba be86 56be
000000b0: 2427 86bb 348e e3bd f1cf 143c ba73 fcbd
000000c0: 9414 fe3a dbea afbd e816 fc3b 0b61 c1bb
000000d0: 1c17 453b c994 143e 5dd7 f539 0da6 f8bd
000000e0: 5486 103b 63ed f937 f816 21bc 4448 66be
000000f0: 0264 093b 847e e6bb befd 073c 7a86 8dbb
00000100: 9fef bf3b 1fae 9f3a 8b1f 0f3b 3539 dfba
00000110: eb03 753b 4b6a 77bc 9d45 a0bc ebe8 363c
00000120: 8336 b8b9 84e5 5db9 0fdd 56bd f636 94bc
00000130: 7c4d a83b 84e2 d7bd f96a 37bc 69f4 e03a
00000140: ad01 093b 3217 073b 9a94 c1b9 5519 af38
00000150: 298f da38 c762 183b 9996 023d fbea b7ba
00000160: 6904 b9b9 3f51 ab38 9603 34bb 6fb0 c93a
00000170: 7d95 f3ba 87f6 c9bd d47c 0abe 4bc2 59ba
00000180: 98c5 4eba 7bd9 213b 4409 dfba 1c0a b6ba
00000190: b221 143c 4d80 f63a 26ed 17ba d00e 10bd
000001a0: 8f99 df3c 7c1d 4dbc 5e3e 053e 6b4e 963a
000001b0: 8d8a 1a3b 9509 84ba 4a21 1e3b f7d9 b0bd
000001c0: 660b 79bd 13f2 673d d732 4e39 4663 1fbe
000001d0: 6ca6 b43b fd3a 143c ba9a 47bd 9b27 2fbb
000001e0: cd2a f83c 6c1d 07be f568 e538 6d6a ce3b
000001f0: 39aa 9f37 3639 b63c 5151 c7ba f2b9 24bb
00000200: fcb3 61b9 57d8 9c3a 182b 983c 624d 7539
00000210: cea1 733a ef0c 43b9 16d6 13bd c39f e038
00000220: 68fa 8db9 a214 8fbc e999 32bb 776e 5dbb
00000230: ee3c e93a ab6f 6cba 9ee1 e0b7 8ef0 de3a
00000240: 198d 5939 2059 df3a 7221 94bb 6841 97ba
00000250: 897f 033b 7254 223b ca66 49bc d71f 103b
00000260: b843 eeb9 7ef6 03bb cb88 17bc ffbd 3e3b
00000270: 5bd3 83b9 310c f4bb 3055 3a3b fa91 fe39
00000280: 9c44 fdbb 23ff 3239 0b9d 0339 505a 14ba
00000290: a3b5 cb3a d556 e63b d8f3 c5b8 819b 1cbd
000002a0: 9eae a5bc 81af d43a 2534 c0ba 18d9 4c3b
000002b0: de4b 21bb cb0c 06bd 5649 ccbb 47f5 ab3c
000002c0: bad2 8d3a 2072 523b 8685 ccba 39e5 5fba
000002d0: 4e17 0d38 8fff 753d c76e 0dbb 0401 cebb
000002e0: f8b8 693a f76f 4e37 8d04 eb3a bdeb f93d
000002f0: b627 d03a ef07 023e b2ed 2739 c4a6 b8bb
00000300: df16 bd3b bfaa ff39 bc45 e03a 6372 8eb9
00000310: 1998 923a c97f 52bb ceea 8e3a 6e08 1a3a
00000320: 200f 47b8 3d3e 95b7 cc46 43bc 7b68 d8bb
00000330: 3e0b c73a 0781 93bb b398 103b ddc1 263a
00000340: e04b 253b 6592 b13a 9cd0 6cb8 3841 ac38
00000350: d01f 1538 0d31 d53a dae5 84bc 5397 89b9
00000360: 2714 a6b9 2f36 a337 b29e e2ba 2a47 8fbb
00000370: 26cc ba39 4931 923a fefd d2bb e384 07ba
00000380: a79a 75ba 2ca1 f33a c56f a139 1b2d b5b9
00000390: b7f1 823b 9959 2fbc 6bb4 e4ba cbd4 4bbb
000003a0: f279 d4bc a089 b9ba 5051 febb 077d 6d3a
000003b0: 002c af3b 10f7 4639 2b4c 9abb 1ea4 693b
000003c0: 3943 033b 8228 033b 702c 49b7 8d5e 933b
000003d0: 3638 10b9 c8f1 8abb 5a6a 49bc bc61 98ba
000003e0: 11df 223b 2f88 f4bc 4464 83b8 1d35 683a
000003f0: e683 0438 c15a e63a 3ba7 28ba 6efd 163a

lstm.bias_hh_l0 f4 [512]
-0.00590748 0.0026261415 -0.03577964 -0.0011893125 0.044784766 -0.00063883385 -0.05381749 -0.00033503555
0.0012957959 -0.0068458943 -0.0021075336 0.15812102 0.002427719 -0.0032956006 -0.0026023681 0.0022362918
-0.0009931023 0.0022312105 -0.011176208 -0.00079638715 0.0028460019 -0.025437327 -0.03739086 -0.07718329
-0.018156968 -0.005840718 0.06451396 -0.017375527 0.00026100376 -0.005062609 0.00065665133 -0.0015454676
0.0044601476 -6.677455e-05 0.00030307318 -0.014557384 0.030550046 -0.038167667 -0.28888682 0.026469426
-0.021333244 0.002232534 -0.001031133 -0.19191217 -0.00409402 -0.064939834 -0.0032154534 -0.12048625
0.0019384795 -0.091718 0.0076931594 -0.005901461 0.003007359 0.1341644 0.00046890657 -0.23413305
0.0022052715 2.9809056e-05 -0.012039904 -0.22125718 0.002096415 0.005016738 0.00830421 -0.004319013
0.0058574234 0.001218263 0.0021838874 -0.0017030536 0.0037386236 -0.015101027 -0.020575974 0.01116393
-0.00029330383 -0.00021159396 -0.052456994 0.019364953 0.005136187 -0.055680208 -0.06650323 0.0017162681
0.0020905384 0.002061319 -0.00036922513 8.349665e-05 0.000104212115 0.0023252228 -0.022631506 -0.0014031861
-0.00035287524 8.1422186e-05 -0.0027467958 0.0015387669 -0.0018583778 -0.09861345 -0.1700352 -0.0008306838
-0.00078881276 0.0024696277 -0.0017016168 -0.0013888523 -0.03833248 0.029230637 -0.0005795525 -0.059518985
0.027213281 -0.012519237 0.17692134 0.0011467463 0.0023581113 -0.0010074538 0.0024128675 -0.08635313
-0.06080209 0.04707725 0.000196648 -0.15566236 0.0055130054 0.009047262 -0.0471518 -0.0026727524
0.02908763 -0.13829134 0.000109393484 0.00629926 1.9033467e-05 0.022372533 -0.0015207045 -0.0025135246
-0.00021534903 0.0011966325 0.006820367 0.0002339704 0.0009293827 -0.0001861244 -0.02420388 0.0001071071
-0.00027080174 -0.016908335 -0.002725239 -0.0033787766 0.0017794645 -0.00090193277 -2.6820264e-05 0.0017008989
0.00020745222 0.0017040109 -0.0045205895 -0.0011539923 0.0020065035 0.0024769572 -0.010926709 0.0021991634
-0.0004545195 -0.0020135967 -0.00924875 0.0029104901 -0.0002514374 -0.0074477387 0.0028432123 0.00048555346
-0.0077144722 0.00017070392 0.00012551656 -0.0005659207 0.0015541803 0.006982289 -9.439112e-05 -0.038234238
0.007937525 0.0016226622 -0.0014662481 0.003125733 -0.002461187 -0.03651326 -0.006199422 0.020990998
0.0010820245 0.003211148 -0.0015603778 -0.0008540937 -0.00015577683 0.055711668 -0.002158092 -0.0060067778
0.00089158036 1.2307927e-05 0.0017930428 0.12097356 0.0015880979 0.14220814 0.00016015425 -0.0056351116
0.0057705464 0.00048764664 0.0017110631 -0.00027167375 0.001118424 -0.0032119632 0.0010903839 0.0005875883
-4.745932e-05 -1.7785542e-05 -0.011918738 -0.006604244 0.0015185853 -0.007381884 0.0022063672 0.00063612865
0.0025224967 0.0013547653 -5.646117e-05 8.2119135e-05 3.5554884e-05 0.0016265222 -0.018447347 -0.00026249158
-0.00031688137 1.9461464e-05 -0.0017289724 -0.0043724803 0.00035630388 0.001115367 -0.0061840652 -0.0005169669
-0.0009370221 0.0018587456 0.00030791076 -0.00034557204 0.0039961105 -0.009230966 -0.0017448786 -0.0031102188
-0.048001282 -0.0014155925 -0.0076467693 0.0009059463 0.0053458232 0.00018967503 -0.004708787 0.0035650819
0.0020029081 0.0020013156 -1.1991173e-05 0.004497355 -0.00013750861 -0.0042402493 -0.011501165 -0.0011625537
0.0024852275 -0.03464323 -6.266776e-05 0.00088580116 3.1594245e-05 0.001757438 -0.000643597 0.00057598075
00000000: 8993 c1bb 581b 2c3b ac8d 12bd b5e2 9bba
00000010: 3b70 373d 6a77 27ba ba6f 5cbd b6a7 afb9
00000020: b2d7 a93a 8653 e0bb 8c1e 0abb 7aea 213e
00000030: 5e1a 1f3b 01fb 57bb 7e8c 2abb c08e 123b
00000040: fc2a 82ba 8039 123b 6a1c 37bc a3c4 50ba
00000050: fd83 3a3b f161 d0bc 2927 19bd 4612 9ebd
00000060: ecbd 94bc 7e63 bfbb e51f 843d 1f57 8ebc
00000070: 55d7 8839 3ee4 a5bb 2023 2c3a 4a91 caba
00000080: 6e26 923b 5009 8cb8 cbe5 9e39 1882 6ebc
00000090: 1744 fa3c b355 1cbd f9e8 93be 69d6 d83c
000000a0: 0ec3 aebc b54f 123b 1527 87ba a084 44be
000000b0: 2127 86bb 2dff 84bd 5bba 52bb 7fc1 f6bd
000000c0: 9414 fe3a a6d6 bbbd e616 fc3b 0b61 c1bb
000000d0: 1d17 453b 6462 093e 93d7 f539 93c0 6fbe
000000e0: 5186 103b 760e fa37 0443 45bc 3e91 62be
000000f0: 0264 093b 7363 a43b 620e 083c 8286 8dbb
00000100: a1ef bf3b 1fae 9f3a 8d1f 0f3b ff38 dfba
00000110: b203 753b 4c6a 77bc f28e a8bc ebe8 363c
00000120: 93c6 99b9 52df 5db9 25dd 56bd 40a3 9e3c
00000130: 764d a83b ee10 64bd d832 88bd 67f4 e03a
00000140: 6a01 093b 3217 073b 8f94 c1b9 ec1a af38
00000150: 748c da38 c462 183b b565 b9bc 1deb b7ba
00000160: 1d02 b9b9 34c1 aa38 9603 34bb 73b0 c93a
00000170: d094 f3ba d9f5 c9bd b51d 2ebe 3fc2 59ba
00000180: 54c8 4eba 7ad9 213b c908 dfba 260a b6ba
00000190: 8502 1dbd 1775 ef3c 1ced 17ba 2eca 73bd
000001a0: 63ee de3c 7c1d 4dbc de2a 353e 6c4e 963a
000001b0: 8b8a 1a3b 8a0c 84ba 3321 1e3b e9d9 b0bd
000001c0: 9d0b 79bd 13d4 403d 4c33 4e39 f465 1fbe
000001d0: 71a6 b43b f83a 143c 3f22 41bd 5829 2fbb
000001e0: 2e49 ee3c 3f9c 0dbe 2e6a e538 066a ce3b
000001f0: 0faa 9f37 9a46 b73c 6052 c7ba f2b9 24bb
00000200: 51cf 61b9 53d8 9c3a 637d df3b f355 7539
00000210: d1a1 733a 632a 43b9 3747 c6bc b09e e038
00000220: 65fa 8db9 5983 8abc ec99 32bb 776e 5dbb
00000230: ec3c e93a af6f 6cba 14fc e0b7 b2f0 de3a
00000240: 8887 5939 1e59 df3a 7421 94bb 8e41 97ba
00000250: 8b7f 033b 7254 223b f005 33bc d71f 103b
00000260: 934c eeb9 8cf6 03bb 1288 17bc ecbd 3e3b
00000270: 5bd3 83b9 290c f4bb 3055 3a3b e291 fe39
00000280: afc9 fcbb fcfe 3239 189d 0339 4c5a 14ba
00000290: a3b5 cb3a afcb e43b d9f3 c5b8 819b 1cbd
000002a0: 650c 023c 82af d43a 1f2f c0ba 19d9 4c3b
000002b0: de4b 21bb ee8e 15bd 8524 cbbb 50f5 ab3c
000002c0: b8d2 8d3a 2072 523b 9785 ccba 42e5 5fba
000002d0: 0658 23b9 eb31 643d c76e 0dbb 81d4 c4bb
000002e0: f2b8 693a 257e 4e37 8804 eb3a fcc0 f73d
000002f0: b927 d03a 039f 113e 14ef 2739 bea6 b8bb
00000300: da16 bd3b d3aa ff39 c045 e03a 6f6f 8eb9
00000310: 1598 923a cd7f 52bb 36eb 8e3a 6208 1a3a
00000320: 0f0f 47b8 2932 95b7 cf46 43bc 6a68 d8bb
00000330: 440b c73a bbe3 f1bb b398 103b dfc1 263a
00000340: 7950 253b 6192 b13a b8d0 6cb8 6037 ac38
00000350: c420 1538 0731 d53a e41e 97bc 069f 89b9
00000360: 1923 a6b9 2d41 a337 b09e e2ba 0647 8fbb
00000370: 4cce ba39 8231 923a b3a3 cabb 1085 07ba
00000380: 7da2 75ba 27a1 f33a 156f a139 e52d b5b9
00000390: cef1 823b 7a3d 17bc 69b4 e4ba d0d4 4bbb
000003a0: fe9c 44bd 678b b9ba c091 fabb 077d 6d3a
000003b0: 042c af3b 81e3 4639 2b4c 9abb 26a4 693b
000003c0: 3943 033b 8128 033b b22d 49b7 8c5e 933b
000003d0: 3030 10b9 caf1 8abb 626f 3cbc d460 98ba
000003e0: 33df 223b 0fe6 0dbd 7f6c 83b8 1c35 683a
000003f0: 1084 0438 d559 e63a 10b7 28ba 6afd 163a

fc.weight f4 [1, 128]
-0.049909197 0.219229 0.041778084 2.4132215e-11 -0.12575148 -1.7622998e-16 0.9094994 0.00844768
0.054790303 -0.022771832 -0.63291854 -0.24814576 -0.106465034 0.013097849 -1.0286962e-18 0.044760704
8.736227e-19 0.051559236 0.009144348 0.0052490737 0.05975949 0.008767017 -0.1132802 0.9490342
-0.107372664 -0.103872165 -0.06850522 -0.11038709 -0.030758739 0.03518943 -0.02313108 -0.097643025
0.9612738 0.09243706 -9.4097725e-09 0.01702918 -0.14510944 0.018596971 0.30260748 -0.023212269
-0.036974058 -0.2806749 -0.041665193 0.26601982 -0.034982193 -0.12998655 0.13013811 0.009866278
0.31092435 3.376591e-07 0.063496225 -0.00010393015 -0.08594933 0.07344029 -0.04369864 -0.37758765
-0.004152899 -4.7244184e-06 0.18580355 -0.06618696 0.089558005 0.065494366 -0.049403504 5.179993e-05
-0.2418895 -0.032781295 0.08369584 -1.7172005e-17 -0.013804288 -0.06779552 -0.05082872 -0.086409934
-0.13024764 0.08453682 -0.026150623 -0.042585026 0.12652256 -0.084784456 0.09530458 -0.02949618
0.0196787 -0.19451764 -0.038198974 -0.047565825 -0.032300435 -0.12329411 0.24687807 -0.036029276
4.169871e-17 -0.0161151 -0.50211054 -0.034903612 -0.07644358 1.3798068 -0.052744977 -1.7805152e-13
-0.043837663 0.029454991 -0.022331784 3.3026826e-21 -0.08191705 0.20096517 -0.02167815 -1.0480672
0.009907705 -5.1653274e-06 -0.21355008 -0.033833727 -0.04350971 -0.030578291 0.01406281 -0.2834727
0.5585667 -3.529415e-08 3.2536255e-21 0.36471504 0.008832207 0.04295022 -0.20287406 -0.00050025096
-0.020814942 -0.91365886 2.6280736e-17 2.1346887e-12 -0.08347312 -0.018127607 -0.06596385 -1.2401929e-18
00000000: 966d 4cbd 917d 603e 7f1f 2b3d eb44 d42d
00000010: ffc4 00be e92d 4ba5 f4d4 683f 2368 0a3c
00000020: cc6b 603d fe8b babc f306 22bf ec19 7ebe
00000030: 570a dabd 5c98 563c 0bcf 97a1 0057 373d
00000040: 88ec 8021 c72f 533d 2dd2 153c 6c00 ac3b
00000050: 5ec6 743d 89a3 0f3c 73ff e7bd e8f3 723f
00000060: 33e6 dbbd eeba d4bd 774c 8cbd a012 e2bd
00000070: c0f9 fbbc cb22 103d 647d bdbc 11f9 c7bd
00000080: 0a16 763f a44f bd3d 9ea8 21b2 c780 8b3c
00000090: 9297 14be ad58 983c 5eef 9a3e a827 bebc
000000a0: 1c72 17bd 9fb4 8fbe 1fa9 2abd c033 883e
000000b0: 7d49 0fbd 321b 05be ed42 053e 2ba6 213c
000000c0: 7a31 9f3e 8347 b534 4f0a 823d 13f5 d9b8
000000d0: 3406 b0bd dd67 963d 58fd 32bd 2b53 c1be
000000e0: 0b15 88bb 7286 9eb6 4943 3e3e 078d 87bd
000000f0: 306a b73d e921 863d 545b 4abd c043 5938
00000100: e2b1 77be ae45 06bd b968 ab3d 4062 9ea3
00000110: 612b 62bc 61d8 8abd c731 50bd b1f7 b0bd
00000120: a35f 05be a421 ad3d d539 d6bc a36d 2ebd
00000130: 218f 013e 79a3 adbd 0c2f c33d f9a1 f1bc
00000140: 3a35 a13c a22f 47be 8776 1cbd 62d4 42bd
00000150: 764d 04bd 9f81 fcbd 9bcd 7c3e 6f93 13bd
00000160: 264d 4024 d003 84bc 518a 00bf 17f7 0ebd
00000170: 748e 9cbd 829d b03f 1e0b 58bd db77 48aa
00000180: 1f8f 33bd 984b f13c 25f1 b6bc 2c8b 791d
00000190: 20c4 a7bd d0c9 4d3e 6096 b1bc 1127 86bf
000001a0: ed53 223c d351 adb6 dfac 5abe 3c95 0abd
000001b0: 3d37 32bd 537f fabc b367 663c 5523 91be
000001c0: 3afe 0e3f 5496 17b3 45d6 751d eebb ba3e
000001d0: f6b4 103c 92ec 2f3d 38be 4fbe 4623 03ba
000001e0: 1984 aabc 8ce5 69bf a265 f223 2237 162c
000001f0: f5f3 aabd 5980 94bc 0e18 87bd 2a05 b7a1

layer_norm.weight f4 [128]
0.02635093 0.693878 0.62176937 1.2691365e-10 0.45637482 2.2322997e-16 1.6126122 0.011116858
0.26443392 0.53445446 1.3290048 0.885246 0.8107703 -0.0076526697 3.7931347e-19 0.36733037
3.8703313e-19 0.28328264 0.015986048 0.047738314 0.6810203 0.05623842 0.71061003 1.6445049
0.481868 0.2001695 0.35630074 0.60162294 0.17256562 0.48895106 0.45912892 0.13148804
1.6278487 0.7742395 3.954374e-08 0.4801085 0.5612487 0.10188898 1.1992688 0.73390436
0.4861606 0.9532948 0.025207752 1.0993124 0.20711473 0.96092457 0.4058882 0.6436909
0.7032319 1.7843311e-05 0.39250836 0.0009591169 0.81624013 0.42605668 0.065077886 1.1861155
0.33530584 7.524757e-05 0.4642197 0.6744582 0.55295557 0.6933458 0.7435283 0.0024027328
0.89946055 0.5629018 0.74409854 2.6471224e-17 0.38761786 0.57589275 0.5745566 0.5628096
0.26532036 0.077903666 0.6722916 0.41125017 0.7415831 0.74419755 0.4470919 0.6316106
0.5828573 0.96414185 0.28840703 0.049007572 0.041541167 0.6528953 0.57980233 0.02007925
2.3997335e-16 0.014285392 1.0142169 0.5394823 0.02894981 2.0953143 0.40842396 -1.7251273e-13
0.024070235 0.19075476 0.0200125 9.881079e-21 0.6040304 1.0341724 0.5216761 1.6796049
0.24513428 -0.00016906457 0.8536006 0.4812305 0.35047042 0.03182746 0.4201525 0.96413374
1.2212613 -3.6465828e-08 -5.0928547e-22 0.9554827 -0.0023500295 0.5819231 0.95077693 0.0029072447
0.08365791 1.5542792 -2.1326443e-17 6.740201e-10 0.076611005 0.58778495 0.081780866 -5.6955893e-19
00000000: e8dd d73c fda1 313f 472c 1f3f 048b 0b2f
00000010: f6a9 e93e eeae 8025 146a ce3f 7b23 363c
00000020: e263 873e 02d2 083f d41c aa3f 7b9f 623f
00000030: a48e 4f3f 3fc3 fabb 3be8 df20 ba12 bc3e
00000040: cb76 e420 6c0a 913e 2cf5 823c 4089 433d
00000050: 5957 2e3f 425a 663d 8aea 353f 237f d23f
00000060: 67b7 f63e 3cf9 4c3e 0d6d b63e f603 1a3f
00000070: 0bb5 303e cb57 fa3e f212 eb3e cda4 063e
00000080: 595d d03f 8f34 463f cdd6 2933 c8d0 f53e
00000090: ffad 0f3f 2bab d03d a481 993f 28e1 3b3f
000000a0: 0bea f83e 210b 743f 7d80 ce3c 45b6 8c3f
000000b0: e215 543e 27ff 753f 94d0 cf3e edc8 243f
000000c0: 0107 343f 38ae 9537 dbf6 c83e 3f6d 7b3a
000000d0: 1df5 503f 1a24 da3e 8e47 853d a2d2 973f
000000e0: 35ad ab3e 3bce 9d38 34ae ed3e 4ba9 2c3f
000000f0: 7f8e 0d3f 1c7f 313f df57 3e3f 2b77 1d3b
00000100: 0c43 663f 551a 103f 3e7d 3e3f 6927 f423
00000110: d975 c63e b56d 133f 2416 133f 4a14 103f
00000120: 12d8 873e f58b 9f3d 4d1b 2c3f 628f d23e
00000130: 64d8 3d3f bb83 3e3f 3be9 e43e 3bb1 213f
00000140: 2336 153f 00d2 763f 16aa 933e 2abc 483d
00000150: 1227 2a3d 2524 273f ed6d 143f 3d7d a43c
00000160: d155 8a25 470d 6a3c dcd1 813f 831b 0a3f
00000170: 2728 ed3c a119 0640 f21c d13e 693b 42aa
00000180: f12e c53c 3755 433e 41f1 a33c f7a5 3a1e
00000190: bca1 1a3f c35f 843f 918c 053f 4bfd d63f
000001a0: 7b04 7b3e ed46 31b9 9285 5a3f d863 f63e
000001b0: dc70 b33e 835d 023d 3a1e d73e 78d1 763f
000001c0: 4a52 9c3f 9a9e 1cb3 0eec 199c 849a 743f
000001d0: f402 1abb eaf8 143f 1e66 733f 7987 3e3b
000001e0: d754 ab3d 9ff2 c63f a4b3 c4a3 f345 3930
000001f0: 3be6 9c3d 1379 163f ba7c a73d a81a 28a1

layer_norm.bias f4 [128]
-0.049915288 -0.1329637 0.06438144 5.066062e-10 0.008129028 3.782557e-15 0.19353339 0.005618436
0.04657027 0.03770198 -0.20594539 0.10733149 0.06614286 0.015214193 -3.6631978e-19 0.06453323
7.8973244e-19 0.03638848 0.0064336625 0.03365245 -0.05984839 0.031611104 -0.10298433 0.19460422
-0.0790695 -0.044183966 -0.005052116 -0.06456729 -0.047696814 0.05354499 0.013011298 -0.045298833
0.1572275 0.15769783 1.8653918e-07 0.06938834 0.010628675 -0.0063180523 -0.44373366 -0.09366849
-0.013395528 -0.1338578 -0.031757593 -0.38708547 -0.055573627 0.1781063 0.083425306 -0.05376368
0.05867253 2.9191275e-05 0.052621275 -0.00024067769 -0.07457895 -0.03357111 -0.017608276 0.4990967
-0.05528435 -9.94991e-06 0.026126474 0.040564016 0.06633085 -0.004823152 -0.051689945 0.003870592
-0.16919278 -0.10524067 -0.08762812 1.0200557e-16 -0.051655065 -0.093420155 0.00032006763 -0.09007828
-0.07407035 0.046078507 -0.023226196 -0.09787746 -0.062558934 0.02745878 0.040667918 0.04755831
0.061964754 0.19128563 0.012297935 -0.02559571 -0.016708475 -0.08863678 0.04851752 -0.03408468
2.7953773e-16 -0.014033011 -0.14392164 0.01277352 -0.05773403 0.3578908 -0.030815471 -9.04005e-13
-0.03291881 0.03708723 -0.016135393 9.923403e-21 -0.073497556 -0.2540588 -0.09325303 -0.3124107
-0.027877407 -0.00021354115 0.05324956 0.02746561 0.017344464 -0.019881368 0.06291631 -0.16724184
0.10881746 7.481134e-08 8.4358604e-22 0.09074963 0.0026294782 -0.018821958 -0.2507144 -0.0006111649
-0.043048684 -0.2820238 3.451636e-17 1.8148915e-09 -0.04361406 -0.075909115 -0.03585102 9.62634e-19
00000000: f973 4cbd a327 08be 6bda 833d 3e41 0b30
00000010: 9d2f 053c ee47 8827 9e2d 463e db1a b83b
00000020: 78c0 3e3d 646d 1a3d 59e3 52be 9dd0 db3d
00000030: e875 873d f344 793c ae3c d8a0 002a 843d
00000040: 7f16 6921 160c 153d 79d1 d23b 27d7 093d
00000050: 9623 75bd a57a 013d 73e9 d2bd 5446 473e
00000060: 31ef a1bd 3ffa 34bd 388c a5bb db3b 84bd
00000070: bc5d 43bd fe51 5b3d 572d 553c 458b 39bd
00000080: 3f00 213e 8a7b 213e 804b 4834 791b 8e3d
00000090: e523 2e3c aa07 cfbb 0f31 e3be 44d5 bfbd
000000a0: eb78 5bbc 0512 09be 4014 02bd 1130 c6be
000000b0: 2ca1 63bd 7f61 363e e3da aa3d 4e37 5cbd
000000c0: 9b52 703d c9df f437 6889 573d 6d5e 7cb9
000000d0: d9bc 98bd dc81 09bd 3b3f 90bc 9a89 ff3e
000000e0: d871 62bd 8aee 26b7 3007 d63c 7426 263d
000000f0: 78d8 873d 880b 9ebb d6b8 53bd c2a9 7d3b
00000100: df40 2dbe 6c88 d7bd 5f76 b3bd 7635 eb24
00000110: 4394 53bd 1153 bfbd c0ce a739 f67a b8bd
00000120: 32b2 97bd d1bc 3c3d dd44 bebc fa73 c8bd
00000130: e61e 80bd 3cf1 e03c 6793 263d 81cc 423d
00000140: c1ce 7d3d 61e0 433e 477d 493c 18ae d1bc
00000150: 36e0 88bc 3387 b5bd 4fba 463d 619c 0bbd
00000160: 7d24 a125 b7ea 65bc 3260 13be 0748 513c
00000170: 857a 6cbd 773d b73e ba70 fcbc 6d74 7eab
00000180: e0d5 06bd c7e8 173d 5f2e 84bc a272 3b1e
00000190: e385 96bd ff13 82be 72fb bebd 4cf4 9fbe
000001a0: 295f e4bc 04ea 5fb9 361c 5a3d 8fff e03c
000001b0: fa15 8e3c 40de a2bc 44da 803d 7241 2bbe
000001c0: b0db de3d f8a7 a033 4ff5 7e1c f1da b93d
000001d0: 5353 2c3b 8230 9abc a35d 80be 9536 20ba
000001e0: d153 30bd 6c65 90be ba2d 1f24 d16f f930
000001f0: a8a4 32bd 3d76 9bbd 85d8 12bd 490f 8e21
