results/question2_traffic/GRUmodel_q2.pth (torch, 603695 bytes, 11 tensors)

gru.weight_ih_l0 f4 [384, 2]
0	0x3ca51b11	0.020154508
1	0x3e604b38	0.21903694
2	0xbc8c5c99	-0.017133998
3	0xbd4bf6c4	-0.04979588
4	0x3e1e20a9	0.15442146
5	0x3e3d44f3	0.18483333
6	0x3d995554	0.07486978
7	0x3e0ec197	0.13941036
8	0x3d2474d2	0.04015047
9	0x3e1b907d	0.15191837
10	0xbc93ddd4	-0.018050112
11	0xbca44309	-0.020051496
12	0x3d8471c9	0.06467015
13	0x3df29960	0.1184566
14	0x3d967ea6	0.07348375
15	0x3df82013	0.12115493
16	0xbc22deba	-0.009940797
17	0xbce9d40b	-0.028543493
18	0x3c3fa766	0.011697626
19	0x3e269eca	0.1627151
20	0xbc43a5ee	-0.011941416
21	0xbd4f00a2	-0.050537713
22	0x3c5118c8	0.012762256
23	0x3cc3e672	0.023913596
24	0xbd0a86ac	-0.03381984
25	0xbda76131	-0.08172835
26	0xbd8038fe	-0.062608704
27	0x3d7229ba	0.059121825
28	0x3d715c72	0.058926053
29	0x3e134856	0.14383063
30	0xbc91b2ac	-0.017785393
31	0xbd0bac22	-0.034099706
32	0xbe0bac22	-0.13639882
33	0xbc8ee894	-0.017444886
34	0xbbad0cc6	-0.0052810637
35	0xbc62dee2	-0.013847085
36	0xbe58f601	-0.21187593
37	0xbd41cb3e	-0.047312967
38	0x3e183137	0.14862524
39	0x3db0ec4f	0.08638822
40	0xbcb0261b	-0.021502545
41	0xbd673fe9	-0.056457434
42	0xbd64649c	-0.05576001
43	0xbdfccad7	-0.12343376
44	0xbc1cd081	-0.009571196
45	0xbd3b81f0	-0.045778215
46	0x3ccba5ad	0.024859274
47	0x3e0f064f	0.1396725
48	0x3de81556	0.113321945
49	0x3e08ced4	0.13360149
50	0xbd0c89b9	-0.03431103
51	0xbd6f56e6	-0.058432482
52	0xbe487ffe	-0.19580075
53	0xbcafe51f	-0.021471558
54	0x3e4dec16	0.20109591
55	0x3d019c80	0.03164339
56	0xbbd3d1be	-0.006464212
57	0xbcd52a79	-0.02602123
58	0x3bfd96d9	0.0077389297
59	0x3e334c9d	0.17509694
60	0xbdcea583	-0.100901626
61	0xbd9129c9	-0.07088048
62	0x3d2c9d43	0.042142164
63	0x3e0a033a	0.13477793
64	0xbd321d40	-0.043484926
65	0xbdbf5f8a	-0.093443945
66	0xbc8728e6	-0.016498994
67	0x3de596f6	0.11210434
68	0x3d627d3c	0.055295214
69	0x3de34e37	0.11098903
70	0xbaa6efe5	-0.0012736289
71	0xbc1e7057	-0.009670339
72	0x3dd0bf2a	0.10192712
73	0x3db2d037	0.0873112
74	0xbb997c5d	-0.0046840147
75	0xbc91979b	-0.017772486
76	0xbc3b0a9c	-0.011416104
77	0xbce24ca2	-0.027624432
78	0xbc8c2a1d	-0.017109925
79	0x3dfd7075	0.12374965
80	0x3e196a0b	0.14981858
81	0xbba9b2df	-0.005178794
82	0x3d90fd09	0.070795126
83	0x3dc499c9	0.09599645
84	0x3d17591e	0.036950223
85	0x3e4cc953	0.19998674
86	0xbcafa4b2	-0.021440838
87	0xbd9b5240	-0.07584047
88	0xbcfec372	-0.031099055
89	0xbd87aff3	-0.066253565
90	0x3dc5cd8e	0.09658347
91	0x3e390f6c	0.18072289
92	0xbd241665	-0.04006042
93	0xbd3f2ddd	-0.046674598
94	0xbbe10865	-0.006867456
95	0xbcd58ee1	-0.026069107
96	0x3dcded3b	0.10055014
97	0x3ddfd7c6	0.109298274
98	0xbcfad48c	-0.030618928
99	0x3e268669	0.16262211
100	0xbd2551e2	-0.040361293
101	0xbdd0d243	-0.10196354
102	0xbcede10e	-0.029037979
103	0xbc95c9ba	-0.018284667
104	0xbd431757	-0.04762968
105	0xbd9fec39	-0.07808728
106	0x3da848d3	0.08217015
107	0x3d8edba3	0.06975486
108	0xbcd176e3	-0.025569385
109	0xbda58f9b	-0.08084031
110	0xbd394375	-0.045230348
111	0xbd0129ac	-0.031533882
112	0xbc0d6512	-0.008630054
113	0xbdbeaddd	-0.093105055
114	0xbd6bd11c	-0.05757247
115	0xbdcefe20	-0.10107064
116	0xbceaf3d7	-0.028680725
117	0x3e440cb5	0.19145472
118	0x3d2ae6ed	0.041724134
119	0x3e1e2ae9	0.15446056
120	0xbd2098e5	-0.03920831
121	0xbcdd61e3	-0.027024215
122	0xbcd7142b	-0.026254734
123	0xbd9d9067	-0.07693558
124	0xbd359424	-0.04433073
125	0xbde1c963	-0.110247396
126	0xbd13641a	-0.035984136
127	0xbcd6da9e	-0.026227292
128	0x3b16fc60	0.002303861
129	0x3c46d1fc	0.012135025
130	0xbce2048c	-0.027590059
131	0xbda21f6e	-0.07916151
132	0x3c886d93	0.016653812
133	0x3e211116	0.15729174
134	0xb996db53	-0.0002877364
135	0xbc0d0e2c	-0.008609336
136	0xbd6a45dd	-0.057195533
137	0xbcc96778	-0.02458547
138	0x3d5065c2	0.050878294
139	0x3dc7302b	0.09725984
140	0xbdba4960	-0.090960264
141	0xbd23dfdb	-0.040008407
142	0xbbf83d7f	-0.0075756903
143	0xbc882469	-0.016618924
144	0xbd6e6b52	-0.058207817
145	0xbd804b3b	-0.06264349
146	0x3e2fc9ea	0.17166868
147	0x3dad81cb	0.08472022
148	0x3b84d037	0.0040531415
149	0x3c8bb1d8	0.017052576
150	0xbd042d94	-0.03227003
151	0xbd7d28db	-0.06180654
152	0xbd32747a	-0.043568112
153	0xbdb1d53f	-0.086832516
154	0xbd08ecee	-0.03342908
155	0x3c2be447	0.010491437
156	0x3bf6d30e	0.007532484
157	0x3d8436ab	0.064557396
158	0x3e3f87a1	0.18704082
159	0xbd529649	-0.051412854
160	0x3dedcdc3	0.116115116
161	0xbe0c9f04	-0.13732535
162	0x3d3966fa	0.04526422
163	0x3df98639	0.12183804
164	0xbb7ced6f	-0.003859367
165	0xbc45438b	-0.012040029
166	0x3ac8d16f	0.0015321205
167	0x3ba9bb46	0.0051797954
168	0x3e0f59ca	0.13999096
169	0x3bbf5194	0.0058385823
170	0x3d5d39fd	0.05401038
171	0x3e1a1992	0.15048817
172	0xbc9d58b4	-0.019207336
173	0xbd14b4f0	-0.036305368
174	0x3db8a920	0.09016633
175	0x3e079e99	0.13244094
176	0xbd02871c	-0.03186713
177	0xbda396f6	-0.07987778
178	0xbd832403	-0.06403353
179	0xbdd4cdeb	-0.10390838
180	0x3ce6b35c	0.028161697
181	0x3e211dcb	0.15734021
182	0x3afb57f8	0.0019175997
183	0x3da09125	0.07840184
184	0xbc2bc2d7	-0.010483465
185	0xbce254dc	-0.027628355
186	0xbd01ed32	-0.031720348
187	0xbd33112d	-0.043717552
188	0x3dc65ac4	0.09685281
189	0x3e2c3928	0.16818678
190	0xbcb46d45	-0.02202476
191	0xbd053613	-0.032522272
192	0xbe28aff2	-0.16473368
193	0x3cf4ea75	0.029896954
194	0xbabe2abe	-0.0014508588
195	0xbc55b638	-0.013043933
196	0xbe4639fb	-0.19358055
197	0xbd0705c0	-0.032964468
198	0xbc36a538	-0.01114779
199	0xbc87b4e0	-0.01656574
200	0xbd5c5de9	-0.053800497
201	0xbd198009	-0.03747562
202	0xbc729db7	-0.01480811
203	0xbcf5169c	-0.029918008
204	0x3e00a195	0.12561639
205	0x3ddb52e6	0.10709171
206	0xbf25e052	-0.6479541
207	0x3c33bbcc	0.010970067
208	0xbc4378cd	-0.011930657
209	0xbccf3db3	-0.025297975
210	0x3da10d3c	0.078638524
211	0x3e25d9ef	0.16196416
212	0x3dada80a	0.084793165
213	0x3b670732	0.0035252091
214	0xbcfcb82e	-0.030849542
215	0xbd81bceb	-0.06334861
216	0xbe4de97d	-0.201086
217	0xbbdea648	-0.0067947246
218	0xbc964006	-0.018341076
219	0xbd35a69e	-0.04434835
220	0xbd29d3e1	-0.04146183
221	0xbdc04dbb	-0.09389826
222	0xbd418034	-0.047241405
223	0xbd93c414	-0.07215133
224	0xbd1a5940	-0.03768277
225	0xbd2a0b45	-0.041514654
226	0xbd4f07fa	-0.050544716
227	0xbcb8ff47	-0.022582663
228	0xbd08864f	-0.03333121
229	0xbd4b23a6	-0.049594544
230	0xbc3e37af	-0.011609956
231	0xbccea9b0	-0.025227398
232	0xbd26ca72	-0.04072041
233	0xbd858ecc	-0.06521377
234	0xbe261467	-0.1621872
235	0xbc5d6c6c	-0.013514619
236	0xbec0e32a	-0.37673312
237	0x3b11d4d7	0.0022252107
238	0x3b024cc4	0.0019882182
239	0xbe115696	-0.14193186
240	0x3c6bd7cb	0.014394711
241	0x3dfc0fdb	0.12307712
242	0xbc006b6d	-0.007838112
243	0xbc3976ef	-0.01131986
244	0xbd4c366e	-0.049856596
245	0xbd0aecf0	-0.033917367
246	0xbcbdc3aa	-0.023164589
247	0xbd723c89	-0.059139762
248	0xbd80a232	-0.06280936
249	0xbd11f838	-0.03563711
250	0xbacc52ba	-0.0015588619
251	0xbba11020	-0.0049152523
252	0xbb9feb5c	-0.004880352
253	0xbc844120	-0.016144335
254	0xbc8fe6b0	-0.017566055
255	0xbcad6053	-0.021164095

gru.weight_hh_l0 f4 [384, 128]
0	0x3ca6d91f	0.020367203
1	0xbbb29c7f	-0.0054507847
2	0xbcd63ab0	-0.026151031
3	0xba279b5a	-0.00063936936
4	0xbc8228ec	-0.015888654
5	0xbcb126c0	-0.021624923
6	0xbc92d981	-0.01792598
7	0x3c3d74ed	0.011563522
8	0x3c224318	0.009903692
9	0x3c560c9d	0.013064531
10	0x3c9877be	0.018611785
11	0x3cc6488d	0.024204517
12	0xbc422efd	-0.011852023
13	0x379b5c59	1.8520443e-05
14	0xbb37fefa	-0.0028075562
15	0x3c23bbe4	0.009993527
16	0xbcc505d4	-0.02405063
17	0x3cbc32d6	0.02297346
18	0x3b8a08cd	0.004212475
19	0xbc3a0344	-0.011353318
20	0xbbc013a4	-0.0058617163
21	0x3c8d4c15	0.017248193
22	0x3c7f8df6	0.015597811
23	0xbc320c98	-0.01086726
24	0xbc89439d	-0.016755873
25	0x3aaf60a1	0.0013380238
26	0xbc934574	-0.017977454
27	0xbc6de37a	-0.014519567
28	0x3c9ab0b6	0.01888309
29	0x3c826602	0.015917782
30	0x3cc29b7a	0.023755778
31	0x3ba619a3	0.005068974
32	0xbc53b1d6	-0.012920817
33	0xbb36a603	-0.0027869947
34	0x3c2ba9db	0.010477508
35	0xbccc3c7f	-0.02493119
36	0x3b35e5de	0.002775542
37	0x3cbdcdc7	0.023169411
38	0xbc38306c	-0.011242013
39	0x3c83a07e	0.01606774
40	0xbcae715e	-0.021294292
41	0xba95fabc	-0.0011442523
42	0x3c1a2e16	0.009410402
43	0xbbfe71cd	-0.007765031
44	0x3befd6ec	0.007319322
45	0x3cdd0fb0	0.02698502
46	0xbbaff96f	-0.005370311
47	0xbb15f8cf	-0.0022883897
48	0xbbf6a1bc	-0.0075266045
49	0x3cbf18d0	0.023327261
50	0xbc8825f7	-0.016619666
51	0xbcb2f186	-0.021843683
52	0x3c06e413	0.008233088
53	0x3c985189	0.018593566
54	0x3c0af044	0.008480135
55	0xbccb93ab	-0.024850687
56	0x3c8aec61	0.016958417
57	0x3c33ca6e	0.010973556
58	0xbc3e4465	-0.011612986
59	0xbbe58639	-0.007004526
60	0xbc3bdd99	-0.011466407
61	0xbc576342	-0.0131462235
62	0xbc4e02a9	-0.012573876
63	0xbca72378	-0.020402655
64	0xbc31a6cd	-0.010842991
65	0x3c04f413	0.008114832
66	0xbc39db0b	-0.011343728
67	0x3cbbe17a	0.022934664
68	0xbcad736e	-0.021173205
69	0xbcb331f0	-0.021874398
70	0x3ccb274b	0.02479901
71	0x3cc247f7	0.023715956
72	0xbbe7448d	-0.0070577324
73	0x3c22b63d	0.009931144
74	0x3c11c596	0.008897206
75	0xbcbf3124	-0.023338862
76	0xbc3572b0	-0.011074707
77	0xbc574d90	-0.013141051
78	0xbbb76ef1	-0.005597942
79	0xbcb44748	-0.022006646
80	0x3cba8ce9	0.02277227
81	0x3c997e36	0.01873694
82	0xbcbf64db	-0.023363521
83	0xbc2b1ec1	-0.010444344
84	0xbc6785c2	-0.014131011
85	0xbc9aa738	-0.018878564
86	0xbcaa8c75	-0.020818928
87	0x3c8cee48	0.017203465
88	0xbc37838a	-0.011200795
89	0xbc975918	-0.0184751
90	0xbc86d9e9	-0.01646133
91	0x3b36910c	0.002785745
92	0x3b97dab7	0.004634227
93	0xbca819d0	-0.02052012
94	0xbc9f0dd1	-0.019415768
95	0x3cb58bdc	0.022161417
96	0xbc7ee4de	-0.015557496
97	0xbcae119e	-0.021248635
98	0xbcb5a78a	-0.022174615
99	0xbbfe3f81	-0.007759035
100	0xbbed4697	-0.007241081
101	0xbca2de6c	-0.01988145
102	0xbbbeb92b	-0.0058204136
103	0xbcaa406e	-0.020782676
104	0x3c61cf22	0.0137822945
105	0xbb853040	-0.0040645897
106	0x3bbd3ed4	0.005775312
107	0x3cb68f80	0.022285223
108	0x3ca76bf0	0.02043721
109	0x3b259701	0.0025267007
110	0xbc26f037	-0.010189108
111	0xbc45eaac	-0.012079876
112	0x3ca9867c	0.02069401
113	0x3ca8e15e	0.020615276
114	0x3be53099	0.0069943187
115	0x3ad1960c	0.0015990152
116	0xbb2a029c	-0.0025941497
117	0xbcfa8c48	-0.03058447
118	0xbcbc0cd9	-0.022955345
119	0xbbff9e95	-0.007800887
120	0xbc78b5b3	-0.015180039
121	0x3cccfc2f	0.025022594
122	0x3cb56d25	0.02214677
123	0xbb90193e	-0.0043975404
124	0xbcaa5eae	-0.0207971
125	0x3cc5ecc3	0.024160748
126	0x3cbe6fe3	0.023246711
127	0xbcae2b6f	-0.021260945
128	0x39fe187d	0.000484649
129	0xb9d48512	-0.00040534936
130	0xb9469202	-0.00018937144
131	0x3a6d6d5d	0.0009057129
132	0x3a9c0861	0.0011904353
133	0x38c15f4a	9.220706e-05
134	0xb965067f	-0.00021841562
135	0xba8b5a23	-0.0010631721
136	0xb87d8eb6	-6.045281e-05
137	0x39f68ea7	0.0004702706
138	0x381fdf33	3.8116425e-05
139	0x3979e0fb	0.00023830302
140	0xba73cdd9	-0.0009300388
141	0xb619f62d	-2.294207e-06
142	0x3acc47be	0.0015585346
143	0xb822831b	-3.874591e-05
144	0xba82be8b	-0.0009974999
145	0xb9636024	-0.00021684222
146	0x3a8ac303	0.0010586682
147	0xb984a01e	-0.000252963
148	0xb9a7ee0e	-0.00032030087
149	0x3aabbb04	0.0013102
150	0x3afc28d4	0.0019238242
151	0xbad87a9c	-0.0016516033
152	0xba773fdc	-0.0009431818
153	0xba836406	-0.0010024316
154	0xbaf75667	-0.0018870354
155	0xba05619c	-0.00050880923
156	0x3727a6f7	9.99285e-06
157	0x3a64e8c6	0.0008732196
158	0x3a875a82	0.0010326656
159	0x3770704e	1.4331263e-05
160	0xbab9c0d0	-0.0014171842
161	0x398bf581	0.0002669506
162	0xba214124	-0.00061513693
163	0x39b2fe97	0.0003414049
164	0x3a5af4df	0.00083525287
165	0xb96aea29	-0.0002240321
166	0x389d7fd4	7.510153e-05
167	0x3a0fed0e	0.0005490341
168	0xbaad6025	-0.0013227506
169	0xb9e8819d	-0.00044347058
170	0xba622523	-0.00086267496
171	0x3997d524	0.00028959766
172	0x39df79f9	0.0004262475
173	0x3a3814d7	0.00070221483
174	0xb9afe6e7	-0.00033550637
175	0x37fc5d0f	3.0084075e-05
176	0xbad5c28d	-0.0016308591
177	0x3a0d92d5	0.0005400603
178	0xb957ca11	-0.00020579273
179	0x3970cbeb	0.00022964149
180	0x3a813d14	0.0009860122
181	0x3a3f3b28	0.0007294887
182	0x38b29529	8.515485e-05
183	0x38dc3c9e	0.00010501708
184	0xbac577c0	-0.0015065596
185	0x3a0db419	0.000540556
186	0xbb160264	-0.0022889609
187	0xba80351c	-0.0009781453
188	0x39d08b67	0.00039776714
189	0xba3ad60d	-0.0007127233
190	0xba61a648	-0.00086078467
191	0x3801d397	3.0953055e-05
192	0x3a070be0	0.0005151611
193	0x3a032b0a	0.0005003667
194	0xba5391c7	-0.0008070734
195	0xb97f5eb7	-0.00024353979
196	0x392ddb28	0.00016580208
197	0xb9e823f6	-0.0004427728
198	0xb94d6e00	-0.00019591302
199	0xb97cfff3	-0.00024127941
200	0x3a9119c4	0.0011070301
201	0xb90afb91	-0.00013254421
202	0xba272610	-0.0006376216
203	0xba026fa3	-0.00049757416
204	0xba428596	-0.00074204186
205	0x39cdadf9	0.00039230267
206	0xb9ba5ea9	-0.00035547212
207	0x389b3599	7.400959e-05
208	0xba4b6076	-0.0007758209
209	0x39aa31b5	0.0003246196
210	0x397c6172	0.00024068894
211	0x3a35a7fc	0.00069296337
212	0x39b63c26	0.0003475856
213	0xb7dd10ec	-2.6353133e-05
214	0x380ff26e	3.4319637e-05
215	0xba87f3f3	-0.0010372385
216	0xba2a036f	-0.0006485497
217	0xb9173ebb	-0.00014423851
218	0xbac617ba	-0.0015113272
219	0x38be3319	9.069424e-05
220	0x3ab48861	0.0013773554
221	0x3845df83	4.717662e-05
222	0xba7f3e09	-0.0009736722
223	0xb9786f0f	-0.00023692496
224	0xba1618a7	-0.00057257194
225	0x3927679b	0.00015964957
226	0xba31aa72	-0.00067774125
227	0xba11e1b2	-0.0005564942
228	0xba6a3e9e	-0.0008935722
229	0x37eda92f	2.8331384e-05
230	0x3a8ffdcb	0.001098567
231	0xba31cf1c	-0.0006782876
232	0x3891e93a	6.9575806e-05
233	0xbb08ff81	-0.0020904245
234	0x39fce5d1	0.00048236412
235	0xba52bbd4	-0.0008038853
236	0x3ae56f99	0.0017504572
237	0x38dce4fa	0.00010533068
238	0xba057c48	-0.0005092067
239	0xba251514	-0.00062973914
240	0xb6988d9e	-4.5464394e-06
241	0xb9213778	-0.0001537482
242	0x39a87556	0.0003213088
243	0x3941a2c2	0.00018466546
244	0xb9fd8a8e	-0.00048359152
245	0x3a80cda8	0.0009826915
246	0xba27fef4	-0.00064085354
247	0x3a263842	0.00063407805
248	0xb9e91d20	-0.00044462923
249	0xb9b9c134	-0.00035429897
250	0xb698734f	-4.5433767e-06
251	0xb981cdb3	-0.00024758055
252	0x38778aad	5.901854e-05
253	0xb9a97742	-0.00032323046
254	0xb97fc78a	-0.00024393029
255	0x390f27c7	0.00013652361

gru.bias_ih_l0 f4 [384]
0	0x3cff65f1	0.03117654
1	0xb9931443	-0.0002805312
2	0x3b6f4574	0.0036509903
3	0x3bbd65d3	0.0057799607
4	0x3c35fc13	0.011107462
5	0x3b96e485	0.0046048784
6	0x3c09a59f	0.008401304
7	0x3c900ffb	0.017585745
8	0x3ba02cb9	0.004888144
9	0x3bbe4272	0.0058062607
10	0x3abdbaba	0.0014475205
11	0x3d790501	0.060795788
12	0xbba2e76c	-0.0049714353
13	0x3c8b3d69	0.016997056
14	0x3c86f3c8	0.016473666
15	0x3b6343ae	0.0034677791
16	0x3d42f931	0.04760093
17	0x3b9b6821	0.0047426377
18	0x3d645832	0.055748172
19	0x3c68b0d9	0.01420232
20	0xbb4990c4	-0.0030756453
21	0xbc5ec12b	-0.0135958595
22	0xbba032da	-0.0048888745
23	0x3bb17228	0.00541522
24	0x3c117bc1	0.008879603
25	0x3c85326b	0.016259393
26	0x3d2d0499	0.042240713
27	0xbdbccd85	-0.09218887
28	0x3c139c44	0.009009425
29	0xbba2434d	-0.0049518705
30	0x3dcdc8a1	0.100480326
31	0xbb7f0586	-0.0038913204
32	0xbbe9f965	-0.007140326
33	0x3d381c02	0.044948585
34	0x3cc0ae2e	0.023520555
35	0x3b736bb9	0.0037143065
36	0x3a3b1fc9	0.000713822
37	0x3be632c3	0.0070250942
38	0x3b9e140f	0.0048241685
39	0x3ba86bd7	0.0051398086
40	0xbde3e966	-0.111285016
41	0x3c9b0546	0.018923413
42	0x3b7004fd	0.0036624067
43	0xba0b2364	-0.0005307703
44	0xbba20c3f	-0.0049453075
45	0xba8749ef	-0.0010321717
46	0xbb4825a1	-0.0030540007
47	0x3c31d34a	0.010853598
48	0x3c2117ef	0.009832366
49	0x3bd5a274	0.00651961
50	0xbaf36920	-0.0018570758
51	0x394cb0a5	0.00019520761
52	0x3bf88503	0.0075842156
53	0x3aaf94f9	0.0013395838
54	0xbc1cd97a	-0.009573335
55	0xba806b4d	-0.0009797603
56	0x3bc9e5a4	0.0061614085
57	0xbbb83eb5	-0.0056227096
58	0xb982fa73	-0.0002498213
59	0x3c90e628	0.017687872
60	0x3cdf1bf2	0.027235005
61	0xbb3c854a	-0.002876597
62	0xbba7c419	-0.005119812
63	0x3abcc5d8	0.0014402224
64	0x3ace1097	0.0015721497
65	0x3be222a2	0.006901101
66	0x3cc42895	0.023945132
67	0x3ae1414f	0.0017185601
68	0x3b1a12db	0.0023509774
69	0x3c19b0b6	0.00938051
70	0x3e10e55d	0.14149995
71	0xba3f7420	-0.0007303376
72	0x3c2b8e76	0.010470977
73	0x3b913c66	0.004432249
74	0x3bc672e2	0.0060561756
75	0x3d245170	0.040116727
76	0xba92b500	-0.0011192858
77	0x3bf18303	0.007370354
78	0x3a94d5fa	0.0011355274
79	0x3c02752e	0.007962508
80	0x3d32525c	0.043535575
81	0x3b85f92a	0.0040885406
82	0x3b9a6894	0.0047121737
83	0xba6459f7	-0.00087109156
84	0xbc3cbe09	-0.011519917
85	0x3c0609f6	0.008181086
86	0xbb01d76c	-0.001981224
87	0x3c954691	0.018222125
88	0xbb97c4b9	-0.0046316055
89	0xbc03dbe7	-0.008048034
90	0xbb437ccb	-0.002982902
91	0x3b2f0b66	0.0026709675
92	0xba599608	-0.00083002495
93	0xbb3c2a01	-0.002871156
94	0x3c2f9db5	0.010718753
95	0x3ae392de	0.0017362495
96	0x3d97cd31	0.07412184
97	0x3b9872ff	0.0046523805
98	0x3d3bbbe4	0.045833483
99	0xba6f01f7	-0.0009117419
100	0xbba5f40b	-0.0050644926
101	0x3bbeb877	0.0058203298
102	0x3cc71703	0.024302965
103	0x3da92466	0.082588956
104	0x3bae6075	0.005321557
105	0x3bb6190c	0.005557185
106	0x3ca3dca7	0.020002676
107	0x3c157b9f	0.009123712
108	0x3cd3c204	0.02584935
109	0x3a2ed824	0.00066697807
110	0xbbe8520a	-0.007089858
111	0x3b4ef908	0.003158154
112	0x39101416	0.00013740393
113	0x3b7bab9b	0.0038401845
114	0x3b5a236e	0.0033285278
115	0x3a86b6a7	0.0010277823
116	0xbc08b5f9	-0.008344167
117	0x3e0aef66	0.13567886
118	0x3d46cf23	0.048537385
119	0x3cfd18ad	0.030895555
120	0x3c901724	0.01758916
121	0x3ae212b3	0.0017248004
122	0x396cb849	0.00022575365
123	0xbaea235e	-0.0017863323
124	0x3b4dcc04	0.003140212
125	0x3b22e8e0	0.0024858043
126	0x3c0bd920	0.008535653
127	0x39c704da	0.00037959852
128	0x3cf8807f	0.03033471
129	0x3bb8b7ee	0.0056371605
130	0xbcfe9229	-0.031075554
131	0x3d9334e5	0.07187823
132	0xbd18a0ac	-0.037262604
133	0xbc4b89f1	-0.0124230245
134	0xbcce22ee	-0.02516314
135	0x3d0da456	0.03458055
136	0xbd47ebde	-0.048808925
137	0xbc544882	-0.01295674
138	0xbc5b0a44	-0.013369147
139	0xbb55c6ca	-0.0032619708
140	0x3c16017d	0.009155628
141	0x3dc2cd14	0.09511772
142	0xbbb3f8ca	-0.0054923045
143	0xbd7797b0	-0.060447395
144	0x3ca7c41c	0.020479254
145	0xbc9d3143	-0.019188529
146	0xbc7e66ed	-0.015527469
147	0x3d12d740	0.03584981
148	0x3c35874b	0.01107962
149	0x3cf6c231	0.030121895
150	0xbd4cdcb9	-0.050015185
151	0x3d25af98	0.040450662
152	0x3c30fecd	0.010802937
153	0xbcd2c0d8	-0.02572672
154	0xbc0f1632	-0.008733319
155	0x3da64846	0.08119254
156	0xbd06b33c	-0.032885775
157	0xbb90eb77	-0.004422601
158	0x3cf4a165	0.029862115
159	0xbc857e0e	-0.01629546
160	0x3a86339a	0.0010238767
161	0xbc9746cb	-0.018466374
162	0x3d06ab0c	0.032877967
163	0xba5b6fb9	-0.0008370835
164	0xbbf62fb1	-0.0075130095
165	0xbcfc9d9b	-0.03083687
166	0xbd92db84	-0.071707755
167	0x3d7351da	0.05940423
168	0x3e1ebe4c	0.1550228
169	0x3d782161	0.060578708
170	0xbd4bf09d	-0.049790014
171	0x3cb5a3a8	0.022172764
172	0x3c95302d	0.018211449
173	0x3c9596e7	0.018260432
174	0x3c0086d2	0.007844644
175	0xbd22c073	-0.039734315
176	0xbc92033a	-0.017823804
177	0x3c8efc96	0.017454427
178	0x3cb5beb3	0.022185659
179	0xbae9a9ee	-0.0017827132
180	0xbbd6fe64	-0.0065610874
181	0xbc8a2d09	-0.016867178
182	0xbcad8480	-0.021181345
183	0xbbec2cbc	-0.007207481
184	0xbce02dfa	-0.027365673
185	0x3d76455e	0.060124747
186	0x3ddcf6c6	0.10789256
187	0xbdbbed89	-0.091761656
188	0xbb35c8fe	-0.002773821
189	0x3cb4b80d	0.022060419
190	0x3d76667d	0.060156334
191	0xbb85ca88	-0.0040829815
192	0xbcc23c4e	-0.023710396
193	0x3d7a7020	0.061142087
194	0x3d979273	0.0740098
195	0xbc2ca657	-0.010537705
196	0xbd88adc1	-0.06673766
197	0x3cb4b6a8	0.022059754
198	0xbc771cd9	-0.015082561
199	0xbbb698dd	-0.005572422
200	0x3c259620	0.010106593
201	0x3d3d7196	0.046250902
202	0xbda58192	-0.08081354
203	0x3c5e947b	0.013585205
204	0xbd1da7c0	-0.038490057
205	0x3b8cc886	0.004296365
206	0x3bd6ba03	0.006552936
207	0xbba48285	-0.005020442
208	0x3d292415	0.041294176
209	0x3c2e9bf0	0.010657296
210	0xbc9cd617	-0.019145055
211	0xbd8ae080	-0.06781101
212	0x3cc9d73b	0.024638763
213	0xbc7f8aa8	-0.015597023
214	0xbd819b4f	-0.06328451
215	0x3c48c111	0.012253062
216	0x3cf4b74d	0.02987256
217	0xbd596785	-0.05307724
218	0xbc006eb3	-0.007838893
219	0x3d080fcf	0.0332182
220	0xbad760d0	-0.0016432051
221	0xbcd31e57	-0.025771303
222	0xbcaef20b	-0.02135565
223	0xbc94c35e	-0.018159565
224	0x3de7f60e	0.11326228
225	0xbcf7758b	-0.030207416
226	0x3cc73671	0.024317952
227	0x3cd8a6b0	0.02644667
228	0xbb9a46e6	-0.004708159
229	0xbd23422d	-0.039858032
230	0xbcf3f813	-0.029781377
231	0x3d56f4e0	0.052479625
232	0xbd3f3ba6	-0.046687745
233	0xbd31fd2a	-0.043454327
234	0xbc8abd12	-0.016935859
235	0xbcc4d78a	-0.024028558
236	0x3d55b7ae	0.052177124
237	0x3c371c54	0.011176188
238	0xbd087bf0	-0.03332132
239	0x3c8fc506	0.017550003
240	0xbc8f4cc6	-0.017492663
241	0xbdadd329	-0.08487541
242	0xbb1959ca	-0.0023399466
243	0x3c2c4ead	0.010516805
244	0x3c9bde42	0.01902688
245	0x3cec8978	0.028874144
246	0x3d883363	0.06650426
247	0xbc0a2350	-0.008431271
248	0x3b7fb8cf	0.0039020067
249	0xbbc9833d	-0.006149678
250	0xbc1e6ef1	-0.009670005
251	0x3c834a0b	0.016026517
252	0xbc5f1ce3	-0.013617727
253	0xbc81f863	-0.01586551
254	0xbc8a9bfa	-0.016920079
255	0xbd697e7a	-0.057005383

gru.bias_hh_l0 f4 [384]
0	0x3cff77eb	0.031185111
1	0xb9940d7b	-0.00028238803
2	0x3b6f457f	0.0036509929
3	0x3bbd6718	0.005780112
4	0x3c35fbf7	0.011107436
5	0x3b96e212	0.0046045864
6	0x3c09a59f	0.008401304
7	0x3c900ffe	0.01758575
8	0x3ba029ec	0.00488781
9	0x3bbe426b	0.0058062575
10	0x3abdbabb	0.0014475206
11	0x3d88592b	0.066576324
12	0xbba2e750	-0.0049714223
13	0x3c8b3d88	0.016997114
14	0x3c86f3cd	0.016473675
15	0x3b634383	0.0034677691
16	0x3d803c5a	0.06261511
17	0x3b9b6894	0.0047426913
18	0x3d645877	0.05574843
19	0x3c68b0e0	0.014202327
20	0xbb498c91	-0.003075395
21	0xbc5ec17c	-0.013595935
22	0xbba032cf	-0.0048888694
23	0x3bb17237	0.005415227
24	0x3c117f21	0.008880408
25	0x3c853288	0.016259447
26	0x3d26ba66	0.040705107
27	0xbdcfd89d	-0.101487376
28	0x3c13a5f2	0.009011732
29	0xbba24341	-0.004951865
30	0x3db710a2	0.08938719
31	0xbb7fd66c	-0.0039037718
32	0xbbe9f447	-0.007139716
33	0x3d383fca	0.04498271
34	0x3cc0ae35	0.023520568
35	0x3b736bbc	0.0037143072
36	0x3a03390f	0.0005005756
37	0x3be63326	0.0070251403
38	0x3b9e140c	0.004824167
39	0x3ba86b7b	0.005139766
40	0xbdd33154	-0.10312143
41	0x3c9b0546	0.018923413
42	0x3b700c60	0.003662847
43	0xba0b22bb	-0.00053076044
44	0xbba20c28	-0.004945297
45	0xba87476e	-0.001032097
46	0xbb482564	-0.0030539865
47	0x3c31d2fe	0.010853527
48	0x3c21224a	0.009834835
49	0x3bd5a5e4	0.00652002
50	0xbaf36aa1	-0.0018571207
51	0x394d3231	0.00019569021
52	0x3bf884cc	0.00758419
53	0x3aafbeb6	0.0013408277
54	0xbc1cd97c	-0.009573337
55	0xba806bd1	-0.0009797757
56	0x3bc9e590	0.006161399
57	0xbbb83dd7	-0.0056226063
58	0xb982fdb1	-0.00024984547
59	0x3c90e19d	0.017685706
60	0x3cdf1bf4	0.027235009
61	0xbb3c8583	-0.0028766103
62	0xbba7c410	-0.005119808
63	0x3abc94d8	0.0014387621
64	0x3ace108e	0.0015721486
65	0x3be222ce	0.0069011217
66	0x3cc428af	0.02394518
67	0x3ae15d13	0.0017193876
68	0x3b1a1340	0.002351001
69	0x3c1b4d11	0.009478823
70	0x3e0cbc73	0.13743763
71	0xba3f69db	-0.00073018455
72	0x3c2b8e47	0.010470933
73	0x3b96aad0	0.004597999
74	0x3bc672e4	0.0060561765
75	0x3d114bc8	0.03547266
76	0xba92b6f4	-0.001119344
77	0x3bf182d2	0.0073703313
78	0x3a94d5db	0.0011355238
79	0x3c97e559	0.018541979
80	0x3d22cc86	0.03974583
81	0x3b85f9c6	0.004088613
82	0x3b9a68cf	0.004712201
83	0xba6459f2	-0.00087109127
84	0xbc62d960	-0.013845772
85	0x3c0609fd	0.008181092
86	0xbb01d771	-0.001981225
87	0x3c95469f	0.018222151
88	0xbb97c4bf	-0.0046316083
89	0xbc03db64	-0.008047912
90	0xbb437d58	-0.002982935
91	0x3b2f0f75	0.0026712094
92	0xba599680	-0.00083003193
93	0xbb3c2a5b	-0.002871177
94	0x3c2f9db7	0.0107187545
95	0x3ae3944d	0.0017362923
96	0x3d938a79	0.07204146
97	0x3b987503	0.0046526208
98	0x3d38e350	0.045138657
99	0xba6f01cc	-0.0009117394
100	0xbba5f4b4	-0.0050645713
101	0x3bbeb7ca	0.005820249
102	0x3cc716f9	0.024302946
103	0x3d9f1eae	0.077695236
104	0x3bae6095	0.005321572
105	0x3bb618b9	0.0055571464
106	0x3ca3dca6	0.020002674
107	0x3c157bb5	0.009123732
108	0x3d5d06e0	0.053961635
109	0x3a2ed7fb	0.0006669757
110	0xbbe85202	-0.007089854
111	0x3b4ef456	0.003157874
112	0x3910141e	0.00013740404
113	0x3b7babc2	0.0038401936
114	0x3b5a113b	0.003327443
115	0x3a869739	0.0010268457
116	0xbc08b5e4	-0.008344147
117	0x3e0b42ae	0.13599655
118	0x3da43f17	0.08019846
119	0x3cf8ecf6	0.03038643
120	0x3c901725	0.017589161
121	0x3ae21d8b	0.0017251236
122	0x396cb0ee	0.00022572625
123	0xbaea5547	-0.0017878198
124	0x3b4dc9ca	0.0031400793
125	0x3b22eee9	0.002486164
126	0x3c0bd897	0.008535526
127	0x39c6f636	0.00037948944
128	0x3d7ee3b9	0.062228892
129	0x3bb7c001	0.0056076054
130	0xbd29d28e	-0.041460566
131	0x3d935f52	0.07195915
132	0xbd118b52	-0.035533257
133	0xbc4ba592	-0.012429612
134	0x3c0b37a5	0.008497153
135	0x3c1f67a3	0.009729299
136	0xbd42c40a	-0.04755024
137	0xbc54487d	-0.012956736
138	0xbc5af05a	-0.013362968
139	0xbb494ea6	-0.0030717044
140	0x3cce2e47	0.025168551
141	0x3ddd014a	0.107912615
142	0xbc4bc6b0	-0.0124375075
143	0xbd72a651	-0.059240643
144	0x3cb03314	0.021508731
145	0xbc9d3ab4	-0.01919303
146	0xbca2bca0	-0.019865334
147	0x3d2e02df	0.042483207
148	0x3c364eae	0.011127157
149	0x3d800c34	0.062523276
150	0xbd840a7a	-0.06447311
151	0x3d3ff4ed	0.04686444
152	0xbcfc76fc	-0.030818455
153	0xbd0adfdd	-0.0339049
154	0x3c4475a3	0.011990937
155	0x3d82405f	0.06359934
156	0xbd01fec5	-0.031737108
157	0xbb94b7fa	-0.0045385333
158	0x3cf4dfd5	0.029891888
159	0xbc87a790	-0.016559392
160	0x3d0be181	0.034150604
161	0xbda8e009	-0.08245856
162	0x3c4fe7c1	0.012689532
163	0xba5b5763	-0.00083672086
164	0xbbf62a46	-0.0075123636
165	0xbcfc208a	-0.030777235
166	0xbd6401ee	-0.055665903
167	0xba05a3d3	-0.0005097959
168	0x3e25c644	0.16188914
169	0x3ca48b15	0.02008585
170	0xbd51ac16	-0.051189505
171	0xbc7f59c3	-0.015585366
172	0x3cb184be	0.021669742
173	0x3c90a829	0.01765831
174	0x3b9de298	0.004818272
175	0xbd21019e	-0.039308183
176	0xbc92487f	-0.017856834
177	0x3c8f949b	0.017526915
178	0x3cc48a04	0.023991592
179	0xbae9a64d	-0.0017826051
180	0xbb086e56	-0.0020817718
181	0x3c4ab47d	0.012372133
182	0xbca2d169	-0.019875245
183	0xbbec2bec	-0.0072073843
184	0xbce08302	-0.02740622
185	0x3d3c2399	0.045932386
186	0x3dd102fa	0.10205646
187	0xbd5abd54	-0.053403214
188	0x3c10b09d	0.00883117
189	0x3bdd4490	0.006752558
190	0x3d3f2200	0.046663284
191	0xbb85c9ec	-0.004082909
192	0xbd1e8a4e	-0.038706116
193	0x3d4d9674	0.05019231
194	0x3da37d84	0.079829246
195	0xbc2cd98b	-0.010549913
196	0xbd87f5da	-0.06638689
197	0x3ce54cab	0.02799066
198	0xbc1590d1	-0.009128765
199	0xbbb692be	-0.0055716923
200	0x3c247464	0.010037515
201	0x3c0190e8	0.0079080835
202	0xbde3dd6a	-0.11126216
203	0x3bd75e29	0.006572504
204	0xbd0837cd	-0.03325634
205	0xbb905a2d	-0.004405281
206	0x3bab66fe	0.0052307835
207	0xbb9c95d9	-0.0047786054
208	0x3d63be36	0.05560132
209	0xbd01cdc1	-0.031690363
210	0xbc9d1499	-0.01917486
211	0xbd7d0f58	-0.06178221
212	0x3cf0bd05	0.029387007
213	0x3bebc4f3	0.007195109
214	0xbd7ea697	-0.06217059
215	0x3c33a6a6	0.010965025
216	0x3cce2153	0.025162375
217	0xbd58aa9e	-0.05289709
218	0x3cd8d01c	0.026466422
219	0x3cd80fd2	0.026374731
220	0xbc55b937	-0.013044647
221	0xbd06b1fc	-0.032884583
222	0x3c43d21e	0.011951951
223	0xbc94bd3b	-0.018156638
224	0x3db4f04c	0.088348955
225	0xbcf6b814	-0.030117072
226	0x3c9aab68	0.018880561
227	0x3d65b704	0.05608274
228	0x3cc79259	0.024361776
229	0xbd24e831	-0.040260497
230	0xbcf405cd	-0.029787922
231	0x3d635cf4	0.05550857
232	0xbd3c5ec9	-0.04598883
233	0xbd3b84e6	-0.04578104
234	0xbc8abd1c	-0.016935878
235	0xbcc4d969	-0.02402945
236	0xbc6384c5	-0.013886635
237	0x3c371be7	0.011176086
238	0xbc86160d	-0.016367937
239	0x3cd34170	0.025788039
240	0xbc8f4cc1	-0.017492654
241	0xbdb0504e	-0.08609067
242	0xbb10799f	-0.0022045148
243	0x3c2c5111	0.010517375
244	0x3c8a940c	0.016916297
245	0x3c9c29d1	0.019062908
246	0x3d8ff1ff	0.07028579
247	0x3c920bc2	0.017827872
248	0x3bd88341	0.0066074436
249	0xbbc983df	-0.0061497535
250	0xbc1e6b14	-0.009669084
251	0x3c84344f	0.016138224
252	0xbc5f2440	-0.0136194825
253	0xbc81f9d3	-0.015866196
254	0xbc8ad6bc	-0.016948096
255	0xbd723411	-0.059131686

gru.weight_ih_l1 f4 [384, 128]
0	0xbc475c22	-0.012167962
1	0x3b04e0c0	0.0020275563
2	0x3d41f89f	0.047356244
3	0x3d176275	0.03695913
4	0xbceb77fc	-0.028743736
5	0xbd739cde	-0.059475772
6	0x3c507a96	0.012724539
7	0x3b1402d0	0.0022584684
8	0x3d6dc18a	0.0580459
9	0x3d6027f3	0.0547256
10	0x3d798400	0.0609169
11	0x3b9a92af	0.004717193
12	0x3b8f6bf5	0.004376883
13	0xbce0fd69	-0.027464585
14	0x3d761ab5	0.060084064
15	0x3d6b89e7	0.05750456
16	0xbd8db0b9	-0.06918473
17	0x3d71420b	0.058900874
18	0x3d14b235	0.036302764
19	0x3d54af47	0.05192497
20	0x3c1f263d	0.009713707
21	0xbcde4025	-0.027130196
22	0xbd033828	-0.032035977
23	0xbd9b43ce	-0.07581292
24	0xbd8e03aa	-0.069342926
25	0xbc374c87	-0.011187679
26	0xbd64e1b7	-0.05587932
27	0x3cc9e216	0.024643939
28	0x3d720235	0.059084136
29	0x3d08c56a	0.033391394
30	0x3d59589f	0.05306303
31	0xbcbc6f30	-0.023002237
32	0x3c659db3	0.014014649
33	0x3cc9bb59	0.024625467
34	0x3be38413	0.0069432347
35	0xbd73dbac	-0.059535667
36	0xbd0f73fc	-0.03502272
37	0x3d72f3c3	0.0593145
38	0xbd6b6c47	-0.05747631
39	0x3cc95f6c	0.024581634
40	0xbdc0f4ce	-0.09421693
41	0xbbc91f91	-0.006137796
42	0xbd3f4b86	-0.046702884
43	0x3bb7b111	0.0056058248
44	0x3b0deb79	0.0021655245
45	0xbceea60a	-0.029131908
46	0xbc14f4e7	-0.009091592
47	0xbd61aff0	-0.055099428
48	0x3d1a0f05	0.03761198
49	0x3c9b3c5c	0.01894968
50	0x3cfe2e0f	0.031027822
51	0xbd723855	-0.059135754
52	0x3c9ae81c	0.018909506
53	0xbcb46c23	-0.02202422
54	0xbc624f35	-0.01381283
55	0xbd70966d	-0.058737207
56	0xbd62d4a8	-0.055378586
57	0xbcbc25e9	-0.022967296
58	0xbd1660d4	-0.036713436
59	0x3d0eb871	0.034843866
60	0x3b493199	0.0030699729
61	0x3c07c10f	0.008285775
62	0x3c84d33c	0.016214006
63	0xbd73d6f8	-0.059531182
64	0xbb3da753	-0.0028938844
65	0xbcc61cbb	-0.024183622
66	0x3b87f189	0.0041486663
67	0x3d731aa6	0.059351586
68	0xbd69c826	-0.057075642
69	0x3c47c3fe	0.012192724
70	0xbd105542	-0.03523756
71	0x3d726018	0.059173673
72	0x3d770b5b	0.060313564
73	0x3d18f823	0.037346017
74	0x3bded9c7	0.0068008634
75	0xbd6d482d	-0.05793016
76	0xb9897e41	-0.00026224743
77	0xbcf83d72	-0.030302737
78	0x3a5d406f	0.00084400823
79	0x3c170ef3	0.009219873
80	0xbd10eb72	-0.03538079
81	0x3caf8b4a	0.021428723
82	0xbd737d49	-0.059445653
83	0xbba59bcc	-0.005053973
84	0x3d274fc1	0.040847544
85	0xbd48e588	-0.049047023
86	0xbd6b8a04	-0.05750467
87	0xbd17d00b	-0.03706364
88	0x3c07af39	0.008281522
89	0xbbae4fd7	-0.0053195762
90	0xbc6b752d	-0.014371199
91	0xbc564be7	-0.01307962
92	0xbc27d32b	-0.010243217
93	0xbd68939a	-0.05678139
94	0xbc7415c5	-0.014897768
95	0x3d726398	0.05917701
96	0x3d3699d3	0.044580292
97	0xbd73d6d4	-0.059531048
98	0xbd9f2c8f	-0.07772171
99	0x3c0df7df	0.008665054
100	0xbc2cdae6	-0.010550236
101	0xbd7a2a93	-0.06107576
102	0x3d68313b	0.056687575
103	0xbdcebe99	-0.10094947
104	0x3d75620a	0.05990795
105	0x3c2a7a5f	0.010405152
106	0x3d82a446	0.06378989
107	0xbd4add72	-0.049527593
108	0xbc92ed8d	-0.017935539
109	0xba96ab95	-0.0011495227
110	0x3c69ccff	0.014270066
111	0x3d102ad3	0.03519709
112	0x3d73c422	0.05951322
113	0x3d6a89d3	0.057260346
114	0x3c046eba	0.00808304
115	0x3b33d8fb	0.0027442563
116	0xbc0d5842	-0.008626999
117	0x3cf20416	0.029542964
118	0xbd1e59ac	-0.038659737
119	0xbbb304b8	-0.005463209
120	0xbd655ab2	-0.055994697
121	0x3d73be0e	0.059507422
122	0x3d719e5f	0.058988925
123	0x3bd251ba	0.006418434
124	0xbd72b8eb	-0.059258383
125	0x3d740e28	0.059583813
126	0x3d736672	0.05942387
127	0xbd777e94	-0.06042345
128	0xbd4c52c4	-0.04988362
129	0xbbee987f	-0.0072813625
130	0xbe5aedf9	-0.21379842
131	0xbc3bd076	-0.011463275
132	0xbe3002ed	-0.17188616
133	0x3ce5724c	0.028008603
134	0xbd15f432	-0.036609836
135	0x3da15cee	0.07879053
136	0xbc8980d5	-0.016785065
137	0xbb8c6fcb	-0.0042857877
138	0xbc92e3b4	-0.017930843
139	0x3dee9ab7	0.11650603
140	0x3bd93460	0.006628558
141	0xbd06c53f	-0.032902952
142	0xbdaae37b	-0.0834417
143	0xbc961c47	-0.01832403
144	0xbdffee76	-0.12496655
145	0xbc3cb36d	-0.011517388
146	0xbc768cb4	-0.015048195
147	0xbdaeca33	-0.0853466
148	0xbbba3375	-0.0056824037
149	0x3c19e687	0.009393341
150	0x3c34ebed	0.011042577
151	0x3cefd63c	0.02927696
152	0x3d0ac3cc	0.033878133
153	0x3dc0505f	0.093903296
154	0xbdf481a6	-0.11938791
155	0xbcae910a	-0.021309394
156	0xbcaf10a5	-0.021370241
157	0x3cea62b0	0.028611511
158	0x3e028791	0.12747027
159	0x3d053dbc	0.032529578
160	0x3c70ed40	0.014705002
161	0xbdf4ed2d	-0.119593
162	0x3d0eee7c	0.034895405
163	0x3c4a9e9e	0.012366919
164	0xbe03af76	-0.12859902
165	0xbcd98e69	-0.026557164
166	0x3c92bd96	0.017912667
167	0xbdb6f882	-0.08934118
168	0xbda5cfbe	-0.08096264
169	0x3d918bac	0.071067184
170	0x3dc6a963	0.09700277
171	0xbd7487df	-0.05969989
172	0x3a791332	0.00095014565
173	0x3e042717	0.12905537
174	0xbc07ca65	-0.008288001
175	0x3c918e63	0.01776809
176	0x3d176c9b	0.03696881
177	0x3d9c9d33	0.07647171
178	0xbb878f3b	-0.0041369474
179	0x3ce11a56	0.027478378
180	0xbdb290a0	-0.08718991
181	0xbce479de	-0.027890142
182	0x3cbb2908	0.022846714
183	0x3c7dfd0c	0.015502226
184	0x3d5fa642	0.054601915
185	0xbbd6e16b	-0.0065576336
186	0x3c8364cf	0.01603928
187	0x3d8c386a	0.06846698
188	0xbdb5944c	-0.08866176
189	0x3d67e9b8	0.056619376
190	0x3bc9f1dc	0.006162865
191	0x3cde10e8	0.02710767
192	0xbc886fc9	-0.016654866
193	0xbcfb62e5	-0.030686805
194	0xbe18e714	-0.149319
195	0xbc861c72	-0.016370986
196	0x3ce8bc4d	0.028410101
197	0x3cc9d267	0.02463646
198	0x3e469321	0.19392063
199	0xbcf9bf79	-0.03048681
200	0xbc9b04cd	-0.018923188
201	0x3e145769	0.1448647
202	0xbb6b7026	-0.0035925
203	0xbe06215a	-0.1309866
204	0x3cdff3a6	0.02733786
205	0x3bc822f6	0.0061076833
206	0xbc19b558	-0.009381615
207	0xbcd7dd26	-0.026350569
208	0x3d34acdf	0.044110175
209	0xbd82a1ba	-0.06378503
210	0x3ceaec41	0.028677108
211	0x3acb697c	0.0015519108
212	0x3d4b1319	0.04957876
213	0x3daf1276	0.08548443
214	0x3cd534bc	0.026026122
215	0x3c74ff77	0.014953486
216	0x3cfaaa36	0.030598741
217	0x3d41eb1c	0.04734336
218	0xbdb461a8	-0.08807689
219	0x3d6c9131	0.057755653
220	0xbcdabf61	-0.026702585
221	0x3cc1dddb	0.02366536
222	0xbde99c7c	-0.114068
223	0xbce4c566	-0.027926158
224	0x3d5e8947	0.054330137
225	0x3cf8c281	0.030366184
226	0xbe0bc205	-0.13648231
227	0x3c591aa8	0.013250984
228	0xbd0bd15d	-0.03413521
229	0x3ce961b5	0.028488973
230	0xbc9015a9	-0.017588453
231	0xbdac28a8	-0.08406192
232	0xbcf0791a	-0.02935462
233	0x3c1a705e	0.0094262045
234	0xbca25f11	-0.019820722
235	0x3dad9da4	0.08477333
236	0xbd303659	-0.04302058
237	0x3bab6f94	0.005231807
238	0x3b8be3b7	0.004269089
239	0xbcb8bfdc	-0.022552423
240	0xbcb2e5e3	-0.021838134
241	0xbceb42eb	-0.028718432
242	0x3c98b7c4	0.018642314
243	0x3b697ca8	0.003562728
244	0x3cb7e7d3	0.02244941
245	0xbe3901c8	-0.18067086
246	0xbe03ab24	-0.12858254
247	0xbce68083	-0.028137451
248	0x3cdc83c3	0.026918298
249	0xbce8f243	-0.028435832
250	0xbca29ec5	-0.019851098
251	0xba13cbab	-0.0005637954
252	0x3cdcd1d8	0.02695553
253	0xbcfba404	-0.030717857
254	0xbce81b5a	-0.028333355
255	0x3ca16098	0.01969938

gru.weight_hh_l1 f4 [384, 128]
0	0x3b1c4a81	0.0023848119
1	0xbc587cb0	-0.013213322
2	0x3d780101	0.060547832
3	0xbb8fb9d0	-0.0043861642
4	0xbc867503	-0.016413217
5	0x3bdc7f17	0.0067290175
6	0x3d8b2c3e	0.06795548
7	0x3ce97df7	0.028502448
8	0xbd38aaae	-0.045084648
9	0xbc25db35	-0.010123064
10	0x3c544716	0.012956401
11	0x3d74529c	0.059649095
12	0x3d1d15f3	0.03835101
13	0xbd324608	-0.04352382
14	0x3bbcdf3c	0.0057639163
15	0xbd030f36	-0.03199693
16	0x3d361be3	0.04446019
17	0x3cb482c2	0.022035006
18	0xbc1129a6	-0.008860027
19	0xbca8e13f	-0.020615218
20	0x3b83e392	0.004024931
21	0xb9c89d3e	-0.00038264127
22	0xbd22af23	-0.039717805
23	0x3cee8d49	0.029120104
24	0x3bf9c68b	0.007622545
25	0xbc97c1e0	-0.018525064
26	0xbcdb118c	-0.026741765
27	0xbc63df95	-0.013908287
28	0x3d15633c	0.03647159
29	0x3cb1ea47	0.021718157
30	0x3c811d8a	0.015761156
31	0x3d0b46eb	0.03400318
32	0xbca0af56	-0.019614857
33	0xbcea7e7e	-0.02862477
34	0xbbc25eb8	-0.0059317015
35	0xbdf2caa7	-0.11855059
36	0x3d543a30	0.051813304
37	0xbcf2e445	-0.029649863
38	0x3d7f063b	0.0622618
39	0xbce011c3	-0.02735222
40	0x3c432b96	0.011912247
41	0xbc3a9086	-0.011386996
42	0xbd2d7d65	-0.042355914
43	0x3c4957bb	0.012288983
44	0xbc31c6db	-0.0108506335
45	0x3cdd4b50	0.02701345
46	0x3d56a27f	0.052401062
47	0x3cc7bc85	0.024381885
48	0xbc3da333	-0.011574554
49	0x3ce51d62	0.027968112
50	0x3cd56767	0.026050283
51	0xbc249f8b	-0.010047804
52	0x3bc708ba	0.0060740383
53	0xbc82fafe	-0.015988823
54	0xbb4b7940	-0.0031047612
55	0xbc5895a1	-0.013219268
56	0xbd04f7bd	-0.032462824
57	0xbd5e9d8a	-0.05434946
58	0xbdec3cfc	-0.11535069
59	0x3d11cbcd	0.03559475
60	0xbcd94756	-0.026523273
61	0xbcabe305	-0.020982275
62	0xbda5a39a	-0.08087845
63	0xbd2eff0c	-0.0427237
64	0x3d939c08	0.07207495
65	0xbcf0afad	-0.029380644
66	0xbb5f49ca	-0.0034071081
67	0xbd9a1535	-0.07523576
68	0xbcf024a1	-0.029314341
69	0xbca83766	-0.020534229
70	0xbc23e52c	-0.010003369
71	0xba02f406	-0.0004995469
72	0x3d1fd235	0.03901883
73	0x3b5a5d64	0.0033319825
74	0xbd32b6b8	-0.043631285
75	0x3c84b7f4	0.016200997
76	0xbc967e93	-0.018370902
77	0x3c072c31	0.008250282
78	0xbcfbf296	-0.030755322
79	0xbcbcbb9c	-0.023038678
80	0x3d158221	0.036501054
81	0xbd35d38b	-0.044391196
82	0xbcc5b32d	-0.02413329
83	0xbcced5aa	-0.025248367
84	0xbbb12166	-0.0054055927
85	0xbd16401b	-0.03668223
86	0xbc4a3ce1	-0.012343616
87	0x3b0f297c	0.0021844795
88	0x3d188e8a	0.03724531
89	0xbcf73674	-0.030177332
90	0xbcac9abf	-0.021069882
91	0xbd965715	-0.07340828
92	0x3cbb3ee4	0.022857137
93	0xbc080f40	-0.008304417
94	0xbcbef576	-0.023310404
95	0x3a882757	0.0010387701
96	0x3bbffffc	0.005859373
97	0x3b82113c	0.0039693397
98	0x3b2d0c7a	0.0026405142
99	0x3be9e36a	0.0071377056
100	0x3ce06232	0.027390573
101	0x3ccce557	0.025011702
102	0xbd73d91d	-0.059533227
103	0x3d07d952	0.033166237
104	0x3cd7f5a5	0.02636225
105	0xbd73ad9d	-0.059491742
106	0xbd0fd9d6	-0.035119854
107	0x3d5968b2	0.05307836
108	0x3bcab2e0	0.0061858743
109	0x3d72b87c	0.05925797
110	0xbca6e19a	-0.020371247
111	0xbd424ac5	-0.047434587
112	0x3c308dd6	0.010776004
113	0x3d136f6d	0.035994936
114	0x3c98de3f	0.018660663
115	0xbc975a11	-0.018475564
116	0x3b6406b6	0.003479404
117	0xbd0678aa	-0.032829918
118	0xbd0c79b4	-0.034295753
119	0x3d990dca	0.07473333
120	0x3d6019de	0.05471217
121	0x3c3ae6c8	0.011407562
122	0x3d74ade9	0.059736166
123	0xbc8f2320	-0.017472804
124	0xbc1dd321	-0.009632857
125	0xbc001f60	-0.00781998
126	0x3d0b56c5	0.034018297
127	0x3cc7fb20	0.024411738
128	0xbccbb19a	-0.02486496
129	0xbc37c717	-0.0112169
130	0x3d3b4fcc	0.045730397
131	0x3b281cb8	0.0025651883
132	0x3d1ffe5d	0.03906094
133	0x3cb6d6ed	0.022319281
134	0xbd8a65b8	-0.067576826
135	0xbe006b3c	-0.12540907
136	0xbc8078ca	-0.015682597
137	0xbc0b0d92	-0.008487122
138	0xbc6b48af	-0.014360591
139	0x3be92c7a	0.0071158977
140	0xbda26450	-0.07929289
141	0x3d498294	0.049196795
142	0x3c88c68a	0.016696233
143	0x3d92e1ab	0.07171949
144	0xbdd4731b	-0.10373517
145	0x3bac90d3	0.005266288
146	0xbc6c1ed0	-0.014411643
147	0xbd62aed1	-0.0553425
148	0xbccb589c	-0.024822526
149	0x3d352c14	0.04423149
150	0x3caf03d6	0.021364134
151	0x3cc11342	0.023568753
152	0xbca73e2d	-0.02041539
153	0x3cbd975b	0.023143461
154	0x3c890430	0.01672563
155	0xbd06cc9c	-0.032909974
156	0xbca8bc00	-0.020597458
157	0x3cf195ae	0.029490318
158	0xbd11cc6a	-0.035595335
159	0xbd2237a9	-0.039603863
160	0xbd0aa0fa	-0.033844925
161	0xbd2b68a0	-0.041847825
162	0x3c1936a3	0.009351405
163	0x3c8f1aac	0.017468773
164	0x3d792898	0.06082973
165	0xbcce2ae0	-0.025166929
166	0xbcf8c70e	-0.030368354
167	0xbd24a6d8	-0.040198177
168	0xbd9eff0a	-0.077634886
169	0x3d32b472	0.043629117
170	0xbc9212da	-0.017831255
171	0xbd9d57f4	-0.07682791
172	0xbc0292f3	-0.007969606
173	0x3cfa295e	0.030537304
174	0x3d74f71b	0.05980597
175	0xbdc98c6b	-0.09841236
176	0x3de06928	0.10957557
177	0xbbd8220e	-0.0065958565
178	0xbac6b890	-0.0015161205
179	0xbd32b74e	-0.043631844
180	0x3c7674c7	0.01504249
181	0x3dcda35d	0.10040925
182	0xbb710f44	-0.003678278
183	0xba16795a	-0.00057401287
184	0x3c585163	0.013202998
185	0x3d9bb0e1	0.07602096
186	0xbd9af071	-0.07565392
187	0xbb40fa15	-0.0029445936
188	0xbca646fc	-0.02029752
189	0x3df50ceb	0.119653545
190	0xbda24f48	-0.07925278
191	0xbd57342f	-0.05254
192	0xbc7d5ab6	-0.015463522
193	0xbd703d80	-0.0586524
194	0x3db5cb90	0.08876717
195	0xbc774b60	-0.015093654
196	0x3c8c97fe	0.01716232
197	0xbd08853e	-0.033330195
198	0xbd210d49	-0.03931931
199	0xbcf0079a	-0.0293005
200	0xbd10b35f	-0.03532731
201	0x3d0d0779	0.034430955
202	0xbd1fe722	-0.039038785
203	0x3c6455a8	0.013936438
204	0xbd19dd27	-0.037564423
205	0xbc9f5f0f	-0.019454507
206	0x3d6f131f	0.058367845
207	0x3db07720	0.08616471
208	0xbc9176a9	-0.017756777
209	0x3d489205	0.04896738
210	0x3ceebace	0.02914181
211	0x3c6cca9c	0.014452603
212	0x3d1c5fe6	0.038177393
213	0x3d659468	0.056049734
214	0x3d95a4da	0.073068336
215	0xbd9f59b7	-0.077807836
216	0xbc1e81ac	-0.009674471
217	0xbd8d5503	-0.0690098
218	0xbe33f6aa	-0.17574564
219	0x3d693985	0.05693962
220	0xbcba062a	-0.022708017
221	0x3ceec3ab	0.029146036
222	0x3c2876c1	0.010282219
223	0x3ce0fca1	0.027464213
224	0x3d4315ca	0.0476282
225	0x3b6b6f21	0.0035924392
226	0x38da5929	0.000104116574
227	0x3da079a6	0.078357026
228	0x3ca256cd	0.01981678
229	0x3c945fce	0.01811209
230	0x3dcc98dd	0.09990094
231	0xbcbf3b66	-0.023343753
232	0xbdaa2862	-0.08308484
233	0xbc064499	-0.008195066
234	0x3b814a38	0.003945615
235	0x3cd29aab	0.025708517
236	0x3e0ffecf	0.14062046
237	0xbd516d0c	-0.051129386
238	0xbde953b4	-0.11392918
239	0x3cc93901	0.024563314
240	0x3cfd9ad7	0.030957622
241	0xbd1465e5	-0.036229987
242	0xbcee720a	-0.029107112
243	0x3d8f478d	0.06996069
244	0x3d153c47	0.036434438
245	0x3cc33c6e	0.023832526
246	0xbb3abee2	-0.0028495123
247	0xbd5eb06b	-0.054367464
248	0x3d53d8ce	0.051720433
249	0xbd24adcd	-0.04020481
250	0xbd9943dc	-0.07483646
251	0x3d192a5f	0.037393924
252	0xbd1b4cff	-0.037915226
253	0x3b924c05	0.0044646286
254	0xbd094e04	-0.033521667
255	0x3d9eff47	0.07763534

gru.bias_ih_l1 f4 [384]
0	0x3d7436cc	0.05962257
1	0xbc716e8c	-0.014735829
2	0x3d807d20	0.06273866
3	0xbc65cc63	-0.01402578
4	0x3d3513a6	0.04420819
5	0x3c4b0e76	0.0123935845
6	0x3cfd0567	0.030886365
7	0x3d3cc41c	0.046085462
8	0x3d703fff	0.05865478
9	0xbc28f701	-0.010312797
10	0x3d2eb7bd	0.042655695
11	0x3d1e54b0	0.038654983
12	0x3d80ce86	0.06289391
13	0xbbb3c5e6	-0.005486238
14	0xbc2a776c	-0.010404449
15	0x3d16af60	0.036788344
16	0x3d358bd4	0.044322804
17	0x3d7398bc	0.05947183
18	0x3d388cb0	0.045056045
19	0x3b2605f9	0.002533315
20	0xba0a6ecd	-0.0005280793
21	0x3d547a82	0.051874645
22	0x3d7b3934	0.06133385
23	0x3c52906c	0.012851816
24	0x3d57b2dc	0.052660808
25	0x3d17b751	0.03704006
26	0xbb88334a	-0.0041565048
27	0x3c25080d	0.01007272
28	0xbbe6096c	-0.007020166
29	0x3d9028db	0.070390426
30	0x3c7f092f	0.015566154
31	0x3cb434da	0.021997858
32	0x3d01c879	0.031685326
33	0x3d5bfb05	0.053706188
34	0x3d877158	0.066134155
35	0x3d36a135	0.044587333
36	0x3d54e47d	0.051975716
37	0x3d20f0b5	0.039292056
38	0x3c1f4565	0.009721135
39	0x3c826a1a	0.015919734
40	0x3d5d6b6e	0.05405753
41	0x3cda29bb	0.026631227
42	0x3aeb9b3f	0.0017975344
43	0x3d6db564	0.058034316
44	0x3bce8d4e	0.006303466
45	0x3d03816e	0.032105856
46	0x3d0e81b9	0.034791682
47	0x3d0c2260	0.03421247
48	0x3d683379	0.056689713
49	0x3d242761	0.040076617
50	0x3d14f4d7	0.03636631
51	0xbc3e586d	-0.011617762
52	0x3cf3880b	0.029727956
53	0x3d18da90	0.037317812
54	0xbb08dcae	-0.0020883488
55	0x3a8b81ee	0.001064358
56	0x3cb22628	0.02174671
57	0x3d0b872a	0.03406445
58	0xbc94741c	-0.018121772
59	0x3c7f6b83	0.015589598
60	0x3cee09ea	0.029057462
61	0x3ce50af5	0.027959326
62	0x3bc9235d	0.006138249
63	0x3d8be179	0.06830115
64	0x3cc39f23	0.023879593
65	0x3b47494f	0.0030408686
66	0x3d104d59	0.035230014
67	0x3c5abccf	0.01335068
68	0xbb55d838	-0.0032630097
69	0x3ab68d26	0.0013927564
70	0x3d18d107	0.03730872
71	0x3d1dd6a8	0.03853479
72	0x3d713287	0.058886077
73	0x3d46c8d3	0.048531365
74	0x3d67a361	0.056552295
75	0xbc468397	-0.012116334
76	0x3c5ee0d7	0.013603411
77	0x3cdfefd0	0.027336031
78	0x3d1833d0	0.037158787
79	0x3cde99d2	0.027172957
80	0x3cb44e45	0.022009978
81	0x3d395b39	0.045253012
82	0xbbdbe602	-0.0067107687
83	0xbc4752ec	-0.012165766
84	0x3d8ae75c	0.067824095
85	0x3ca571f5	0.02019594
86	0x3cc6425d	0.024201566
87	0x3d865102	0.0655842
88	0x3cf8bad0	0.030362517
89	0x3d41fba3	0.04735912
90	0x3d913744	0.07090619
91	0x3ca15270	0.01969263
92	0x3bc8bcbb	0.006126014
93	0xbbf4c611	-0.0074699004
94	0x3badab75	0.0052999803
95	0x3bd2297d	0.006413637
96	0x3d08994d	0.033349324
97	0xbbc7c447	-0.006096396
98	0x3cb4f9c8	0.022091761
99	0x3d71d7b1	0.05904359
100	0x3c8adfc6	0.016952407
101	0x3becf86d	0.007231763
102	0x3d3f02a7	0.04663339
103	0xbc0391cf	-0.008030369
104	0x3d9d662e	0.07685505
105	0x3d323baf	0.04351395
106	0x3d2e71ee	0.04258912
107	0xbd1283d9	-0.03577027
108	0x3d731ddc	0.059354648
109	0x3cd9ffc5	0.026611218
110	0x3d58fe18	0.052976698
111	0x3d1797dc	0.03701006
112	0x3d0ce083	0.0343938
113	0xbd20719f	-0.039170858
114	0x3bedea9a	0.0072606327
115	0x3c63ffe2	0.013915988
116	0x3d2fce36	0.042921267
117	0x3c84e2fb	0.016221514
118	0x3c40a3bb	0.011757786
119	0x3d4ac98f	0.049508628
120	0x3d73a890	0.059486926
121	0x3b58dab9	0.0033089353
122	0x3d265280	0.040606022
123	0xbc5b02ce	-0.013367368
124	0x3d11a5fa	0.03555868
125	0x3c11dc7b	0.008902664
126	0x3d3703e5	0.04468145
127	0x3d69fe29	0.05712715
128	0xbd481b13	-0.048853945
129	0xbd727989	-0.059197936
130	0xbc96f087	-0.01842524
131	0x3c5e76a2	0.013578089
132	0x3d777668	0.060415655
133	0xbcefb244	-0.029259808
134	0x3d203458	0.03911242
135	0x3d32fa80	0.043695927
136	0xbcb0602d	-0.021530235
137	0xbc491256	-0.012272438
138	0xbb21a761	-0.0024666416
139	0x3ba399cd	0.0049926997
140	0xbcd821ce	-0.026383307
141	0xbd319e1d	-0.04336368
142	0x3d8b2cdf	0.06795668
143	0x3d4225f0	0.04739946
144	0xbc2a2250	-0.010384157
145	0x379ed731	1.8935274e-05
146	0x3bebb3da	0.007193071
147	0x3d6e6052	0.058197327
148	0x3d840351	0.06445945
149	0xbcdfa627	-0.027300907
150	0xbd12da25	-0.03585257
151	0xbcfd097e	-0.030888315
152	0x3c87a632	0.01655874
153	0x3c5a0293	0.013306278
154	0xbcab2200	-0.020890236
155	0xbd1c317f	-0.03813314
156	0xbd0e3dc9	-0.03472689
157	0xbd120511	-0.035649363
158	0xbcebad99	-0.028769301
159	0xbd656022	-0.055999883
160	0x3da618e1	0.08110214
161	0xba75bfec	-0.0009374607
162	0xbd2e0087	-0.04248097
163	0xbd5432c0	-0.05180621
164	0xbd777e7c	-0.06042336
165	0xbd4b4a3c	-0.049631342
166	0xbd0217ce	-0.031760983
167	0x3db10aa0	0.08644605
168	0x3d12203c	0.035675272
169	0x3dfafaeb	0.1225489
170	0xbc4ce484	-0.012505654
171	0xbda0e945	-0.07856993
172	0xbc1e3bfb	-0.009657855
173	0x3b841a86	0.004031482
174	0x3d1f6d18	0.0389224
175	0x3a0fc32c	0.00054841
176	0xbda06128	-0.07831031
177	0x3cbd77a8	0.023128346
178	0xbc1050a6	-0.008808291
179	0x3df0b1fd	0.117526986
180	0x3d3f536f	0.046710428
181	0xbd6f066f	-0.058355745
182	0x3d882dc5	0.06649355
183	0x3c94d821	0.018169465
184	0xbcce0814	-0.025150336
185	0xbd795319	-0.060870264
186	0x3d9e20d8	0.07721108
187	0x3d861077	0.06546109
188	0xbba6fe74	-0.005096251
189	0xbcaba2a5	-0.020951578
190	0x3c937207	0.017998708
191	0xbd91966c	-0.07108769
192	0xbd816ce4	-0.06319597
193	0xbd85113b	-0.06497427
194	0xbd8307e2	-0.06397988
195	0x3d9b057b	0.07569405
196	0xbc08153a	-0.008305842
197	0x3dd08707	0.101820044
198	0x3cf34362	0.029695217
199	0xbca5469a	-0.020175267
200	0xbcd2e2d3	-0.025742924
201	0xbd7448c6	-0.059639715
202	0xbd5a0284	-0.053225055
203	0x3d16911e	0.03675949
204	0x3d9d5d9a	0.07683869
205	0x3cd878b5	0.026424745
206	0xbd75eb8e	-0.060039096
207	0xbccb7a13	-0.024838483
208	0x3d0d42bc	0.03448747
209	0xbd246783	-0.04013778
210	0x3d9580a5	0.072999276
211	0xbc7c925c	-0.015415754
212	0xbda0fe6c	-0.07861027
213	0xbcf04028	-0.029327467
214	0xbd76176d	-0.060080934
215	0xbd8a5b09	-0.06755645
216	0xbb8de21b	-0.0043299324
217	0xbc9b7170	-0.01897499
218	0xbbe65c1e	-0.007030024
219	0xbd0bda63	-0.034143817
220	0xbd75855b	-0.05994163
221	0x3daac5e4	0.08338526
222	0x3cd3f82a	0.02587517
223	0x3d4435a9	0.047902737
224	0xbb84bd41	-0.004050881
225	0x3d861ce1	0.06548477
226	0x3d5400ed	0.051758695
227	0xbd76012a	-0.060059704
228	0x3db200b7	0.086915426
229	0x3d391d00	0.045193672
230	0x3ce64e5b	0.028113535
231	0xbd0b04f6	-0.033940278
232	0x3d3c5979	0.045983765
233	0x3b630b84	0.0034644315
234	0xbd918fd1	-0.07107509
235	0x3db5f88e	0.08885299
236	0xbd7c04ba	-0.061527945
237	0xbcd2878a	-0.025699396
238	0xbc73a913	-0.014871853
239	0xbb076236	-0.0020657904
240	0x3d0f9413	0.035053324
241	0xbce3afcc	-0.027793787
242	0x3d40a608	0.04703334
243	0xbcde764d	-0.02715602
244	0xbd23c365	-0.039981265
245	0x3d335cc5	0.043789644
246	0xbb9bf666	-0.0047595976
247	0x3cd97801	0.02654648
248	0xbd76ee11	-0.06028563
249	0x3da1a1b6	0.07892172
250	0xbc9e306c	-0.019310199
251	0xbc8259b5	-0.015911916
252	0x3dd79eca	0.105283335
253	0xbcf0a390	-0.029374868
254	0xbd05f3f6	-0.032703362
255	0x3d8097a5	0.06278924
