results/question2_traffic/LSTMmodel_q2.pth (torch, 803375 bytes, 11 tensors)

lstm.weight_ih_l0 f4 [512, 2]
000000 b8 c0 21 bc 5e 3f 80 bd 23 94 a4 bd 69 18 70 bd
       -0.009872608 -0.06262086 -0.08036067 -0.05861703
000010 43 61 c4 3b cd 0b b0 3d d1 84 0d bd 3d 49 6d bd
       0.00599304 0.08596001 -0.03455049 -0.057931174
000020 dc 49 a9 3d fb 90 31 bd 6e 89 94 bd 24 63 d9 3d
       0.08266041 -0.043351155 -0.07252775 0.10614613
000030 c7 19 c8 3d 0b f8 09 3e fb 0c 12 be 9a 1b d3 bc
       0.09770542 0.13473527 -0.14262764 -0.025769997
000040 2e b9 17 3c ee f5 ce 3d 32 1c 44 3c 64 9f 70 3d
       0.009260459 0.10105501 0.011969613 0.058745757
000050 9d 0c a5 bd 6b 79 2b bd d5 8d 5c 3c 51 06 b8 3d
       -0.080590464 -0.04186384 0.01346155 0.0898558
000060 c2 c0 d8 3b a4 f7 a2 bd f0 b3 ad 3b 0f 9c 40 3e
       0.0066147754 -0.0795739 0.0053009912 0.18809532
000070 6e f8 f4 bd a6 5d 8c 3c 5f 27 11 3d a9 d1 36 3c
       -0.11961447 0.017134499 0.035437938 0.011158385
000080 e8 c5 d4 bd 1e e0 a4 bc 4a 76 97 3d 11 63 35 3c
       -0.1038931 -0.020126399 0.07395609 0.011070983
000090 98 bf 0f 3e b1 98 9a 3d 74 52 82 3e 94 19 95 bd
       0.14037931 0.07548655 0.25453532 -0.07280269
0000a0 8b 77 b1 3d f4 8a dc bc 37 3a 12 3e 8d 3a 76 3d
       0.08665379 -0.026921727 0.1428002 0.060114432
0000b0 7a 30 24 3d 0f c8 34 3e e5 63 6d bd 51 ae 38 bd
       0.040085293 0.17654441 -0.057956595 -0.045088116
0000c0 cd 60 66 3d 43 48 cd 3d 38 29 00 3e 71 30 f1 3d
       0.05624466 0.100235485 0.12515724 0.117768176
0000d0 ff 4b a1 3d d5 48 c8 3d 64 74 d9 3d 75 2a 01 3e
       0.07875823 0.097795166 0.10617903 0.12613852
0000e0 4e 08 a9 bc 96 0f 93 bd b8 55 9a bc c7 09 9c bd
       -0.020633843 -0.07180707 -0.018839702 -0.076190524
0000f0 d0 97 76 3c 0e 5a 95 3d 99 f3 92 3d b1 7f 47 3d
       0.015050843 0.07292567 0.07175369 0.04870576
000100 56 99 a5 3d 43 0d 5a 3d 78 d8 07 3e 74 83 ea 3d
       0.08085887 0.053235304 0.1326617 0.11450854
000110 7d c8 ff bd 0b 70 54 bc 49 6f b4 3d 17 d2 c7 3d
       -0.12489412 -0.012966166 0.088102885 0.09756868
000120 e1 8b 4d 3d f7 3d 93 3d 50 25 31 3d bc ee c9 3d
       0.050182227 0.07189553 0.043248475 0.09859988
000130 3e bb 86 be 17 e5 34 3d 0d 1a 0b bd 44 c6 73 bd
       -0.2631473 0.04416379 -0.03396039 -0.059515253
000140 33 2e 12 be fb d5 a5 bc 93 4a 02 bd 43 51 74 bd
       -0.14275436 -0.020243635 -0.0318094 -0.05964781
000150 a1 da e9 3d 5f c7 fa 3d 2e d7 e0 3d 26 f8 eb 3d
       0.11418653 0.12245058 0.10978542 0.1152194
000160 3a eb 03 3e e5 98 22 3d d4 a5 36 be 58 e9 ab bc
       0.128827 0.039696593 -0.17836696 -0.02098529
000170 0e 73 eb 3c b3 87 d2 3d af 6a 58 3d 14 d0 ce 3d
       0.028741386 0.10279789 0.052836116 0.100982815
000180 e5 cf 9d 3d 90 1a a4 3d fb be 0a 3e 32 e6 0a 3e
       0.07705668 0.08012879 0.13549416 0.13564375
000190 28 c8 02 3e fa 57 b8 bc f4 af 18 be 78 0c 25 bc
       0.12771666 -0.022502888 -0.14910871 -0.010073774
0001a0 bd a0 8b 3d 5c 32 a9 3d 9b aa 2b bd 50 d6 29 3e
       0.06817768 0.082615584 -0.04191075 0.1658566
0001b0 fd 16 36 3e 71 46 ad 3c d3 7a b7 bd ab 6c c2 3d
       0.17782207 0.021151753 -0.08958974 0.09493383
0001c0 4a 1c fa 3d eb 67 07 3e a7 e9 84 3d c4 10 f8 3d
       0.12212427 0.13223235 0.06489878 0.12112573
0001d0 64 87 de bd c7 5b 92 3d a3 da 1d be 41 b0 2d bd
       -0.108656675 0.071464114 -0.15415435 -0.042404417
0001e0 e1 3f 05 bd 64 9b 6d bd 2f e9 f2 be 45 c1 2c 3a
       -0.032531623 -0.05800952 -0.4744353 0.00065900787
0001f0 98 15 9d 3d b2 6b 58 3e ff c4 4a be 50 de 0d bc
       0.07670134 0.21134833 -0.1980171 -0.00865896
000200 da 03 9d bc 79 e1 93 3d 60 28 e5 3d cc 0a ba 3d
       -0.019166876 0.0722074 0.111893415 0.090840906
000210 be b5 11 3e 65 5a 4a bd 83 10 b3 bd e6 18 28 bd
       0.14229485 -0.049402613 -0.08743384 -0.04103937
000220 cb 90 55 be 2d b4 f4 bb 9b 58 31 3d f3 fa cf 3d
       -0.20856015 -0.0074677677 0.04329739 0.10155287
000230 39 52 97 3d 6e 24 f4 3d 4a 81 86 3d 89 bb a5 3d
       0.073887296 0.11921011 0.06567629 0.0809241
000240 47 b6 4d 3e dd d2 1a bd cc 47 23 3e 08 52 c9 bd
       0.20089065 -0.03779875 0.15945357 -0.09830099
000250 99 b6 4d bd 81 a6 a3 bd 0c 7d a2 3d 8b 78 87 bd
       -0.050222967 -0.079907425 0.07934007 -0.066147886
000260 4c 40 29 3e 3f 03 1b 3e 44 77 09 be a1 05 d3 bd
       0.16528434 0.15137957 -0.13424402 -0.10303808
000270 51 e3 9f bd c4 50 0c bd a0 98 05 bd 1c 50 79 bd
       -0.07807029 -0.03425671 -0.032616258 -0.060867414
000280 72 27 9f 3c aa c6 a8 3d 9c 56 ba bd d6 58 05 bd
       0.019427989 0.08241017 -0.09098551 -0.032555424
000290 44 bd 43 be 8d f3 7b 3d 50 fa 9b bc 43 07 55 bd
       -0.19115168 0.061511565 -0.019040257 -0.05200888
0002a0 31 3a ca bc 20 ce 87 bd 42 79 02 3c 6a fd 9e 3d
       -0.024685951 -0.06631112 0.00796348 0.07763179
0002b0 c7 92 d8 3d 25 98 d7 3d 55 0c 34 bd d3 79 4c bd
       0.105748706 0.10527066 -0.043957073 -0.049920868
0002c0 e9 a6 32 3e 22 c3 3e bd 69 ab 2d 3d d8 38 ea 3d
       0.17446484 -0.046572812 0.042399798 0.11436623
0002d0 0d 08 2a 3d 8a 2e e4 3d 2c 29 ec bc a3 7b e8 3d
       0.041511584 0.11141689 -0.028828226 0.11351707
0002e0 8e 9e d0 bc d5 7b 6e 3e 6a a3 ae 3d c7 45 d6 3d
       -0.02546623 0.23289426 0.085272625 0.10462528
0002f0 1e d9 e7 3d bf b0 5f bd 6e bd 90 3c 59 4b b2 bd
       0.11320709 -0.054611918 0.017668452 -0.08705778
000300 bb c3 e4 bc ad 48 17 bd 9e 77 c1 3b 91 6d b3 3d
       -0.027925363 -0.036934543 0.005904152 0.087611325
000310 b9 54 d9 3c d3 2d 04 bc ba 49 ce 3d c6 00 de 3d
       0.026529657 -0.008067566 0.10072656 0.10839991
000320 67 6b 2a be c2 8f 67 3c 00 ec 38 bc 9d 09 93 bc
       -0.16642533 0.014133396 -0.011286736 -0.01794892
000330 99 23 db 3d 80 cc dd 3d 79 3b 03 3d fe 2f 16 3e
       0.10700149 0.10830021 0.03203914 0.14666745
000340 e3 17 85 bd 44 5b 8f bd 7c d5 35 be 3a e8 0a bc
       -0.06498697 -0.069998294 -0.17757219 -0.008478219
000350 ff 4b 0f 3d fd 27 0f 3e e6 42 31 3e 5e e5 42 bd
       0.034984585 0.13980098 0.17310676 -0.047582023
000360 40 c1 3e bd b3 b6 a4 bd 2d ce bc bd 44 65 03 bd
       -0.046571016 -0.080426596 -0.092190124 -0.032078996
000370 17 a2 18 bd 80 c4 83 bd d6 e2 8e 3d 26 d0 ec 3d
       -0.037263956 -0.06433964 0.06976859 0.11563139
000380 9d 63 85 bd 49 a8 3d 3e ee 25 b3 bc e1 57 9a 3d
       -0.0651314 0.18521227 -0.021868672 0.07536293
000390 db 12 05 3d 95 22 ad 3d 56 8a 7a 3d 99 a9 b1 3d
       0.032488685 0.084538616 0.061167084 0.08674926
0003a0 7c 54 06 bd a8 20 5a bd fe 18 07 bd 95 8a f7 3d
       -0.032795414 -0.0532538 -0.03298282 0.12086979
0003b0 05 eb 80 3d 62 9e c2 3c 26 00 dd 3d 9f 6e f3 3d
       0.062948264 0.023757163 0.10791044 0.11886334
0003c0 06 75 13 bc d6 52 94 3d 11 3d f4 bd 0b 29 ba 3d
       -0.0090000685 0.07242362 -0.1192571 0.090898596
0003d0 ae d6 46 bb 2a ab 60 bd 8e 02 8b bd 5e 5d 62 bd
       -0.0030340361 -0.054850735 -0.06787597 -0.055264823
0003e0 d9 30 34 3c 09 63 a0 3d 75 c7 8f bc 0f f8 60 bd
       0.010997974 0.078313895 -0.017551163 -0.054924067
0003f0 f7 ab a0 be b8 f8 45 3c 3b 6c 14 3f ca 7d bf bc
       -0.313812 0.012083225 0.57977647 -0.02337541

lstm.weight_hh_l0 f4 [512, 128]
000000 37 df 7a b9 0c 06 d7 39 83 30 18 ba b3 82 69 b9
       -0.00023925012 0.000410125 -0.00058055687 -0.00022269301
000010 d1 21 b9 b9 8d ed c9 b9 5f d0 06 3a 27 93 59 b9
       -0.00035311145 -0.00038514697 0.0005142744 -0.00020749551
000020 48 e0 b2 3a 26 71 07 3a f7 a3 29 ba da b4 a9 b9
       0.0013647163 0.0005166702 -0.0006471271 -0.00032368937
000030 50 06 bf 3a 6f 09 da b9 3b 5d a6 ba db d2 e5 b9
       0.0014574025 -0.0004158723 -0.001269258 -0.00043835383
000040 b0 f9 03 ba 86 72 53 ba 25 86 0d bb 00 5e 8d ba
       -0.000503446 -0.00080660766 -0.002159485 -0.001078546
000050 90 24 c1 b9 e5 12 c8 39 36 05 8f 3a ce e0 6a b6
       -0.0003683907 0.0003816105 0.0010911587 -3.499957e-06
000060 91 55 ce 3a 7d 88 be ba b4 38 41 3a 70 2f b7 39
       0.0015742054 -0.0014536526 0.0007370815 0.00034939824
000070 46 da 87 b9 a0 39 04 b8 45 df b3 b6 91 0a aa 39
       -0.00025911833 -3.152492e-05 -5.3606077e-06 0.000324328
000080 a7 f2 5f ba 62 8c 0d 3a c6 15 ff b9 24 e0 62 ba
       -0.0008542933 0.0005399642 -0.00048653613 -0.00086546154
000090 81 e9 2f 3a 1d fe bd 3a 68 81 e3 ba 14 40 4a b9
       0.0006710515 0.0014495287 -0.0017357292 -0.00019288092
0000a0 e2 77 9b ba d6 71 d2 39 5d 1b 87 ba bc e9 f4 b9
       -0.0011861289 0.00040139136 -0.0010307838 -0.00046713452
0000b0 8c 2d a8 ba 86 2c 65 3a 45 03 1f b9 9a 98 c5 3a
       -0.0012830957 0.0008742291 -0.0001516464 0.0015075386
0000c0 a6 f2 65 3a 3d e9 3e 39 6e 89 19 bb 05 12 03 3a
       0.0008771814 0.000182067 -0.0023427862 0.00049999385
0000d0 ff a4 8c 39 70 f6 12 b9 b0 9e b4 39 af 92 69 3b
       0.00026825813 -0.0001401545 0.00034450507 0.0035640409
0000e0 79 91 ac 3a d1 5b e5 39 54 a8 1a 38 fa 79 34 ba
       0.0013165913 0.00043746692 3.687323e-05 -0.0006884631
0000f0 19 be d7 39 49 64 e6 b8 8d 69 b1 ba 5f 60 5c 3a
       0.0004114963 -0.00010985934 -0.0013535485 0.00084066944
000100 a8 47 26 3a 58 74 54 bb 36 95 0a 3a cd 52 e0 ba
       0.0006343075 -0.003241798 0.00052865164 -0.001711452
000110 2e 9c 04 ba de cb 91 39 85 66 dc 39 72 65 24 3a
       -0.0005058673 0.00027808448 0.00042038053 0.000627122
000120 d4 2c 95 ba be 09 d1 ba 7e 9e c8 b8 f1 c7 54 39
       -0.0011381158 -0.0015948338 -9.5662646e-05 0.0002029238
000130 ab 8c c9 ba 11 1c 5a ba 94 4c 51 b9 7e 02 4e b9
       -0.0015377005 -0.0008320222 -0.00019960321 -0.0001964662
000140 95 ac 98 b9 ab 98 23 39 87 39 37 3a aa f8 67 b9
       -0.00029120283 0.00015601765 0.0006989468 -0.00022122511
000150 3d 0e 69 b6 7f 85 c5 39 76 00 7e 3a a3 6b fe 38
       -3.4727993e-06 0.0003767423 0.00096894 0.00012131713
000160 0b 9f e0 39 a1 97 ad b9 0e 20 4a ba aa 8a ca 3a
       0.00042843106 -0.00033110104 -0.0007710465 0.0015452702
000170 63 53 86 b8 6d 24 2e ba da 77 a5 ba 7a 5d 0d 3a
       -6.40515e-05 -0.0006643001 -0.001262422 0.0005392652
000180 77 37 3d b9 f6 e8 8d 39 52 a4 cc ba 71 63 bb 3a
       -0.00018045107 0.00027067185 -0.0015612936 0.0014296604
000190 7f e1 a1 ba c5 f1 34 b8 84 aa 53 3a 89 24 c3 b9
       -0.0012350528 -4.314051e-05 0.000807442 -0.0003722052
0001a0 1e ce 1e 39 41 4c cc 3a 93 37 c7 39 9e 5f d3 ba
       0.00015144839 0.001558669 0.00037997644 -0.0016126519
0001b0 2e b0 33 b9 61 08 aa 39 9e 38 12 39 f2 77 a2 39
       -0.00017136402 0.0003243117 0.00013944737 0.00030988414
0001c0 cd 6b 16 b9 81 75 80 39 a8 d3 eb 38 38 fa 19 ba
       -0.00014345274 0.0002450161 0.00011245097 -0.00058737723
0001d0 13 7d 92 39 06 4f 69 ba 4c b4 4f 3a 90 b4 35 ba
       0.00027940478 -0.000890002 0.00079232897 -0.0006931508
0001e0 c5 f0 91 39 45 1c d5 ba 9f 43 5d b9 5e c9 ee b8
       0.00027835942 -0.0016259035 -0.00021101393 -0.00011386232
0001f0 10 eb fa b8 3a 3b 3c b9 29 a2 df b9 0c 38 87 3a
       -0.00011964713 -0.00017951141 -0.00042654693 0.0010316386
000200 ac a7 a3 ba 02 3f e4 ba 7b 77 3c 3c 44 c3 b8 ba
       -0.0012485883 -0.0017413797 0.011503096 -0.001409628
000210 71 77 9f bb 26 5e 6c 3b cf 11 92 3c a4 c9 61 ba
       -0.0048665334 0.003606686 0.017830757 -0.00086131156
000220 8b c8 a3 bc 31 91 90 ba 7c fd 1e bb 1e fc 5e 39
       -0.019993087 -0.0011029599 -0.0024259975 0.00021265491
000230 35 37 4a 3c 25 a0 d8 ba 25 2c 2c bb d6 d8 ca 39
       0.012342264 -0.0016527219 -0.002627143 0.00038689998
000240 d0 6f e2 3b 07 60 34 3a 6c 1b ae 3a 1e 10 a5 bc
       0.0069103017 0.0006880764 0.0013283319 -0.020149287
000250 61 ba 00 3d 0f fa 22 3c 71 eb ae 3c 82 0c 2a b9
       0.031427745 0.009947314 0.021352502 -0.00016217123
000260 a3 01 ab bc f9 5e 23 bc 3d 0b 94 bb 12 de 31 3c
       -0.020874804 -0.009971374 -0.0045179413 0.010856168
000270 5b 81 34 ba d6 86 a6 b9 0b 82 ab 3b 2a 2e b8 ba
       -0.00068857305 -0.00031762448 0.005234008 -0.0014051844
000280 c9 a5 2b 3b b8 dd dd bb d4 64 20 3c 19 76 1e bd
       0.0026191345 -0.0067708157 0.009789664 -0.038686845
000290 c9 2c 42 bb be 18 38 bc e6 0f 2d bc 21 68 34 b9
       -0.0029628745 -0.011236368 -0.0105628725 -0.00017204929
0002a0 56 cc ba bb 40 8d a8 3a aa e5 f2 3a d1 b3 ee ba
       -0.0057006283 0.0012859479 0.001853158 -0.0018211548
0002b0 1e f9 cf b7 0e 78 20 bc 53 35 32 3b d6 32 ab bc
       -2.4792327e-05 -0.009794248 0.0027192428 -0.020898264
0002c0 34 ca 99 bb d1 55 26 3d e2 64 7e bc 01 a9 4c bc
       -0.004693294 0.040609185 -0.015526982 -0.012491466
0002d0 4c a5 79 bb 43 78 4c bd 71 24 43 3c 27 37 bc ba
       -0.003809291 -0.049919378 0.011910544 -0.0014359698
0002e0 dc 16 34 bc cb ff b2 bb 4a e9 72 bd 31 5a ae 3b
       -0.010991778 -0.005462622 -0.059304513 0.0053208102
0002f0 d6 ef 9d 3a 1f a6 d6 3b 05 03 11 ba cc c3 48 bc
       0.0012049626 0.006550565 -0.0005531761 -0.012253713
000300 c5 b0 04 ba 4b 1e f9 ba 4f 4b 4d 3a 4e 07 82 3c
       -0.0005061741 -0.001900622 0.0007831351 0.015872624
000310 42 e0 50 3c 4e d4 ff bb f0 15 82 bb da a0 85 bb
       0.01274878 -0.007807291 -0.0039699003 -0.004078013
000320 e0 8a 98 3a db 94 e0 3c e7 55 e2 b9 67 f1 3a 3c
       0.0011638068 0.02741473 -0.0004317008 0.011410094
000330 72 f4 76 ba af 61 03 3b 4f ea 9b 3b 83 5c 34 ba
       -0.00094205805 0.0020047238 0.0047581564 -0.00068802404
000340 8a 85 c7 3a a2 e1 dd bb cf 47 cc 3b d8 71 a0 ba
       0.0015222293 -0.0067712823 0.006234146 -0.0012240959
000350 92 57 2b 37 f6 4a fc bb 92 1a 40 3b cf 8a 63 b8
       1.0212783e-05 -0.0076993657 0.0029312712 -5.4250293e-05
000360 f8 1c 3a 3b f4 33 22 3b 97 ab 70 3b a5 11 a8 bc
       0.0028398614 0.0024750205 0.003672337 -0.020516226
000370 6a 9a ce 3c 9d 23 95 3b 67 4d 49 3c 66 e9 c9 38
       0.025220115 0.0045513646 0.012286521 9.627901e-05
000380 67 18 e0 b9 54 08 01 bc f2 3d 27 3c cf 68 2b 3c
       -0.0004274279 -0.007875521 0.01020764 0.010462
000390 d3 b9 48 bb 70 7b 8b b9 49 be a1 3b 03 e6 8c 3c
       -0.0030628338 -0.00026604114 0.004936014 0.017199522
0003a0 d7 d1 e1 b8 d3 97 ca bb 3d b1 2e bc f9 5b 14 3c
       -0.00010767922 -0.0061826496 -0.010662374 0.009055131
0003b0 c0 89 14 ba 2f 63 0c 3b e8 94 c8 37 85 4b 4c bb
       -0.00056662783 0.0021421423 2.3911198e-05 -0.0031172943
0003c0 e4 09 48 3d 4f 61 0b ba 11 93 44 3b bb ce 7f 3b
       0.048837557 -0.00053169293 0.0029994885 0.0039033133
0003d0 ae 6c a6 3a bb a5 32 3c f5 53 b0 ba fc ee 9a 3b
       0.0012697184 0.010903771 -0.0013452756 0.004728196
0003e0 1f e3 fe 38 e1 d2 7d 3c c4 a0 7f b9 a0 95 a8 b9
       0.000121539684 0.015492172 -0.00024378585 -0.00032154936
0003f0 21 3c 07 ba bf 31 ba 3a f0 10 b8 3b ff b9 15 bd
       -0.0005158801 0.0014205499 0.0056172535 -0.036554333

lstm.bias_ih_l0 f4 [512]
000000 3b e8 28 bb 98 75 4c 3d 87 7b 36 bc 86 1c 32 ba
       -0.0025773186 0.049916834 -0.01113785 -0.00067944115
000010 a5 49 40 3d dd 84 03 3c 9c 4b 8e 3c e3 30 7c 39
       0.046945233 0.008027283 0.017370038 0.00024050804
000020 ef ae 02 3d 87 91 40 3b ef 75 a3 bd ff cb 38 3c
       0.03190511 0.0029383616 -0.079814784 0.011279105
000030 8a 72 aa 3b 95 85 30 3c 2d b5 cb bd d7 a8 d7 3a
       0.0052016424 0.010774036 -0.09946666 0.0016453516
000040 f6 e3 a2 3d 33 01 b7 bb 10 17 8f 3c 28 cf 9f 3b
       0.07953636 -0.0055848598 0.017467052 0.00487699
000050 67 22 be 3d f7 e3 bd 3c bd ba 03 3e e9 b6 b4 ba
       0.092839055 0.023179991 0.12864204 -0.0013787422
000060 82 ec 81 bb 80 81 53 3b 49 1d 45 3c 4c fe d7 bb
       -0.0039649615 0.0032273233 0.012030908 -0.006591594
000070 f9 14 58 bb 70 a1 e3 b9 d9 fc 77 bc 1f e4 a4 3b
       -0.0032971485 -0.00043417094 -0.015135967 0.005032077
000080 2a 4d 0c 3c 25 62 d6 3c 82 27 1f 3e ea 4e d4 3c
       0.008563319 0.026169846 0.15542415 0.025916535
000090 01 1f a2 3b 21 a0 82 bd 28 03 07 3e aa 3b 86 ba
       0.0049475436 -0.063781984 0.13184798 -0.001024117
0000a0 4e fb 82 bd b3 8a 0c b8 72 bc 6d 3c 8c 0e 16 3c
       -0.06395589 -3.3507775e-05 0.014510261 0.009158742
0000b0 52 48 88 3d 2a 40 0a 3e 79 9d c5 bb f4 f9 86 39
       0.06654419 0.13501039 -0.006030735 0.000257447
0000c0 a8 52 72 3c cc 16 f7 3c fa e0 1e bb 05 8c 19 3e
       0.014790215 0.030162238 -0.0024242983 0.1499482
0000d0 f9 e1 02 3c e3 1c 69 3c 79 2b a9 3c 80 38 5c 3d
       0.007988446 0.014228079 0.020650612 0.05376482
0000e0 bd ae 04 3d c0 23 d3 3b 5d da b7 3d b2 64 8a 3d
       0.032393206 0.0064434707 0.08977196 0.06757487
0000f0 51 4d a0 b9 7f 21 2b 3e ab 25 f4 39 21 e5 08 3e
       -0.00030575183 0.16711996 0.00046567371 0.13368656
000100 cb 13 08 bb 8a 99 3a bc 9e 47 dc 3d 5b 0d 42 3d
       -0.002076375 -0.011389146 0.107558474 0.047376018
000110 63 58 13 3e c8 1b 98 3a 5e 7d 5b 3c 40 71 05 3c
       0.14389186 0.0011604959 0.013396589 0.008144677
000120 85 30 00 3e c6 dd a2 3d 6d 32 2f bb 5c e0 2b 3d
       0.12518509 0.07952456 -0.0026732937 0.041962013
000130 b3 d1 37 3c e1 06 cd 3d f9 b6 3f 3d e2 ff 14 ba
       0.01121943 0.10011078 0.046805356 -0.00056838815
000140 74 da cf bb b9 0b f0 3d 1e f4 71 3d ac d5 e8 ba
       -0.0063431803 0.11720986 0.0590707 -0.0017763874
000150 fe 8e 62 b9 9c 25 83 bc ff d5 9a 3c 13 50 f7 ba
       -0.00021606308 -0.016009144 0.01890087 -0.0018868468
000160 03 77 06 3e c5 ba 34 3b 40 91 f3 3b 9f c0 3b 3d
       0.13131337 0.0027577144 0.0074330866 0.045837995
000170 99 7d f8 3b 7f 7c bc 3b 7f 2e ed bc d2 32 7a bb
       0.007583332 0.005752146 -0.028952835 -0.0038177264
000180 88 f9 64 ba a2 91 8a bc f0 62 b5 bc de 7a 3b 3c
       -0.0008734693 -0.016915146 -0.022141904 0.011442868
000190 9c 1e 8d 3d 86 ec d8 b9 e0 23 dc 3b e9 b3 15 bc
       0.06890604 -0.00041374954 0.006718144 -0.009137132
0001a0 09 67 8d bb 0e 52 25 3e f4 96 0e 3d 1e 55 32 3d
       -0.0043152613 0.16144583 0.03481193 0.043538205
0001b0 d3 cd 09 bb 7f ef 05 3d 1e 25 5a bb 37 bc 28 3c
       -0.0021027222 0.032699104 -0.0033286284 0.01029878
0001c0 30 e8 68 3b 94 ef 58 39 a4 3c 13 bc 83 a1 e2 3b
       0.0035538785 0.00020688615 -0.008986626 0.0069162264
0001d0 41 82 47 ba 33 f9 8d 3d cd e8 ab 3b fa 87 04 3c
       -0.0007610657 0.069322966 0.005246258 0.00808906
0001e0 3d 3c bd 3a 8d 6e 01 3d a7 9f 4a bb a9 80 69 bb
       0.0014437508 0.03159957 -0.0030917914 -0.0035629666
0001f0 58 3b df bb d8 a3 7a bc ba f2 87 3b e3 a3 28 be
       -0.0068124942 -0.015297852 0.0041488083 -0.16468768
000200 b8 f6 6a ba 06 0f 08 3c e8 4b ba bb d0 d6 3d 39
       -0.00089631556 0.008304363 -0.0056853183 0.00018104468
000210 66 f5 b5 3c 94 66 cf ba 4e b2 03 3d e0 bb 12 bb
       0.022211742 -0.0015823417 0.032152466 -0.0022389814
000220 54 b0 1f bb f0 b1 da ba f3 15 81 ba 22 29 e5 bb
       -0.0024366574 -0.001668511 -0.000984846 -0.006993429
000230 9c 60 d6 bc c6 ae 92 bb fe 16 88 3d 35 42 6f bb
       -0.026169114 -0.004476401 0.066450104 -0.0036507968
000240 41 7f 9c 3c 16 88 f9 3b 68 5d 89 3a 8d e7 eb 3c
       0.019103648 0.0076150997 0.0010480108 0.028796935
000250 5c 10 4f 39 bf 40 30 bb 27 f9 88 bb e3 4b 8f b9
       0.00019747153 -0.002689406 -0.004180092 -0.00027331625
000260 e8 e3 5b bb 51 85 d6 3b 5a a9 b4 3a cb d3 3c 3c
       -0.003355259 0.0065466543 0.0013783381 0.011525105
000270 bf df 88 ba b4 c3 98 b8 62 ed d9 bb 2a 2d e4 3b
       -0.0010442658 -7.284377e-05 -0.0066506127 0.006963392
000280 15 f8 ac 3b 21 af f0 bb 61 36 b8 3c d4 25 94 3c
       0.005278597 -0.0073450957 0.022486867 0.018084444
000290 4b c9 da ba 8d 1e 1a 3b 3f 55 26 be f1 39 14 ba
       -0.001669207 0.0023516745 -0.16243456 -0.0005654386
0002a0 93 30 25 3d e8 5a 8b 39 85 7c 95 3a cd e2 26 bc
       0.040329527 0.00026579876 0.0011404908 -0.010185909
0002b0 5e 42 3b 3d 30 4c d7 3c 09 4c 63 3c 38 03 90 bb
       0.04571759 0.026281446 0.013873109 -0.004394915
0002c0 fd 94 33 3b 61 d3 e1 3d 49 3a 66 bd 35 5f 0d 3d
       0.0027402036 0.110266455 -0.05620793 0.034514625
0002d0 d3 bd c2 bb d8 d6 74 bc 34 d3 9e bb 6b ec dc 3b
       -0.005943039 -0.014943801 -0.0048469547 0.0067420504
0002e0 0a 22 ea b9 6e 2b 0a 3c 57 d7 9b 3d 37 7c 4e 3c
       -0.0004465732 0.008433206 0.07609432 0.012602857
0002f0 9c 0b 2c 39 52 9a 70 3c 66 30 70 bc 4b 13 b9 3b
       0.00016407523 0.01468523 -0.014659977 0.005648052
000300 d2 d6 16 bb f8 de b3 3c 68 32 a7 3d 9e 3d b3 3c
       -0.0023016226 0.021956906 0.08163911 0.021879967
000310 08 c2 90 3c 33 33 5d 3c 1c 5d e6 3a 28 9f e8 39
       0.017670646 0.013500976 0.0017575356 0.0004436907
000320 63 b9 be bb 3b 76 02 3e b3 9d be b9 21 f5 f5 3c
       -0.0058204397 0.12740414 -0.0003635712 0.030024113
000330 82 31 e8 bc ca 8a c7 3d 30 ba a4 3a ca 54 d7 b8
       -0.02834392 0.09743269 0.0012567695 -0.00010267792
000340 37 0c ef bb 64 b0 3b 3d 43 e4 07 3d cc 7e 82 b9
       -0.0072951573 0.045822516 0.03317667 -0.00024890003
000350 c0 4f 00 b8 fe cc 61 bb 99 df 79 3b 68 85 05 ba
       -3.059185e-05 -0.003445446 0.003812766 -0.00050934264
000360 25 da 77 bb dd 00 96 3b 50 2c 18 bb fc 4b 87 bb
       -0.0037819233 0.0045777396 -0.0023219772 -0.004128931
000370 28 ac 80 3d ee 4c 01 3b a9 75 35 3c 94 91 4e ba
       0.06282836 0.0019729692 0.011075416 -0.0007879969
000380 45 d6 f5 b9 80 6f 08 bc b6 60 70 bc 95 67 1c bb
       -0.00046889685 -0.008327365 -0.014671495 -0.002386545
000390 84 77 4c 3c 07 2b 3c b9 67 69 f7 bb 6f 3b 34 3d
       0.012479667 -0.00017945106 -0.0075504067 0.044001993
0003a0 0c 2d 95 ba 50 be 9a 3c 66 76 20 3c 42 3c 0a bc
       -0.0011381223 0.018889576 0.009793853 -0.008437218
0003b0 cd 4a 2e b9 a0 1d 84 3c fa 77 93 b9 21 e7 b2 3a
       -0.00016621799 0.016127408 -0.00028127414 0.0013649204
0003c0 62 f3 4a bc 20 8e 7d 3b 00 2d fd bb fd 35 c0 39
       -0.012387129 0.003868945 -0.0077263117 0.00036661318
0003d0 04 5b 85 b9 a1 6b db ba a1 67 79 3a 1f 64 b5 3a
       -0.0002543555 -0.001674045 0.0009514038 0.0013839043
0003e0 e6 47 76 bb 68 ea 9d bc aa 09 8c ba 53 2b 01 ba
       -0.0037579476 -0.019276813 -0.0010684032 -0.0004927415
0003f0 6f a4 14 bc 27 61 9a bc 6b 64 4c 3d 42 0f 41 3e
       -0.009072407 -0.018845154 0.049900454 0.18853477

lstm.bias_hh_l0 f4 [512]
000000 cb e7 28 bb 4e 19 4b 3d 4f 7b 36 bc c2 16 32 ba
       -0.0025772925 0.04958468 -0.0111377975 -0.00067935523
000010 b4 73 6b 3d c8 88 03 3c 4c 4b 8e 3c 3e 4f 79 39
       0.05748339 0.008028217 0.017369889 0.0002377601
000020 e7 bc 02 3d 84 91 40 3b ed 42 7d bd d6 c8 38 3c
       0.031918433 0.002938361 -0.061831404 0.011278352
000030 72 0f b2 bc d1 d9 2f 3c 0e 91 50 bd 3f a9 d7 3a
       -0.02173588 0.010733084 -0.050919585 0.0016453638
000040 cf 34 ba 3d 83 00 b7 bb 6e 17 8f 3c 1e d7 9f 3b
       0.09092104 -0.005584778 0.017467227 0.004877939
000050 47 e8 f1 3d 5c 7a be 3c 00 b9 01 3e cc b6 b4 ba
       0.118118815 0.023251705 0.12668228 -0.0013787388
000060 73 ec 81 bb 9f f5 54 3b 5a 1d 45 3c 89 fe d7 bb
       -0.0039649545 0.0032495034 0.012030924 -0.0065916223
000070 4e 15 58 bb 89 9b e3 b9 c5 fc 77 bc f7 e2 a4 3b
       -0.0032971683 -0.00043412697 -0.015135949 0.005031939
000080 ca 4b 0c 3c 83 62 d6 3c 03 31 1b 3e 6c ef d3 3c
       0.008562991 0.02617002 0.15155415 0.025871001
000090 f4 1e a2 3b b5 c2 82 bd 34 2b 02 3e f3 2e 86 ba
       0.0049475376 -0.06384794 0.12711793 -0.0010237381
0000a0 77 c2 8f bd 20 71 0c b8 76 bc 6d 3c 8b 0e 16 3c
       -0.07019513 -3.3483957e-05 0.014510265 0.009158741
0000b0 36 0d 88 3d 4b 40 0a 3e 83 9d c5 bb 3a fa 86 39
       0.06643145 0.13501088 -0.0060307398 0.00025744905
0000c0 5c 52 72 3c ab 0f f7 3c 5b a3 02 3d 1e 84 fd 3d
       0.014790144 0.030158838 0.03189407 0.12378715
0000d0 ff e1 02 3c 59 4d 56 3c 7f 2b a9 3c 67 7a 4f 3d
       0.007988452 0.013079965 0.020650623 0.05065384
0000e0 bc ae 04 3d c2 23 d3 3b 83 6e 40 3d a9 64 8a 3d
       0.032393202 0.0064434716 0.046980392 0.06757481
0000f0 fb 36 a0 b9 bf f2 fa 3d c7 a4 f3 39 0b 58 06 3e
       -0.00030558542 0.122533314 0.0004647134 0.13119523
000100 fc 11 08 bb b0 98 3a bc 13 9a d0 3d 86 f7 91 3d
       -0.0020762673 -0.011388943 0.10185637 0.071272895
000110 54 13 dd 3d 20 1b 98 3a 61 7d 5b 3c fa 71 05 3c
       0.10794702 0.0011604764 0.013396592 0.00814485
000120 82 b6 c4 3d f4 d3 d5 3d 6e 57 31 bb d0 a6 0d 3c
       0.09605123 0.104408175 -0.0027060169 0.008645728
000130 b3 d1 37 3c b2 4a a5 3d 61 7e 38 3d 6a e5 14 ba
       0.01121943 0.080708876 0.0450424 -0.00056799373
000140 69 da cf bb 36 8b ee 3d 55 40 72 3d 5c d4 e8 ba
       -0.006343175 0.11647646 0.059143383 -0.0017763483
000150 b4 89 62 b9 41 25 83 bc fe d5 9a 3c 6e 50 f7 ba
       -0.00021604338 -0.016008975 0.018900868 -0.0018868574
000160 cc 99 04 3e 1b bb 34 3b 06 93 f3 3b da c1 3b 3d
       0.12949294 0.0027577344 0.007433298 0.045839168
000170 02 96 02 3c 8e 7c bc 3b 28 5d 47 bd c4 32 7a bb
       0.007970335 0.0057521528 -0.048672825 -0.0038177231
000180 26 f9 64 ba a2 91 8a bc 9a 96 b2 ba 67 bd 3b 3c
       -0.0008734636 -0.016915146 -0.0013625205 0.011458731
000190 76 1c 8d 3d 1c eb d8 b9 fa 23 dc 3b 7b 6c 16 bc
       0.06890194 -0.000413739 0.006718156 -0.009181137
0001a0 d6 66 8d bb c0 b2 24 3e f6 96 0e 3d 1e b3 2a 3d
       -0.0043152375 0.16083813 0.034811936 0.041674726
0001b0 be cd 09 bb 66 30 0e 3d 30 31 5a bb 23 bc 28 3c
       -0.0021027173 0.034714125 -0.0033293478 0.010298762
0001c0 a3 3c a8 3b 45 4a 58 39 a2 3c 13 bc 28 a1 e2 3b
       0.0051341816 0.00020627033 -0.008986624 0.006916184
0001d0 40 80 47 ba 1b 04 8d 3d 00 e8 ab 3b b9 87 04 3c
       -0.00076103583 0.06885549 0.0052461624 0.008088999
0001e0 32 f6 bc 3a 2b f3 af 3c b4 9f 4a bb ca 80 69 bb
       0.0014416634 0.021478256 -0.0030917944 -0.0035629743
0001f0 6b 3b df bb c6 e6 ee b9 f3 1d 00 bd 13 aa 2a be
       -0.006812503 -0.00045566837 -0.03127856 -0.1666644
000200 dc f5 6a ba 12 0f 08 3c 57 4c ba bb b0 b8 3d 39
       -0.00089630275 0.008304374 -0.00568537 0.00018093246
000210 ae f6 b5 3c ce 67 cf ba d4 b1 03 3d de bb 12 bb
       0.022212353 -0.0015823783 0.032152012 -0.002238981
000220 50 b0 1f bb ec b1 da ba c0 c8 56 ba 22 29 e5 bb
       -0.0024366565 -0.0016685105 -0.0008193366 -0.006993429
000230 b5 6f cf bc c1 ae 92 bb 4a cd 87 3d df 3f 6f bb
       -0.02532182 -0.0044763987 0.06630953 -0.0036506576
000240 3d 7f 9c 3c ef 86 f9 3b 68 d0 89 3a f4 d3 eb 3c
       0.01910364 0.0076149623 0.001051438 0.02878759
000250 54 11 4f 39 bf 40 30 bb 27 f9 88 bb b5 4c 8f b9
       0.00019747514 -0.002689406 -0.004180092 -0.00027332237
000260 10 e3 5b bb 4f 85 d6 3b 2b b0 b4 3a 39 c9 3c 3c
       -0.0033552088 0.0065466533 0.0013785412 0.011522585
000270 9d e3 88 ba c0 c2 98 b8 6f ed d9 bb 2a 2d e4 3b
       -0.0010443811 -7.2842e-05 -0.0066506187 0.006963392
000280 03 f8 ac 3b 26 af f0 bb 9f 4c b8 3c 9d e2 3b 3d
       0.0052785887 -0.007345098 0.022497473 0.045870412
000290 ba c7 da ba 25 2e 1a 3b c7 ed e9 bd 16 3e 14 ba
       -0.0016691603 0.002352604 -0.114223056 -0.00056550035
0002a0 58 31 25 3d 35 55 8b 39 8f 7c 95 3a cd e2 26 bc
       0.04033026 0.0002657563 0.0011404919 -0.010185909
0002b0 f2 3d 36 3d 36 4c d7 3c 03 4c 63 3c 4d 03 90 bb
       0.04449267 0.026281457 0.013873103 -0.0043949247
0002c0 36 93 33 3b a6 c2 e1 3d 09 98 66 bd 81 b1 09 3d
       0.0027400977 0.11023454 -0.056297336 0.033616547
0002d0 19 be c2 bb de d6 74 bc 80 d2 9e bb 62 ec dc 3b
       -0.0059430716 -0.014943806 -0.004846871 0.006742046
0002e0 67 29 ea b9 6d 2b 0a 3c fd 7e ad 3c 39 7c 4e 3c
       -0.00044662805 0.008433205 0.021178717 0.012602859
0002f0 f3 1f 2c 39 5f 04 7e 3c c3 2f 70 bc 95 13 b9 3b
       0.000164151 0.015503972 -0.014659825 0.0056480863
000300 e3 d6 16 bb f5 de b3 3c 4e 3b 9a 3d 8f 57 b3 3c
       -0.0023016266 0.0219569 0.07530843 0.021892337
000310 a7 02 98 3c fa 34 5d 3c 1c 5d e6 3a c2 d9 e8 39
       0.018555952 0.0135014 0.0017575356 0.0004441273
000320 04 bd be bb 59 c4 02 3e e4 9e be b9 0d 6c fb 3c
       -0.0058208723 0.12770213 -0.00036358007 0.030691171
000330 86 33 e8 bc 99 4c 16 3e e2 7b a2 3a e3 3f d7 b8
       -0.02834488 0.14677657 0.0012396539 -0.00010263899
000340 70 0b ef bb 87 b0 3b 3d 06 e4 07 3d 85 7e 82 b9
       -0.0072950646 0.045822646 0.033176444 -0.00024889797
000350 4d 53 00 b8 57 ce 61 bb 41 df 79 3b 69 85 05 ba
       -3.0595158e-05 -0.0034455264 0.0038127454 -0.0005093427
000360 2d da 77 bb e6 00 96 3b d2 2b 18 bb 07 55 87 bb
       -0.0037819252 0.004577744 -0.0023219478 -0.004130009
000370 2f 31 94 3d 14 4c 01 3b 2e 7f 0a 3c c0 87 4e ba
       0.072359435 0.0019729184 0.008453174 -0.00078785047
000380 e2 dc f5 b9 80 6f 08 bc a3 fc 62 bc 74 67 1c bb
       -0.00046894612 -0.008327365 -0.013854179 -0.0023865374
000390 5c 77 4c 3c de 2a 3c b9 2f 69 f7 bb 04 c6 46 3d
       0.012479629 -0.00017945046 -0.0075503807 0.048528686
0003a0 b9 2b 95 ba 49 be 9a 3c 43 f8 1f 3c 13 cd 0b bc
       -0.0011380828 0.018889563 0.00976378 -0.00853278
0003b0 3b 36 2e b9 c4 1d 84 3c eb 71 93 b9 bb eb b2 3a
       -0.00016614136 0.016127475 -0.000281229 0.0013650575
0003c0 59 f3 4a bc f3 0a 7d 3b f4 2d fd bb 1d 7e c0 39
       -0.01238712 0.0038611263 -0.0077264253 0.00036715055
0003d0 db 42 85 b9 0d 7f db ba 26 66 79 3a 85 68 b5 3a
       -0.00025417548 -0.0016746238 0.00095138175 0.0013840353
0003e0 3a 40 76 bb 68 ea 9d bc 42 09 8c ba d1 24 01 ba
       -0.0037574903 -0.019276813 -0.0010683911 -0.00049264455
0003f0 4a a4 14 bc 96 b1 8f bc 37 aa 7a 3d 96 10 4e 3e
       -0.009072373 -0.017540734 0.061197486 0.20123515

lstm.weight_ih_l1 f4 [512, 128]
000000 90 76 3f 3a cd e2 b9 bb 21 32 0c bc df 47 43 3a
       0.0007303739 -0.0056727887 -0.008556874 0.00074493693
000010 15 8d 2d bd 36 31 fc 37 af 9d 56 3d e1 97 a8 39
       -0.042370874 3.0063657e-05 0.052396473 0.00032156616
000020 0c a8 46 3c df 3a 0f bb 1a 4a 84 3c 87 7b 49 bb
       0.012125026 -0.0021855158 0.016148616 -0.0030743794
000030 0b 24 aa bc 08 95 02 bc 5c 00 4b 3c 55 1e 4d 3b
       -0.02076914 -0.007970102 0.012390222 0.0031298597
000040 c8 61 d7 3b 30 d4 d3 ba bf 55 8d bc 25 e7 a5 3b
       0.0065729357 -0.0016161259 -0.017252801 0.005062955
000050 ce 3b 9e bc c1 1b b6 3c 7e 2d c1 3c 7d 46 e8 37
       -0.019315626 0.022230031 0.023581263 2.7689379e-05
000060 cc 55 d5 3b 5e be aa bc 04 7b 20 bc 83 56 62 bc
       0.006510472 -0.020842727 -0.009794954 -0.013814571
000070 0b 86 77 39 29 b5 00 39 64 fb 58 3b 6a 12 ac 3b
       0.0002360569 0.00012274519 0.0033108825 0.0052512186
000080 07 d4 d5 3b cb 3f 2c bc c7 c9 a2 3b 0b 22 82 bc
       0.00652552 -0.010513256 0.0049679014 -0.015885374
000090 22 9d a6 bb c6 2d f5 ba 53 bf 95 bc 27 b5 97 39
       -0.0050846497 -0.0018705658 -0.018279707 0.00028935933
0000a0 e7 bd 90 bb df d6 ad ba 67 8b 34 3c fa a4 46 3b
       -0.0044171694 -0.0013262889 0.011019564 0.0030310736
0000b0 25 32 bb bb 7c 3e 4a bc d7 05 d9 37 35 31 09 3c
       -0.005712765 -0.012343999 2.5871135e-05 0.008373548
0000c0 b8 08 0a bc be 53 f9 3b b3 f6 27 3c e8 6c 91 bb
       -0.00842493 0.00760886 0.010251689 -0.0044380315
0000d0 4c 77 be ba 6b 9f d1 3b 02 a1 4d 3d 3f 91 1e 3b
       -0.0014531403 0.006397178 0.050202377 0.002419546
0000e0 7f fe 7d bb ad e9 c0 bb cf f5 21 bd fd ca 13 3c
       -0.0038756428 -0.0058872313 -0.039541062 0.009020564
0000f0 1b 4c 8f ba f8 9c b3 bb 76 0d d7 bc da cb 28 bb
       -0.0010932715 -0.0054813586 -0.026251536 -0.002575627
000100 5d cd 0b bb e0 54 4e bc 92 58 31 bc cd 14 f7 3c
       -0.0021332123 -0.012593478 -0.010824339 0.030161286
000110 b3 00 03 bb d7 02 39 3b 08 9b 90 bb a4 91 d5 bb
       -0.001998943 0.0028230452 -0.0044130124 -0.006517606
000120 9b 1b 0a 3d 77 fd ae 3c 87 fb 7f 3a a8 cf b7 bc
       0.033717733 0.021361096 0.00097649585 -0.022437885
000130 b3 4a 27 3d e1 0d d6 3c 85 a7 a1 3b a2 b0 03 3a
       0.040842723 0.026129665 0.0049333 0.0005023574
000140 6e c2 d8 3a ff 0f c9 bb df bf 58 ba 27 eb 17 3a
       0.0016537437 -0.00613594 -0.0008268337 0.00057952333
000150 f5 cd 93 b9 7a 42 fc 3b 6a 87 8d bb dc eb 62 ba
       -0.00028191475 0.0076983543 -0.004319121 -0.00086563616
000160 3c ab 8d 3c ac c0 51 3b f8 d6 09 bc 89 4d 46 3c
       0.017293565 0.003200571 -0.008413069 0.012103447
000170 f9 17 b6 3c 96 28 14 3c a6 ac 7f 3a d4 57 fb ba
       0.022228228 0.00904288 0.00097532046 -0.0019175955
000180 0b 01 1c 3a 67 95 d5 3b 03 11 77 3b 8f 82 1e 3d
       0.0005951083 0.0065180543 0.0037699349 0.03869873
000190 b5 6f f4 3c 52 b1 02 3a 04 91 d7 bb 45 8e 06 3d
       0.029838422 0.0004985529 -0.0065785665 0.032850523
0001a0 cd 0e 98 ba f4 b2 81 bc d8 12 ba ba 10 f8 c3 3b
       -0.0011601091 -0.015832402 -0.001419629 0.005980499
0001b0 cc 4a 07 3a e8 c0 b6 3b 46 e7 0e ba b8 2f 37 bb
       0.0005160987 0.0055771954 -0.00054513325 -0.0027952027
0001c0 9d 4b d3 3b 96 30 ba bb e5 13 b9 ba 31 a1 ef 3b
       0.006448223 -0.0056820614 -0.0014120309 0.0073129167
0001d0 8a 77 75 ba 23 b1 07 bc 38 55 9d bb 18 08 9c b9
       -0.0009363821 -0.008281979 -0.0048014186 -0.0002976067
0001e0 07 ec b4 39 c6 12 f6 3b d7 ed 9e b8 a5 e8 ae 3a
       0.0003450813 0.007509562 -7.578328e-05 0.001334448
0001f0 21 82 97 bb 0e af b9 3c 37 f2 30 bd 06 51 43 3a
       -0.004623667 0.02266648 -0.043199744 0.0007450733
000200 45 cb bb 39 08 73 26 bc 85 b3 3f bd 17 f0 e9 39
       0.00035818867 -0.0101592615 -0.046802063 0.00044620104
000210 71 e9 40 3d 10 32 6c bc 00 85 29 3d 7c 4c 96 bb
       0.047097627 -0.014416233 0.041386604 -0.0045867544
000220 d6 a7 fa 3c 10 da 40 3b ad 2e bf 3b 39 95 82 3b
       0.030597609 0.002942685 0.0058344216 0.003985074
000230 9a 71 99 bd 95 b6 b8 3b d2 ec 39 3d e5 bb eb 3a
       -0.07492371 0.005637 0.045391865 0.0017985074
000240 a1 df 10 bb 29 f2 ae ba dd 80 a3 3c df ea 20 3d
       -0.002210595 -0.0013347316 0.019958908 0.03928649
000250 8d 88 b0 3c 67 30 1f bd 9f 79 0d bd 37 6e a9 ba
       0.021549487 -0.03886452 -0.034539815 -0.0012926523
000260 b3 ca 88 3b d3 05 44 3d 24 68 3c bb 9f 7e 4d bd
       0.0041745543 0.047857117 -0.0028748596 -0.050169583
000270 38 ef c4 39 21 04 54 39 5d b4 ca 3c 9d 7e 90 3c
       0.00037562265 0.00020219434 0.024744207 0.017638499
000280 21 c9 38 3b 27 ff 83 3b 8c 96 c9 38 0e b5 88 bc
       0.0028196054 0.0040282193 9.6124684e-05 -0.016687896
000290 33 da 4e bb fc 71 4c bd f4 20 ae 3d 8a b3 a4 38
       -0.0031563162 -0.04991339 0.08502379 7.853571e-05
0002a0 34 84 7a bc fe 8a b0 b9 89 b8 fe 3c af 61 c5 3c
       -0.015290309 -0.00033672893 0.031093853 0.02409443
0002b0 39 30 b9 3d c4 f2 f3 bc c8 53 90 bc d0 31 23 3c
       0.09042401 -0.029778846 -0.017618075 0.009960607
0002c0 8f 8f ea bb 7c f3 22 bc ba 9f 95 3d 29 df 90 3a
       -0.007158227 -0.0099457465 0.07305856 0.0011052835
0002d0 b3 23 c8 3a eb 77 d1 3c 6b ba 33 bd df d4 e9 bc
       0.0015269428 0.025569877 -0.043878954 -0.028543888
0002e0 8a 68 12 bd ac c6 9d 3b 59 7e 7f bd d1 02 85 3c
       -0.035744227 0.0048149433 -0.062376354 0.016236695
0002f0 f4 cb ae b9 02 7d 18 bd b8 25 b6 3d a5 d1 2e 3b
       -0.00033339823 -0.03722859 0.08893913 0.002667525
000300 95 e9 0c bc 84 de 50 bc 96 b1 3c bd 3e 16 87 bd
       -0.008600612 -0.012748364 -0.046067797 -0.06596039
000310 ee 38 79 bc f4 f3 9d 3c c6 9e f2 3a b7 5d 20 bb
       -0.015211327 0.019281365 0.0018510453 -0.002446992
000320 e8 fd d6 3c dd 5a b3 bb 5d fc 06 3a a9 80 89 bc
       0.026244119 -0.005473478 0.00051492994 -0.016784983
000330 88 da c1 3d c3 07 62 3d 92 fe 13 bb 4c b1 89 b9
       0.0946551 0.055183183 -0.0022582156 -0.00026262773
000340 5b 92 7d bc 88 df e6 3b ba c1 41 ba d2 50 29 3a
       -0.015476788 0.00704569 -0.0007391233 0.00064588815
000350 e6 f9 7d 39 95 ee 43 3d 3b 8e 0f bd 6a 3a 47 ba
       0.00024221055 0.04783495 -0.03504775 -0.0007599952
000360 9f 24 1f bd 1f 9a f7 bb e8 09 c7 3c 57 bb f4 3c
       -0.038853284 -0.0075562145 0.024296716 0.029874487
000370 14 40 b5 bc e2 df 57 3b 9e 68 b7 3d 89 7e 2a bb
       -0.022125281 0.003293984 0.08955501 -0.0026015362
000380 ec 23 91 3a fb b1 49 3d ee 88 36 39 c0 24 56 bd
       0.0011073328 0.049242 0.00017407883 -0.05228114
000390 6c a3 87 3d e2 28 62 b9 ed 61 14 bd be 38 67 3d
       0.06622967 -0.0002156827 -0.0362262 0.056450598
0003a0 c6 ab 2b bb 5c 2c 15 bd 2d 21 f4 bc 1b 34 b8 3d
       -0.0026194914 -0.036419258 -0.029800976 0.08994313
0003b0 47 ee 04 b9 09 0b f0 bc 22 45 37 ba f9 e9 bb 39
       -0.00012677266 -0.029302137 -0.00069911976 0.00035841743
0003c0 1a d9 88 bd c5 a4 03 bd 59 2a 23 3c c2 a8 76 3a
       -0.06682034 -0.03213956 0.009958827 0.0009409302
0003d0 a9 8c c7 37 41 a5 86 bd ab 63 ca b9 64 34 61 3c
       2.3788149e-05 -0.065744884 -0.000386027 0.013745401
0003e0 23 a2 87 3c 34 b1 45 bd f2 ba 79 ba 1c b9 f3 3a
       0.016556805 -0.048264697 -0.0009526453 0.0018594596
0003f0 53 c0 ef bc b3 af a5 bb 95 1d 6d bd 8d 6a 86 bc
       -0.029266512 -0.0050563454 -0.05788954 -0.01640823

lstm.weight_hh_l1 f4 [512, 128]
000000 be d2 93 3b d2 64 8e 3c 4d d8 91 3a 7e 1e 71 bb
       0.0045112064 0.01738206 0.0011127085 -0.0036791856
000010 af 37 3e 3d 22 60 02 3c 6b cd b3 3b 2a 26 86 bb
       0.046439823 0.00795749 0.005487134 -0.004093905
000020 07 6a b1 3c 47 cb 1f bc ad 68 42 3a 1b 73 0d 3c
       0.021657003 -0.009753055 0.00074161106 0.0086334
000030 84 e7 25 3b 4e 33 71 bb 93 49 88 bb 5d 04 f6 3b
       0.0025314996 -0.0036804262 -0.0041591614 0.0075078444
000040 1b e8 47 3c 36 74 e3 3b 49 69 51 bb c6 33 ad bb
       0.012201334 0.0069413437 -0.0031953624 -0.005285713
000050 f3 f0 31 3c fe 68 4b 3c 84 e0 31 bb d7 79 55 3a
       0.010860669 0.012415169 -0.0027141878 0.0008143461
000060 c9 6e 31 3a 3e 8c c9 bc 7c 48 23 bb 0b 29 14 3c
       0.00067685224 -0.024603005 -0.002491503 0.0090429885
000070 77 db 36 bb 62 9d 98 3c 6b 3e 16 3c f8 88 82 bb
       -0.0027901807 0.018629733 0.009170155 -0.003983613
000080 4b 9c 66 bc 2e af 55 bb e8 01 f7 3a 91 dd a8 bb
       -0.014075349 -0.0032605636 0.0018845173 -0.005153366
000090 5f 31 08 bc a2 24 e0 3c 8e 1e 88 ba 50 b5 ad 3c
       -0.008312552 0.027361218 -0.0010385083 0.02120462
0000a0 63 05 01 bd 1a cb 01 ba 0d 81 03 3b f1 ae 96 3c
       -0.031499278 -0.0004951224 0.0020065934 0.018393965
0000b0 44 1f 5b 3c 10 02 1d bb 6b f7 c1 ba 55 22 77 bb
       0.0133741535 -0.0023957528 -0.0014798468 -0.0037709672
0000c0 ae 65 7e bb 10 73 93 3c 70 b1 7c 3d 58 01 03 3c
       -0.003881793 0.017999202 0.061692655 0.007995926
0000d0 58 e4 a7 bc c0 7c c7 bb 37 ec 80 bb 60 5e 8a bd
       -0.020494625 -0.0060878694 -0.003934409 -0.06756282
0000e0 01 f0 1d 3a b0 f0 30 3b fd 90 d0 bb 7c eb d2 3c
       0.0006024838 0.002699893 -0.00636494 0.025747053
0000f0 5d b3 26 3d bc f6 24 bb 86 fd bb bb 9e 87 58 bb
       0.040698398 -0.002517148 -0.0057370095 -0.0033039819
000100 50 1a 9c 3b 66 c4 3d bc b1 71 58 bb 59 0c bc 3a
       0.004763879 -0.01158247 -0.003302675 0.0014346942
000110 a5 d8 0e bc ea bf 87 3b 8f a5 b4 ba 87 ee a8 bb
       -0.008718644 0.004142751 -0.001378225 -0.005155388
000120 e3 20 de bb 58 7e d7 bc 2e 62 5c 3c 01 84 69 3c
       -0.0067788227 -0.026305363 0.013451142 0.014252664
000130 d9 98 fe b9 71 13 8d bb e6 d0 18 bd 82 3e e9 bb
       -0.00048560536 -0.004305296 -0.037308596 -0.007118047
000140 51 9e e1 bb 18 52 83 bc f0 3d c1 3b 7f 11 ae 3b
       -0.006885328 -0.016030356 0.005897276 0.0053121443
000150 d6 a8 b9 3b 0b 67 8a bb af 25 75 3b bb 52 6b ba
       0.0056658788 -0.0042237095 0.0037406494 -0.00089768664
000160 d2 a3 a9 3a d9 fd 0b 3c ae 98 84 bb 04 26 9d 3c
       0.0012942499 0.008544409 -0.004046521 0.019183166
000170 ee 38 22 3d cd 66 f8 bc 18 9f 3a b9 d6 81 38 3c
       0.039605074 -0.030322457 -0.0001779761 0.011261424
000180 9a 13 9a 3a 19 1c 94 3a 78 93 93 bb 15 1a 3f bd
       0.0011755109 0.0011299878 -0.0045036636 -0.046655733
000190 b0 a7 87 bb 46 b8 a1 bb 43 ed a7 3b fb cf 84 bb
       -0.004139863 -0.004935297 0.0051247193 -0.0040531135
0001a0 4c c5 85 bb db a9 10 3b 82 d7 39 b8 e0 23 35 3c
       -0.0040823575 0.0022073898 -4.4308144e-05 0.011055917
0001b0 c7 5e 2e bc c1 5d d4 3b 47 0b 03 bb 27 19 07 bd
       -0.010642714 0.006480903 -0.0019995735 -0.03298297
0001c0 70 01 07 bc ca b1 d3 3a 10 d2 e3 39 3b f2 12 bc
       -0.008240089 0.0016151008 0.00043453323 -0.008968885
0001d0 34 da ec b9 33 9a 6d bc 9f 20 9c bc 41 74 cc b8
       -0.00045176002 -0.014502096 -0.019058524 -9.749132e-05
0001e0 f4 f1 1e bc f5 06 f4 bb 33 0d 46 3b e3 ae 6a 3b
       -0.009701241 -0.0074471184 0.003022027 0.0035809807
0001f0 42 ab d9 3c f7 b9 7e 3d 35 49 bd bc 1c 11 8e bb
       0.02657092 0.06218907 -0.023106197 -0.0043355357
000200 21 85 a7 bc c4 c6 0d bd 6d fe 4b 3c ce 54 a8 3b
       -0.020449223 -0.034613386 0.012450797 0.0051370626
000210 df 94 12 bd e7 67 20 bc db 12 cb bc c8 2b c8 3c
       -0.035786506 -0.009790397 -0.024789264 0.024434939
000220 e0 cd 47 3e 41 0e 3a bd a1 2c 0d 3c 52 83 bd bc
       0.19512129 -0.04542375 0.008616597 -0.023133907
000230 cd 75 4a bd 11 b0 08 3c c1 60 02 bc 58 c1 18 3c
       -0.04942875 0.008342759 -0.007957638 0.0093234405
000240 46 85 4e 3c a1 ab ad 3c 62 18 0d bb 92 93 09 be
       0.012605017 0.021200003 -0.0021529426 -0.134352
000250 7d a3 11 bd 96 13 1f 3d 11 e5 09 bd 25 a6 ca bd
       -0.035556305 0.038837038 -0.03366572 -0.09894971
000260 37 ab 74 bc 27 9e d4 ba b5 04 96 3a e7 72 1a bb
       -0.014933399 -0.001622145 0.0011445495 -0.0023567022
000270 20 ee 96 3c 5b 22 c0 3c 82 1b 21 bc 19 07 c9 3b
       0.018424094 0.023453882 -0.0098332185 0.0061348793
000280 49 df be 3b 52 6b 2c bb a1 f6 a0 3a 46 b6 83 3c
       0.0058249575 -0.0026309085 0.0012280532 0.016078126
000290 8a 49 23 3d 1e 4d b0 3d 15 c7 4a bc d7 81 95 bc
       0.039865054 0.08608459 -0.012376566 -0.018250389
0002a0 74 53 ae 3d e7 0f 50 38 8b c6 91 bc a3 2e 07 bc
       0.08512011 4.9605875e-05 -0.017794868 -0.008250865
0002b0 a6 f1 b7 bb f4 5f a2 3c 60 32 b4 3b bc 9f 9e bb
       -0.0056135235 0.019821145 0.005499169 -0.004840819
0002c0 c7 19 f0 bb bc 7e 53 3d d5 f0 64 bb 2f 17 a1 bc
       -0.0073272916 0.051634535 -0.0034933586 -0.019664375
0002d0 65 85 c3 3a 29 99 3c 3c ca fa 70 bc 40 7e a1 bd
       0.0014917074 0.011511126 -0.01470823 -0.078854084
0002e0 e4 7d bd bb 6c d8 47 3d 58 f8 b1 bd 86 cf 72 3d
       -0.0057828296 0.04879038 -0.08689946 0.05927994
0002f0 ef 0e 1f ba 69 01 6d bc b3 42 82 3a 05 54 36 bc
       -0.0006067594 -0.014465668 0.0009938091 -0.01112843
000300 cf 64 42 be 52 d9 29 3d a3 df 37 bc 87 d7 c0 bc
       -0.18983768 0.04146702 -0.011222753 -0.023540271
000310 86 73 7b bc 83 4b 96 3d e8 c2 51 bc 86 3a 3d 3a
       -0.015347367 0.073386215 -0.012802817 0.00072184985
000320 c0 6a 70 bc 63 8f ba 3b 79 3d 76 3d 7e 7d 9a 3b
       -0.014673889 0.0056933626 0.06011722 0.004714667
000330 d0 90 3d bc 7e 26 4a 3c df 24 aa bd d3 7e 90 bd
       -0.0115701705 0.012338279 -0.08307814 -0.0705544
000340 29 c3 0d bc da 07 b3 3c 84 fe 51 bc 28 24 ee bc
       -0.008652487 0.02185433 -0.012817029 -0.029069975
000350 cd ab 9c 3b f5 f5 40 3d 72 02 dd ba 85 29 c2 bb
       0.0047812224 0.047109563 -0.0016861691 -0.0059253597
000360 e4 48 f2 bb 16 9c 44 bd 8f 46 a2 3c dc eb 92 3c
       -0.007393943 -0.048000418 0.019809036 0.017934732
000370 9a d5 2b 3d f6 23 af 3c 1a bf a5 3c 9c b3 86 3c
       0.041951753 0.021379452 0.020232726 0.016443066
000380 90 54 40 bc 07 16 8a 39 09 31 14 bc d4 31 43 bd
       -0.011738911 0.00026337823 -0.009044894 -0.04765494
000390 6a c3 81 3c 0c d5 0d bc 22 95 1e bd a9 7a 89 3c
       0.015840251 -0.008656751 -0.038716443 0.016782122
0003a0 ed 6d 3e 3d 2c 77 a5 bc 07 e8 10 3b 72 c8 46 bc
       0.046491552 -0.020198427 0.0022110955 -0.012132751
0003b0 18 7b 96 3c 16 ea 57 bd c5 da 9d 3b b7 b3 f8 bc
       0.018369243 -0.052713476 0.004817339 -0.030359132
0003c0 93 6c 9d bc 8c 26 5b bd 67 2f 08 3c 51 ec 32 bc
       -0.019216811 -0.053503558 0.008312083 -0.0109206
0003d0 27 4f b7 bd 1f 40 8e bc b4 d3 7d 3c 81 2b d6 bb
       -0.08950644 -0.01736456 0.0154923685 -0.006535948
0003e0 09 0c 0a 3d b1 df bf 3b 8e 33 86 3c 37 f5 47 3c
       0.033702884 0.0058555235 0.016382005 0.01220446
0003f0 b7 2a 14 3d d3 b8 ba 3c 47 3c 77 3b ae 2a b3 3c
       0.03617355 0.02279321 0.0037725137 0.021870937
